anp_models/anp_link_prediction_next_topic_fixed_overfit_2024_10_17_12_06_17/model.pt (torch, 152153 bytes, 45 tensors)

att_src f4 [1, 4, 32]
000000 ae 55 80 be 88 a3 9a 3e 54 6c ad 3e 5a 80 88 be
       -0.25065368 0.3020289 0.3387171 -0.26660424
000010 6b 6c 3e bd 43 19 92 be b2 ed 62 3e a6 ae 4a 3e
       -0.046490114 -0.28534898 0.22160986 0.19793186
000020 05 96 b8 be c8 31 ad be 69 b2 d0 be 8a ac a6 3e
       -0.36051956 -0.33827043 -0.40761116 0.32553512
000030 84 4b 94 3e 69 fe 34 be 61 1f cd be 30 34 bf 3e
       0.28963864 -0.17675175 -0.40063003 0.37344503
000040 c8 8d e7 3d 56 6c 78 be a8 2a 14 be f6 78 23 be
       0.113063395 -0.24260077 -0.14469397 -0.15964112
000050 aa d6 c4 3e db f5 b2 3e 6f 1e 39 3d 42 e6 7e bd
       0.38445026 0.34953198 0.04519504 -0.06223131
000060 93 95 5a 3e 8f 43 a6 3b 0b 72 68 be 88 4a e4 3d
       0.2134612 0.0050739716 -0.22699754 0.11147028
000070 57 e0 9d be 66 e5 29 be 9c 35 76 3e ef c3 be be
       -0.3083522 -0.16591415 0.24043888 -0.3725886
000080 d5 9e a9 be 58 71 b5 bd b2 16 e9 bd 02 65 a2 be
       -0.33128992 -0.08859509 -0.11381282 -0.31717688
000090 e5 7b 67 3e 69 d0 40 3e 5d 46 67 be 8c 2b cb be
       0.22605856 0.18829502 -0.22585435 -0.3968166
0000a0 2d 25 d2 bd 2e a6 97 be 21 f8 67 3e d4 fe 8e be
       -0.10260997 -0.29618973 0.22653247 -0.27928793
0000b0 69 dc 0f be 09 29 b6 3e 82 73 44 3e f3 b9 67 bc
       -0.14048924 0.35578182 0.19184688 -0.014143455
0000c0 c0 ab b5 3c 25 af 59 3e ce 72 98 3c 7e 6d fd 3c
       0.022176623 0.21258219 0.01860943 0.030935999
0000d0 7f 50 c6 3e 00 a5 85 3e 6e 4d b8 be 71 7b ae bd
       0.3873329 0.26102448 -0.35996574 -0.08519638
0000e0 5e 0b c4 3e aa c8 4a 3e 68 46 81 be 7d 9c 16 3e
       0.38289922 0.1980311 -0.25249028 0.14708133
0000f0 f6 e9 21 3d 45 b2 ad be b2 db 02 3e 17 95 a1 be
       0.039529763 -0.3392507 0.1277912 -0.3155906
000100 2c 60 d1 3d 2a 03 24 bd 25 a6 d0 3e 47 9e d0 be
       0.102234215 -0.04004208 0.40751758 -0.40745756
000110 6c 4e 60 3d f0 51 bf 3e c1 31 f7 bc 06 e6 5f be
       0.05476229 0.373672 -0.030175092 -0.2186509
000120 ca 53 5d 3e d0 b1 19 3e 4a b3 30 3e 18 f1 dc 3d
       0.21613994 0.15009236 0.17255893 0.107881725
000130 6e 94 9e be b2 52 37 3d b9 53 07 be a6 33 c0 3e
       -0.30972618 0.0447566 -0.13215531 0.37539405
000140 df c1 a3 3e 0b 2c 2c be fe 03 ac 3e c6 72 50 3e
       0.3198385 -0.16813676 0.33596796 0.20356283
000150 bd 91 c0 3e b2 20 c8 3e 4b fa a3 3e df b6 7f bd
       0.3761119 0.39087445 0.32026896 -0.06243026
000160 89 0f 93 bc 28 d5 ab be 5e 27 41 be 9a 2e 9a 3e
       -0.017951744 -0.33561063 -0.18862674 0.3011368
000170 a0 f4 af be 0e dc 94 3e 77 cc c6 3d ed d3 94 3e
       -0.34366322 0.29074138 0.09706967 0.29067937
000180 f8 67 e7 3d 8f 36 d0 3e e9 d7 c9 3e f8 19 c2 bd
       0.11299127 0.40666625 0.3942254 -0.094776094
000190 7e b2 a0 3e 7b 41 cf 3c 62 b0 1d be 88 55 c0 be
       0.3138618 0.025299778 -0.15399316 -0.37565255
0001a0 4b ab 19 3e 9a 98 5d bd 3b 00 db bd d0 31 80 3e
       0.1500675 -0.05410061 -0.10693403 0.25038004
0001b0 0f a0 64 be 07 ed c8 be aa ab f8 3d b5 d2 a6 be
       -0.22326683 -0.39243338 0.12142117 -0.32582632
0001c0 76 a8 80 be d0 44 ca bd 89 ea ee 3c 2a c3 3d 3e
       -0.25128525 -0.09876406 0.02916457 0.1853148
0001d0 33 60 fe bd d0 17 ab bd 70 7d 9e be ef a0 bd 3e
       -0.12420692 -0.08354151 -0.30955076 0.37036845
0001e0 ad f0 fa 3d d2 82 76 bd ff 41 1b be c2 70 d0 3e
       0.122529365 -0.060183354 -0.15161894 0.40711027
0001f0 9b 9b 0e bd a9 39 b6 3e 9c da 30 3e fa 25 ac 3e
       -0.034816366 0.35590866 0.17270893 0.33622724

att_dst f4 [1, 4, 32]
000000 28 c5 49 3e 82 5b 73 bc 72 80 84 3e 07 ed ba be
       0.19704115 -0.01485336 0.25879246 -0.36508963
000010 86 75 12 bb 73 cf 13 3e c6 6f ad be ff e4 c1 3e
       -0.0022347881 0.14434604 -0.3387434 0.37870023
000020 6c 16 c4 be 99 dc f0 bc 6d 72 c1 3e 1d 93 11 3e
       -0.38298357 -0.029402064 0.37782612 0.14216276
000030 ac b1 10 be f6 de bd 3d 09 a0 ad bc 53 72 a8 3e
       -0.14130276 0.09271042 -0.021194475 0.32899722
000040 f3 5b ac be bc 84 1f be da 1f b4 bc 66 33 a9 bd
       -0.33663902 -0.15577978 -0.021987844 -0.082617566
000050 5c 38 6f bd a5 9b 36 bd 11 d1 87 be 01 10 9e be
       -0.058403358 -0.044582028 -0.26526693 -0.30871585
000060 29 fb b9 3e 6c 53 45 3e 37 b1 41 3e d4 63 17 3d
       0.36324432 0.19270104 0.18915258 0.036960438
000070 32 25 d4 3d bb 35 1d 3c b6 6a 9c 3e 3b 6c 22 be
       0.10358657 0.00959533 0.30550164 -0.15861599
000080 17 a1 9e 3e ba 2d b6 3d 32 4f 4a bc 9c 49 8c be
       0.30982277 0.088954404 -0.012347983 -0.2739991
000090 55 d9 5e 3d 25 39 96 be 64 af 97 3e bd fa ca 3e
       0.054406483 -0.29340473 0.29626 0.39644423
0000a0 08 78 10 3e d8 bf 7e be 5e 8f 8a 3d f2 80 cd bd
       0.14108288 -0.2487787 0.06765626 -0.1003436
0000b0 0c 9a 8c be b2 45 f2 3c ec 8e c7 3e 86 fa 52 3e
       -0.27461278 0.029574249 0.38976228 0.2060338
0000c0 9b f2 75 bd 80 60 6d be 2c 37 9d be 6c 02 7c 3e
       -0.06004582 -0.23181343 -0.30706155 0.24610299
0000d0 00 4d 90 be 6d d3 85 be cb 53 8f be 49 1b 45 bd
       -0.28183746 -0.26137868 -0.27993616 -0.048121724
0000e0 47 4a b8 3e 91 58 55 3e cd e7 7d be 87 72 d6 3d
       0.3599417 0.20834567 -0.24795456 0.10471063
0000f0 02 e5 c0 3e ee 2b 8a be bb 47 2b 3e ac 0e 92 bd
       0.3767472 -0.2698664 0.16726582 -0.07131705
000100 48 98 47 be 19 95 a5 3e 21 55 a5 be 9d bd 98 3d
       -0.19491684 0.32340315 -0.3229151 0.07458041
000110 1f 4c fd 3b 6d 1e fb bd f9 46 86 be 84 fc 84 be
       0.0077300216 -0.12261663 -0.26226023 -0.25973904
000120 9a 14 c7 3e 00 75 9e 3e 0c 3e 96 be 44 4d a2 3c
       0.38882905 0.3094864 -0.29344213 0.019812234
000130 b7 5b ce be 6b b8 19 3e e6 08 f0 3d a8 61 65 3e
       -0.40304348 0.15011756 0.11720447 0.22400534
000140 30 8d 81 3e 00 2e 13 3e 83 8e 2b be b3 ed b8 3e
       0.2530303 0.14373016 -0.16753583 0.3611885
000150 61 e9 d6 bc 86 da 41 3e 92 a8 1a 3e 81 9a 58 3e
       -0.02623433 0.18931016 0.15103367 0.21152689
000160 21 99 f3 3d cc 92 c7 3d e8 a4 b2 be 8e 50 23 be
       0.118944414 0.09744796 -0.34891438 -0.15948698
000170 c6 d6 b1 be 96 a2 3a 3e 6a 21 16 bd 52 36 99 be
       -0.34734172 0.18226084 -0.03665296 -0.29924256
000180 07 2b 34 3e 11 3f bc 3e f0 f2 79 3e b8 a3 c0 3e
       0.17594539 0.36766866 0.2440908 0.37624907
000190 ac 53 79 3e 15 0e c0 3d 8b e9 a4 bd c7 38 35 be
       0.24348325 0.09377686 -0.08052357 -0.1769744
0001a0 5f 47 be 3c 24 b9 89 bb ff 6b 96 3e c1 8a f6 bd
       0.023227392 -0.0042029787 0.2937927 -0.12038184
0001b0 5b df 4c 3d 68 70 9c be 36 fd 0b 3e f7 6f b5 3d
       0.050017696 -0.3055451 0.13670811 0.08859246
0001c0 9d 66 c3 be 55 e1 a1 3e 5d d2 c4 be 58 87 c7 be
       -0.38164225 0.31617227 -0.38441744 -0.38970447
0001d0 15 8d 94 3e 41 3a b4 3e 95 4b 87 bc 52 bc 67 be
       0.29013887 0.35200694 -0.016515533 -0.22630432
0001e0 99 e9 9f be 93 66 ba be f7 16 bb be 90 35 62 3d
       -0.31232908 -0.36406383 -0.36540958 0.055226862
0001f0 01 91 04 3e e6 ac 84 be 74 c1 e6 3d ee c0 5d 3e
       0.1294594 -0.2591316 0.11267367 0.21655628

bias f4 [128]
000000 00 00 00 00 00 00 00 00 00 00 00 00 00 00 00 00
       0.0 0.0 0.0 0.0
000010 00 00 00 00 00 00 00 00 00 00 00 00 00 00 00 00
       0.0 0.0 0.0 0.0
000020 00 00 00 00 00 00 00 00 00 00 00 00 00 00 00 00
       0.0 0.0 0.0 0.0
000030 00 00 00 00 00 00 00 00 00 00 00 00 00 00 00 00
       0.0 0.0 0.0 0.0
000040 00 00 00 00 00 00 00 00 00 00 00 00 00 00 00 00
       0.0 0.0 0.0 0.0
000050 00 00 00 00 00 00 00 00 00 00 00 00 00 00 00 00
       0.0 0.0 0.0 0.0
000060 00 00 00 00 00 00 00 00 00 00 00 00 00 00 00 00
       0.0 0.0 0.0 0.0
000070 00 00 00 00 00 00 00 00 00 00 00 00 00 00 00 00
       0.0 0.0 0.0 0.0
000080 00 00 00 00 00 00 00 00 00 00 00 00 00 00 00 00
       0.0 0.0 0.0 0.0
000090 00 00 00 00 00 00 00 00 00 00 00 00 00 00 00 00
       0.0 0.0 0.0 0.0
0000a0 00 00 00 00 00 00 00 00 00 00 00 00 00 00 00 00
       0.0 0.0 0.0 0.0
0000b0 00 00 00 00 00 00 00 00 00 00 00 00 00 00 00 00
       0.0 0.0 0.0 0.0
0000c0 00 00 00 00 00 00 00 00 00 00 00 00 00 00 00 00
       0.0 0.0 0.0 0.0
0000d0 00 00 00 00 00 00 00 00 00 00 00 00 00 00 00 00
       0.0 0.0 0.0 0.0
0000e0 00 00 00 00 00 00 00 00 00 00 00 00 00 00 00 00
       0.0 0.0 0.0 0.0
0000f0 00 00 00 00 00 00 00 00 00 00 00 00 00 00 00 00
       0.0 0.0 0.0 0.0
000100 00 00 00 00 00 00 00 00 00 00 00 00 00 00 00 00
       0.0 0.0 0.0 0.0
000110 00 00 00 00 00 00 00 00 00 00 00 00 00 00 00 00
       0.0 0.0 0.0 0.0
000120 00 00 00 00 00 00 00 00 00 00 00 00 00 00 00 00
       0.0 0.0 0.0 0.0
000130 00 00 00 00 00 00 00 00 00 00 00 00 00 00 00 00
       0.0 0.0 0.0 0.0
000140 00 00 00 00 00 00 00 00 00 00 00 00 00 00 00 00
       0.0 0.0 0.0 0.0
000150 00 00 00 00 00 00 00 00 00 00 00 00 00 00 00 00
       0.0 0.0 0.0 0.0
000160 00 00 00 00 00 00 00 00 00 00 00 00 00 00 00 00
       0.0 0.0 0.0 0.0
000170 00 00 00 00 00 00 00 00 00 00 00 00 00 00 00 00
       0.0 0.0 0.0 0.0
000180 00 00 00 00 00 00 00 00 00 00 00 00 00 00 00 00
       0.0 0.0 0.0 0.0
000190 00 00 00 00 00 00 00 00 00 00 00 00 00 00 00 00
       0.0 0.0 0.0 0.0
0001a0 00 00 00 00 00 00 00 00 00 00 00 00 00 00 00 00
       0.0 0.0 0.0 0.0
0001b0 00 00 00 00 00 00 00 00 00 00 00 00 00 00 00 00
       0.0 0.0 0.0 0.0
0001c0 00 00 00 00 00 00 00 00 00 00 00 00 00 00 00 00
       0.0 0.0 0.0 0.0
0001d0 00 00 00 00 00 00 00 00 00 00 00 00 00 00 00 00
       0.0 0.0 0.0 0.0
0001e0 00 00 00 00 00 00 00 00 00 00 00 00 00 00 00 00
       0.0 0.0 0.0 0.0
0001f0 00 00 00 00 00 00 00 00 00 00 00 00 00 00 00 00
       0.0 0.0 0.0 0.0

weight f4 [128, 2]
000000 be ee 5b bb 9b a3 f4 3d 85 ad 31 3e 41 78 7e 3b
       -0.003355905 0.11945268 0.17351349 0.0038829
000010 30 19 38 be 3a 06 56 3d 44 34 8e bd c0 b8 07 b8
       -0.17978358 0.052252032 -0.069435626 -3.235857e-05
000020 0d 11 d6 3d ff 0e 27 be d9 a9 fd bd b6 7a 56 be
       0.10452471 -0.16314314 -0.123859115 -0.20945248
000030 c2 df 55 be 6e 9b 40 be 5b 84 02 be b0 7d 13 3e
       -0.20886138 -0.18809292 -0.12745802 0.14403415
000040 6c 79 92 bd 4d 09 03 bd 32 b9 02 3b c5 a6 33 bd
       -0.07152066 -0.03199129 0.001994681 -0.043860216
000050 6a 66 3d be 26 ea 0a be 3f 67 14 3e 1f c3 23 3d
       -0.18496099 -0.13565883 0.1449251 0.039981004
000060 89 8c f0 bd 46 f8 ae 3d 75 3c 92 bd 2f a3 15 be
       -0.11745555 0.08543448 -0.071404375 -0.14613031
000070 ae 87 91 bd 69 cd eb bd 67 12 57 3e 73 45 c0 bd
       -0.07105957 -0.11513788 0.21003114 -0.093882464
000080 7d 17 0d 3e 49 be 4b 3e 16 6b 4d bd 7d a7 a3 3d
       0.13778491 0.19896807 -0.050150953 0.0799093
000090 90 88 ae 3d 56 d5 30 3e 47 bd 90 3d f4 49 a3 3d
       0.08522141 0.17268881 0.07067352 0.0797309
0000a0 3e 40 47 3e 03 24 ba bd 1c d8 2d 3e f3 5a 22 3d
       0.194581 -0.090889 0.1697697 0.039637517
0000b0 e3 88 42 bd 7d 82 0c be 49 c0 08 be bb 30 52 3d
       -0.047493827 -0.13721652 -0.13354601 0.051316004
0000c0 90 a3 06 be 4a 4c bc bc 4a cc b5 3c 59 37 71 3d
       -0.13148332 -0.022985596 0.02219214 0.058890674
0000d0 b2 a0 51 be 77 a2 30 bd 9c 6c 48 be 59 0e 37 3e
       -0.20471457 -0.04312369 -0.19572681 0.17876567
0000e0 a7 24 ef 3d 7a eb 8e 3d cc 8f 1f be 64 9e b4 3d
       0.11676913 0.06978507 -0.15582198 0.08819273
0000f0 40 1c fd 3d f9 2b 91 3d fe 99 17 3e a9 d9 0f be
       0.12358904 0.07088465 0.14804837 -0.14047875
000100 67 2f ea bd 0b 48 61 bc ee 9d 53 3e 28 ee fc 3d
       -0.114348225 -0.013750087 0.20665714 0.12350112
000110 a5 95 d0 bb f8 65 9f 3d 11 cb 3c 3d a8 3c fc bd
       -0.0063654953 0.07783121 0.046092097 -0.12316257
000120 b9 c9 37 be ea 8e 20 be 5a 24 48 be 81 30 0a 3e
       -0.17948045 -0.15679517 -0.19545117 0.13495065
000130 1c 33 39 be 38 81 06 3e d5 d8 13 be b4 bb 0a 3e
       -0.18085903 0.1313523 -0.14438184 0.13548166
000140 5c 8a e6 bc 4c 03 4c be c6 e1 34 be 36 da ea bd
       -0.028142147 -0.19923133 -0.1766425 -0.11467402
000150 fb b9 2c 3e d0 be f7 3d 26 9b 14 be 5b 9c 5b 3e
       0.16867821 0.120969415 -0.1451231 0.21446364
000160 69 5a c0 3d 7a f5 64 3d d9 5f 59 be ad ef 06 bd
       0.09392244 0.055898167 -0.21227969 -0.032943416
000170 b3 0c 42 bd fd 1f 46 3e 3c 05 ca 3d c5 e8 09 3d
       -0.047375392 0.1934814 0.0986428 0.033669252
000180 4c e1 b9 3c 2d f1 e7 bd 27 3e 58 be 7d 2c 5b be
       0.022690438 -0.113252975 -0.21117459 -0.2140369
000190 e4 13 f8 bd a6 5b fb 3d ff 90 fc 3d f5 65 0d bd
       -0.12113169 0.1227334 0.12332343 -0.034521062
0001a0 7c b6 10 bd fb 99 f5 3d e3 94 73 3d 41 50 38 bd
       -0.03533028 0.1199226 0.05946816 -0.04499841
0001b0 9c ae db bd fa 43 3d be 31 bf b8 3d 94 c7 d5 bb
       -0.107266635 -0.18482962 0.09020842 -0.0065240357
0001c0 cd de 20 3c 6a ba 16 be b8 98 97 3c 63 4b 5a 3d
       0.009818745 -0.14719549 0.01850544 0.05329455
0001d0 b3 8c 80 bd c4 14 b5 bd 15 fc 19 3d 2e 19 79 3d
       -0.06276836 -0.08841851 0.03759392 0.06081503
0001e0 51 31 3c be 0b e7 4c 3e a6 f1 77 bd 7c db 3f 3d
       -0.18378188 0.20010011 -0.06053319 0.046840176
0001f0 e5 3a d2 3d 1a 63 42 3d b2 05 cc 3d 1e e3 2a bd
       0.102651395 0.047457792 0.09962024 -0.041720502
000200 e9 95 a9 bd b4 88 40 be fa c6 97 3d f3 ce 35 bd
       -0.08280546 -0.18802148 0.07410999 -0.044386815
000210 a7 b6 39 3e 29 48 00 3e 8c f8 bc 3d 39 5f bd 3d
       0.18136083 0.12527527 0.09227094 0.09246678
000220 fb 73 1b be ce fe b6 3d 6c 02 c1 3c 11 26 06 3d
       -0.15180962 0.08935319 0.023560725 0.032751147
000230 73 57 1d 3d 9e 52 d1 3d 30 58 8d bd 58 b5 33 3e
       0.038413476 0.10220836 -0.06901586 0.17549646
000240 7c 08 91 3d 8c 18 2f 3e 81 16 0b bd 25 b6 40 bd
       0.070816964 0.17099208 -0.03395701 -0.047048707
000250 cc e6 81 bd 8f fb 6b bc 78 b6 bb bc d4 a4 df bd
       -0.06342849 -0.014403238 -0.022914156 -0.1092011
000260 e0 3a 91 3d b7 be 35 3e 08 2c 2b be 17 ff 0b 3e
       0.07091308 0.17748533 -0.16716015 0.13671528
000270 c9 b8 19 be e7 70 81 bd 94 43 87 bd 27 5f 4b be
       -0.15011896 -0.063203625 -0.066046864 -0.19860516
000280 8f 36 a1 ba a0 6c 71 3d bc e5 bc 3b a5 53 4b be
       -0.0012299585 0.058941483 0.005764691 -0.19856127
000290 d3 5d a3 3b b7 2c 33 3d b2 59 48 3e 63 c9 37 be
       0.00498555 0.043743815 0.19565466 -0.17947917
0002a0 3b 23 2a bd 0a 0b eb bd b7 4b 36 be 19 38 38 be
       -0.041537505 -0.11476715 -0.1780232 -0.1799015
0002b0 46 7b 2a be 15 55 95 3d 7b 68 ad bc e0 5d ba 3d
       -0.16648588 0.07291619 -0.021167984 0.090999365
0002c0 94 4f 09 3e c1 11 ff bc 31 09 a8 3d fc 55 2c 3e
       0.13409263 -0.031136395 0.08204878 0.16829675
0002d0 0e d9 4b be 47 97 2b 3e 75 ce cb 3d 8f 43 a1 3d
       -0.19907019 0.16756926 0.09951488 0.07874214
0002e0 d0 55 44 3b df 78 97 bd 9f 07 ac bd cd 15 ef bc
       0.0029958375 -0.07396101 -0.08399891 -0.0291852
0002f0 40 d3 09 3e ed 11 88 bd 55 ef 4c be b2 4d 3f be
       0.13459492 -0.06644044 -0.20013173 -0.18681982
000300 a4 4b d9 3d e8 30 43 be b8 8d 1c 3e a5 f7 55 bd
       0.106101304 -0.19061625 0.15288436 -0.052238125
000310 39 16 2c 3d a1 ea 1a 3e 49 89 12 be 9d d9 cb 3d
       0.04201338 0.15128566 -0.14310183 0.09953616
000320 0d c8 0f be ef 2a 27 3e 26 af 50 3e f6 fd 11 3e
       -0.14041157 0.16324972 0.20379314 0.14257035
000330 6f e6 3d 3e 5a 7c 93 3d c2 38 44 be 43 bb a8 3c
       0.18544935 0.072014526 -0.19162276 0.020597106
000340 1d ee b2 bd 45 07 95 bc 1a 4c f6 3d fc 18 d0 3c
       -0.08736823 -0.018191943 0.12026234 0.025402538
000350 8e 23 2e 3e d1 b4 ad 3d a7 ac c0 3c 4b fb 9a bd
       0.1700575 0.084817536 0.023519827 -0.075674616
000360 2c ce f5 3d 70 19 48 3e 3a 87 14 be ff af 2b 3e
       0.12002215 0.19540954 -0.1450471 0.16766356
000370 9c 1c 36 3e 1f 57 ae bd f0 e2 06 be 3f 0d 73 3d
       0.17784351 -0.08512711 -0.13172507 0.059338804
000380 d1 08 e1 bd 4e 28 c3 3d 52 30 1f 3e 08 4d 1e 3d
       -0.1098801 0.09529172 0.15545776 0.03864768
000390 da d3 04 3e 87 79 ca bd 0d fd 42 be aa eb ed 3d
       0.1297144 -0.09886461 -0.19041844 0.11617215
0003a0 fd 2d f8 bd 93 6e e7 bd 53 31 40 bd d3 79 64 bd
       -0.121181466 -0.11300387 -0.04692204 -0.055780243
0003b0 c5 8c be bd 9a 06 95 3d 6e 31 f4 bd a2 3a 42 3d
       -0.093041934 0.0727665 -0.119234905 0.047419198
0003c0 ab 71 bb bc e8 bd 29 be e4 56 12 be ac 0a 37 3e
       -0.02288135 -0.1657635 -0.14290959 0.17875165
0003d0 87 3d 93 3d 8f fa 67 3d 94 fc 27 be fe d5 cc 3d
       0.0718947 0.056635436 -0.16404945 0.10001753
0003e0 10 49 b4 3d 0d d6 06 3e 6a b5 91 bd b9 33 51 3e
       0.08802998 0.13167591 -0.0711468 0.20429887
0003f0 58 17 f4 3d 9c 65 94 bb ec 17 03 3e cd e3 2f 3c
       0.11918515 -0.0045287143 0.12802094 0.010735464

weight f4 [128, 2]
000000 28 7c 0f bd 06 33 c4 3d e5 32 f4 3d 3f 4f 47 3e
       -0.035030514 0.095800444 0.1192377 0.19463824
000010 75 bd 0c 3b 9f 4f bd bc ad 99 e7 bd f8 b9 9c bd
       0.002147523 -0.023109255 -0.11308608 -0.07652658
000020 3f 87 42 3d 05 d4 b3 3c d5 0d 92 bd ac a2 bb bd
       0.047492262 0.021951685 -0.071315445 -0.091618866
000030 80 e9 4b bc 2c eb 1b be e3 3a 1e be 4d 13 a1 bc
       -0.012445807 -0.1522643 -0.15452151 -0.019662524
000040 20 f8 b9 3c 9a fe af 3c b8 63 c2 3d b0 f5 3b be
       0.022701323 0.021483708 0.09491676 -0.18355441
000050 4e df 34 3e d3 61 2f bc 2f 70 85 bd af 51 a2 3d
       0.17663309 -0.010704475 -0.06515538 0.07925736
000060 42 6f 5d bd f6 57 1c be df 38 c8 3d b7 10 1b 3e
       -0.05406118 -0.1526793 0.09776472 0.15143095
000070 6a 46 ab 3d 75 e2 61 bd d0 6e b1 3d c2 05 29 be
       0.0836304 -0.055147607 0.08663714 -0.16506103
000080 6c 21 55 be 3e e4 32 3e d6 51 30 be aa a9 f0 bc
       -0.2081353 0.1746988 -0.17218718 -0.029377777
000090 29 1c a0 bc 2f 2a 89 bd e3 b9 42 be ca b3 3b 3e
       -0.019544678 -0.06697499 -0.19016223 0.18330303
0000a0 4f 3d 5d bd 08 f9 1d bd 60 25 31 3e 87 18 37 be
       -0.054013547 -0.038567573 0.17299414 -0.1788045
0000b0 39 b2 e6 3d 43 c3 6d bd 12 71 b7 bd 9c 50 03 be
       0.11264462 -0.058047544 -0.08957113 -0.12823719
0000c0 22 b7 c5 bd ae b2 21 bd e8 34 1b be a6 fd 4f bd
       -0.096540704 -0.039477043 -0.15156901 -0.050779007
0000d0 02 4c 13 be 30 96 20 3c 03 cc ea 3d 51 cc f5 3c
       -0.14384463 0.0098014325 0.114646934 0.030004652
0000e0 05 e0 a5 bc ef c1 eb bd 02 06 4a be ea 6a b5 3b
       -0.020248422 -0.11511599 -0.19728854 0.005536427
0000f0 d8 d2 36 bd c1 82 f0 bd 03 5d f4 bd 9f a0 1b 3a
       -0.04463467 -0.11743689 -0.11931803 0.0005936715
000100 e3 7d 25 be 8e 9c 61 3d dd b9 a1 3d a2 54 78 3d
       -0.16161303 0.055080943 0.07896779 0.060627587
000110 a8 86 90 bd 55 d6 82 3d 6b da 1b be 3d 28 91 3c
       -0.07056934 0.06388537 -0.15220039 0.017719382
000120 f5 77 20 be 10 20 29 be 4e 49 e0 bb 21 b6 fe bb
       -0.1567076 -0.16516137 -0.006844676 -0.0077731763
000130 4e f1 d3 bd cf 71 d7 bd c2 49 58 bd 8d 30 cd bd
       -0.103487596 -0.10519754 -0.052804716 -0.10019026
000140 a3 8a 39 3e b0 5e 97 bd 18 07 47 be 25 4a b5 bd
       0.18119292 -0.07391107 -0.194363 -0.088520326
000150 5f 48 ab 3d 67 88 36 3d 34 ea e7 bc 0a 0d 26 bd
       0.08363413 0.044563677 -0.028309919 -0.04053978
000160 b0 11 0d 3e 0d 66 1a be 92 67 0c be e1 00 47 3e
       0.13776278 -0.15077992 -0.13711384 0.19433929
000170 32 1f 06 be d1 62 79 3d c5 6e d8 bd 1d c7 35 3e
       -0.13097838 0.060885254 -0.105680026 0.17751737
000180 0d 00 8a 3d 4f 88 e2 3c 66 04 29 bd d8 0b 25 3d
       0.06738291 0.027652888 -0.04126396 0.0402945
000190 0d c1 23 3e a4 67 49 3e 73 8b 88 bc 59 57 5f 3d
       0.15991612 0.19668442 -0.016668057 0.05452666
0001a0 6e de 0f be 5f f9 dc bd 05 5c ad 3c 03 f9 60 3d
       -0.14049694 -0.10789751 0.021162042 0.054924976
0001b0 da bc 43 3d e1 d9 e3 3d e8 35 5b be 19 cc 1e be
       0.047787525 0.111255415 -0.21407282 -0.15507545
0001c0 98 ea d5 bd ef e2 59 be 84 b8 be bd bd fb 28 3e
       -0.10445136 -0.21277975 -0.09312537 0.1650228
0001d0 22 2c 50 3e a8 40 e2 bd 15 cc 01 be 29 e0 b4 bc
       0.20329335 -0.110474885 -0.12675507 -0.022079544
0001e0 12 79 a6 bd 09 a6 54 3e 84 d5 13 3e 45 9e 1a be
       -0.08128561 0.20766462 0.14436918 -0.15099438
0001f0 02 92 31 bc 3e dd 52 bb c4 cb 46 3e db 77 20 3e
       -0.010838034 -0.0032175328 0.19413668 0.15670721
000200 8d a0 22 3e 9c 16 30 3d b8 48 46 be 50 00 30 be
       0.15881558 0.042990312 -0.19363678 -0.17187619
000210 1c a1 9d bc 89 b1 ac bd de 29 31 3d cc 75 53 be
       -0.019241862 -0.084323 0.04325282 -0.20650405
000220 e0 67 d2 3d d7 c0 2c be 39 ac 07 3e 1e 19 4e 3d
       0.10273719 -0.16870438 0.13249291 0.050316922
000230 a4 bd 23 3c 04 55 03 bd f4 1c a7 bd 36 d6 3c 3e
       0.009993944 -0.0320635 -0.08159819 0.1844109
000240 14 00 50 be 9d b0 54 bc 0a 98 a9 bd b9 a3 57 3e
       -0.2031253 -0.012981561 -0.08280952 0.21058549
000250 2e 53 e4 bd 48 c4 0c be 3d 5e e1 3d 7e c2 1b 3e
       -0.11148678 -0.1374675 0.11004303 0.15210912
000260 c3 c3 3d be c8 3a 11 be 37 ab 18 be 60 72 8f bd
       -0.18531708 -0.1418258 -0.14909063 -0.07004237
000270 06 1f 24 3e 88 54 da 3d 97 ab 25 be c3 45 9c bd
       0.1602746 0.10660654 -0.16178738 -0.076304935
000280 29 90 e0 3d 19 9c 88 3d 1f d2 12 3d 18 2d 87 3d
       0.10964996 0.06670398 0.03584492 0.06600398
000290 d3 d8 cc 3d 6f 20 cb bd 84 a7 50 3e ac a6 9e 3b
       0.100022934 -0.099182956 0.20376402 0.004841646
0002a0 d6 86 1b 3e b1 04 fa bd 95 a3 18 3e 77 4a 53 be
       0.15188155 -0.12207926 0.14906152 -0.20633875
0002b0 b7 58 30 be 1a 89 3f be b4 c5 18 3e 0b 71 1e 3d
       -0.17221342 -0.18704644 0.14919168 0.038682025
0002c0 81 35 e2 bd 1d ed 5f 3d 1e 5d 2a b9 f3 01 51 be
       -0.11045361 0.05466949 -0.00016247152 -0.204109
0002d0 b6 ef a2 3d 85 ca 80 bd f4 63 4c bd 89 ef 09 3e
       0.079558775 -0.062886275 -0.04990001 0.13470282
0002e0 5f ee 41 be f2 1c 1f be b8 8c 49 3e 68 49 18 3e
       -0.18938588 -0.15538386 0.19682586 0.14871752
0002f0 bd 47 f6 bd 29 f4 0a be 9f c4 15 3e 85 c2 4e 3e
       -0.12025402 -0.13569702 0.14625786 0.20191391
000300 79 02 bf bb 10 91 48 bc bd f5 2b be fd 6b 34 3d
       -0.005829152 -0.012241617 -0.1679296 0.0440483
000310 16 5c 65 bd 52 b5 05 bd 3b cb 8a 3d e4 12 38 be
       -0.055996023 -0.032643624 0.067770444 -0.17975956
000320 3a d0 45 be 59 4d 15 be 75 ec 34 bd 20 ec bc bd
       -0.19317713 -0.14580287 -0.044170815 -0.09224725
000330 f7 3d 0b 3e 3e ef b3 bd f5 da 6a bd 02 94 59 be
       0.13597856 -0.08785866 -0.05733772 -0.21247867
000340 83 1b 3f be b5 11 c3 3d 5d e7 d8 bd b1 fe ec 3d
       -0.18662839 0.09524862 -0.10591004 0.11572016
000350 77 4b 5f bd 3b 5b 95 3d c4 cd 28 be 32 50 c1 bb
       -0.05451533 0.072927915 -0.16484743 -0.0058994526
000360 4e d7 2b 3d ea db 2c be 2d 3a 10 3e 3d 67 aa bc
       0.041953377 -0.16880766 0.14084692 -0.020801181
000370 a9 53 e1 3d 4d cb cb 3d 90 e9 4f bd 4c 2f 0f bd
       0.11002285 0.09950886 -0.050759852 -0.034957215
000380 f9 b5 de bd cf 43 a6 bc c3 69 83 bd b2 25 2d 3d
       -0.10874552 -0.020296006 -0.06416657 0.042272277
000390 be 29 f0 3d 66 e0 96 bd a9 64 3f 3e af 52 4f be
       0.11726712 -0.07367019 0.18690743 -0.20246385
0003a0 d9 be e1 3c b4 4b 26 be f9 3d ba 3d 1f 59 1e be
       0.027556824 -0.16239816 0.090938516 -0.15463684
0003b0 35 7e 50 3e 96 a3 bd bd 6d b3 58 be ff 85 27 be
       0.20360644 -0.09259717 -0.21162196 -0.16359709
0003c0 a7 14 54 3e 34 3c 3f be d9 68 b6 3c 37 84 cf 3c
       0.20711003 -0.1867531 0.022266792 0.0253316
0003d0 32 c8 6e bc 33 e5 d9 bd d8 6b 45 3e 90 51 22 be
       -0.0145740975 -0.106394194 0.1927942 -0.15851426
0003e0 32 69 28 bc 02 d9 dd 3d c1 42 a8 3d 90 aa 91 3d
       -0.010278987 0.108324066 0.08215857 0.0711261
0003f0 b9 7d ed 3c b7 97 5e bc 8b 15 37 3e 91 d6 44 bd
       0.028990613 -0.013585976 0.17879312 -0.04805619

att_src f4 [1, 4, 32]
000000 b8 81 c1 bd c9 3b 97 3c 5f 80 c1 bd cb 7d 9a 36
       -0.0944857 0.018461125 -0.09448313 4.604202e-06
000010 6c c5 98 3d 46 bc 63 b5 ba 37 af 3d a6 5a 8b 3c
       0.0745953 -8.4838064e-07 0.08555551 0.017010998
000020 51 4b 9f 33 3d 98 d2 36 54 ae 1a 3c 3b 32 95 bc
       7.4177144e-08 6.2762106e-06 0.009440977 -0.018212428
000030 76 de dd 3d e6 ef d9 3d 9d 36 6d 3d d5 43 ad 3c
       0.10833447 0.1064146 0.05791341 0.021150509
000040 e5 9c f3 34 7a cf 12 3d 96 0c cc 3b 78 31 8e 3d
       4.5376433e-07 0.035842396 0.0062270863 0.06943029
000050 5a ca 35 3e b3 5f f9 bd 63 d5 0f 3c 27 74 a9 bb
       0.17752972 -0.12176456 0.008778903 -0.005171317
000060 42 f9 c7 b6 8d b0 5c b2 29 72 ea bc ae 10 ad bd
       -5.9596796e-06 -1.2845828e-08 -0.028618889 -0.08450447
000070 22 e4 da 3b d5 ee 0b bd 7b 9b a9 bd 3c e0 27 bd
       0.0066800276 -0.034163315 -0.08281609 -0.04098533
000080 be a6 0e 3c 8d 18 40 3a 8c 71 4e 3b 71 1f 3c 3b
       0.008706747 0.0007327877 0.0031500785 0.0028705264
000090 d3 75 a4 bb 07 1b 44 3b 5e 38 14 bb 63 9f 22 3b
       -0.0050189286 0.0029923336 -0.0022616605 0.002481424
0000a0 78 93 b2 3a 7a 0a e9 3a 50 21 06 bb e8 c7 45 3b
       0.0013624271 0.0017779612 -0.0020466633 0.0030178968
0000b0 dd 7d e9 3a ce 40 20 39 d5 5c 4e ba 47 6a 7e b9
       0.0017814 0.0001528293 -0.00078721094 -0.00024262919
0000c0 15 02 37 3b 32 fa 4c 3b a8 41 8e bc 0b 18 43 3b
       0.0027924825 0.0031277058 -0.017365292 0.002976897
0000d0 2b 4d 47 3b 39 82 2d bb 0f a7 04 b9 54 f0 6c bb
       0.0030410986 -0.0026475324 -0.00012650735 -0.003615399
0000e0 b8 a7 86 bc 84 48 0f 3b e3 45 31 3b 5b 60 43 3b
       -0.016437396 0.002186329 0.0027049712 0.002981207
0000f0 9a d6 30 3b b0 9b f7 3c f0 a5 07 bb 6e 90 fd 3a
       0.0026983381 0.030225605 -0.0020698272 0.0019345412
000100 6c 23 43 3c ed 1f 5e b9 cd 15 5a 3c 6f 23 f9 3c
       0.011910301 -0.00021183463 0.013310862 0.030412404
000110 2a fc 4d 3c a0 9d 95 3c b6 06 b9 3c fd 6b 8b 3c
       0.012572328 0.018263638 0.022586208 0.017019266
000120 fc 94 24 bc f5 2b 9b 3d 0c e7 f5 bb 4d 3d 95 bd
       -0.010045286 0.075767435 -0.0075043496 -0.07287083
000130 f0 58 67 3d 4c 74 56 bd 0e 8c ab 3d a6 98 2b 3d
       0.0564813 -0.052357003 0.08376323 0.041893624
000140 e4 82 1b 3c cd aa 8e 3c a2 d8 8f bc 4a bd c7 3b
       0.009491656 0.017415429 -0.017559353 0.006095563
000150 92 42 98 bc 23 bd 03 bd 8f 5d 5e 3c 9e 3f fc bc
       -0.01858643 -0.032162797 0.013572111 -0.030792054
000160 32 8c 8f 3d 3c 19 7f bc e5 c5 4c 3c da 95 80 bd
       0.07009162 -0.015569981 0.012498354 -0.06278582
000170 e3 0b 0f bd 56 5e e9 3c 00 41 b8 bd e9 81 c2 3d
       -0.034923445 0.028487366 -0.08996773 0.09497435
000180 df d0 81 b9 83 b6 ba 3a a6 fe 97 3c ee 04 ef b9
       -0.00024760418 0.0014245067 0.018554043 -0.00045589305
000190 aa d6 b5 37 c6 82 83 37 66 4d 28 bd e8 e0 86 39
       2.1676842e-05 1.5677313e-05 -0.041089438 0.0002572604
0001a0 6e 29 ca b9 27 a7 25 3c d1 2b 50 3c 92 b1 db ba
       -0.0003855931 0.010110653 0.012705759 -0.0016761294
0001b0 88 33 3e 3c cb 48 97 3c 8b 6e 48 b9 2a 59 19 39
       0.011608966 0.018467328 -0.00019114667 0.00014624433
0001c0 21 8a d8 b7 62 70 50 3b ee 86 12 3c 20 2f 88 bd
       -2.5813528e-05 0.0031805267 0.008943303 -0.066496134
0001d0 45 81 fe 3b ed 30 3e 3c 94 9e 0c 38 6f 1d f0 3b
       0.007766875 0.0116083445 3.352629e-05 0.0073277275
0001e0 d5 5a 37 3c 77 11 ba 3b 8e 0b 8b 3b 11 4a 25 3c
       0.01119109 0.0056783515 0.004243321 0.01008846
0001f0 9c 8b 10 bd de 50 d6 37 40 ae d3 3b 25 1e 5f 3d
       -0.035289392 2.5548445e-05 0.006459981 0.054472107

att_dst f4 [1, 4, 32]
000000 60 01 00 00 8e 01 00 80 5f 01 00 80 65 01 00 00
       4.93e-43 -5.58e-43 -4.92e-43 5e-43
000010 61 01 00 00 72 01 00 00 cf 04 00 80 60 01 00 80
       4.95e-43 5.18e-43 -1.725e-42 -4.93e-43
000020 61 01 00 00 62 01 00 00 5f 01 00 80 5f 01 00 80
       4.95e-43 4.96e-43 -4.92e-43 -4.92e-43
000030 5f 01 00 80 a7 01 00 80 60 01 00 80 61 01 00 00
       -4.92e-43 -5.93e-43 -4.93e-43 4.95e-43
000040 6b 01 00 00 60 01 00 80 5f 01 00 80 94 01 00 00
       5.09e-43 -4.93e-43 -4.92e-43 5.66e-43
000050 5f 01 00 80 87 01 00 80 60 01 00 00 5f 01 00 80
       -4.92e-43 -5.48e-43 4.93e-43 -4.92e-43
000060 62 01 00 00 91 01 00 00 5f 01 00 80 61 01 00 00
       4.96e-43 5.62e-43 -4.92e-43 4.95e-43
000070 61 01 00 00 62 01 00 80 e4 01 00 00 03 05 00 80
       4.95e-43 -4.96e-43 6.78e-43 -1.798e-42
000080 9c 0b 00 80 6a 01 00 80 5f 01 00 80 b2 00 00 00
       -4.165e-42 -5.07e-43 -4.92e-43 2.5e-43
000090 93 01 00 00 7b 01 00 00 a5 01 00 00 02 01 00 00
       5.65e-43 5.31e-43 5.9e-43 3.62e-43
0000a0 62 01 00 80 64 01 00 00 98 01 00 80 15 01 00 80
       -4.96e-43 4.99e-43 -5.72e-43 -3.88e-43
0000b0 67 01 00 00 12 03 00 80 61 01 00 00 62 01 00 80
       5.03e-43 -1.101e-42 4.95e-43 -4.96e-43
0000c0 a2 00 00 00 b7 01 00 80 5f 01 00 00 30 01 00 80
       2.27e-43 -6.15e-43 4.92e-43 -4.26e-43
0000d0 88 01 00 80 7d 01 00 80 71 01 00 00 89 01 00 80
       -5.5e-43 -5.34e-43 5.17e-43 -5.51e-43
0000e0 bb 00 00 80 15 00 00 00 92 01 00 80 6f 01 00 00
       -2.62e-43 3e-44 -5.63e-43 5.14e-43
0000f0 75 01 00 00 08 00 00 80 fa 01 00 00 89 01 00 80
       5.23e-43 -1.1e-44 7.09e-43 -5.51e-43
000100 d2 02 00 00 5f 01 00 00 75 01 00 80 0b 01 00 80
       1.012e-42 4.92e-43 -5.23e-43 -3.74e-43
000110 60 01 00 80 5f 01 00 00 60 01 00 80 60 01 00 00
       -4.93e-43 4.92e-43 -4.93e-43 4.93e-43
000120 60 01 00 80 60 01 00 80 76 01 00 00 ec 00 00 80
       -4.93e-43 -4.93e-43 5.24e-43 -3.31e-43
000130 62 01 00 80 e9 03 00 80 62 01 00 80 80 01 00 80
       -4.96e-43 -1.403e-42 -4.96e-43 -5.38e-43
000140 61 01 00 00 5f 01 00 80 5f 01 00 80 5f 01 00 80
       4.95e-43 -4.92e-43 -4.92e-43 -4.92e-43
000150 5f 01 00 00 fb 03 00 80 60 01 00 00 60 01 00 00
       4.92e-43 -1.428e-42 4.93e-43 4.93e-43
000160 7b 01 00 80 62 01 00 80 60 01 00 00 5f 01 00 00
       -5.31e-43 -4.96e-43 4.93e-43 4.92e-43
000170 62 01 00 80 61 01 00 00 62 01 00 80 6c 01 00 80
       -4.96e-43 4.95e-43 -4.96e-43 -5.1e-43
000180 2c 07 00 80 5f 01 00 00 5f 01 00 80 61 01 00 00
       -2.573e-42 4.92e-43 -4.92e-43 4.95e-43
000190 63 01 00 80 60 01 00 80 60 01 00 00 5f 01 00 00
       -4.97e-43 -4.93e-43 4.93e-43 4.92e-43
0001a0 79 01 00 80 bd 01 00 80 7b 01 00 00 2e 01 00 80
       -5.28e-43 -6.24e-43 5.31e-43 -4.23e-43
0001b0 61 01 00 80 62 01 00 00 29 04 00 00 ba 04 00 00
       -4.95e-43 4.96e-43 1.492e-42 1.696e-42
0001c0 61 01 00 80 5f 01 00 00 6a 01 00 00 3c 04 00 80
       -4.95e-43 4.92e-43 5.07e-43 -1.519e-42
0001d0 8a 01 00 80 64 01 00 80 62 01 00 80 60 01 00 00
       -5.52e-43 -4.99e-43 -4.96e-43 4.93e-43
0001e0 62 01 00 00 64 01 00 00 60 01 00 80 5f 01 00 80
       4.96e-43 4.99e-43 -4.93e-43 -4.92e-43
0001f0 70 01 00 80 60 01 00 00 5f 01 00 00 67 01 00 80
       -5.16e-43 4.93e-43 4.92e-43 -5.03e-43

bias f4 [128]
000000 bd 16 c7 35 2b 8c 0b b9 89 5f da b8 63 b4 b4 b6
       1.4833273e-06 -0.0001330829 -0.00010412845 -5.385418e-06
000010 00 00 00 00 37 93 99 3c 77 3a 8e 3c 60 ee d0 b8
       0.0 0.018746955 0.017361863 -9.962614e-05
000020 0d 0b ec 3b f3 43 8f 3c d6 91 be 39 1d d8 a9 3c
       0.007203466 0.017488455 0.0003634828 0.020732934
000030 ca 44 59 39 86 96 90 3c a2 08 22 38 f7 b1 82 3c
       0.00020720359 0.0176499 3.863185e-05 0.015954
000040 82 1a 6b 3c 00 00 00 00 21 fd 8b 3c f9 bf 04 37
       0.014349582 0.0 0.017088475 7.91251e-06
000050 00 00 00 00 77 63 d9 b5 c1 fa 73 b9 82 26 02 b7
       0.0 -1.6196708e-06 -0.00023267699 -7.75757e-06
000060 38 56 61 b8 0d 9a b2 af 97 2a 89 3c 24 06 fb b4
       -5.3724478e-05 -3.248747e-10 0.016743941 -4.675686e-07
000070 3b 1a 8d 3c cb 71 87 3c 62 91 6e 3c 18 5c 18 b9
       0.017224422 0.016533753 0.014561029 -0.00014530157
000080 ad ef 63 3c 83 91 32 b6 e6 6d cf 35 7f 03 63 b9
       0.013912124 -2.6608766e-06 1.5454686e-06 -0.0002164971
000090 39 31 83 3c 90 81 dc b6 40 73 8b 3c ad 8e 8f 3c
       0.016014682 -6.571594e-06 0.017022729 0.017524088
0000a0 a7 0f 44 b7 23 d8 fb 35 2e e6 f3 3a 51 ff 60 b9
       -1.1686155e-05 1.8763861e-06 0.0018608028 -0.00021457417
0000b0 8b 52 95 3c d9 8e f5 b8 84 99 9f b0 69 9c 62 b6
       0.018227836 -0.00011709118 -1.1612404e-09 -3.3767667e-06
0000c0 ac 35 b7 34 e1 76 03 b9 6a e3 c4 b2 67 39 44 37
       3.4125458e-07 -0.0001253742 -2.2920819e-08 1.1695875e-05
0000d0 8a e7 68 b7 61 46 ea b1 48 6f 57 b6 f7 3a 13 3b
       -1.3882187e-05 -6.8182975e-09 -3.210227e-06 0.0022465566
0000e0 b2 43 7f b9 4b 46 55 b6 5c 70 30 37 7c 97 89 38
       -0.00024343914 -3.178039e-06 1.0516578e-05 6.560885e-05
0000f0 6c 15 df b8 f9 d7 8e b9 86 87 12 b8 3a f2 45 b8
       -0.00010637459 -0.00027245263 -3.493533e-05 -4.719405e-05
000100 63 0a f8 3b cc a4 98 3c 32 60 86 b4 cf 29 78 3c
       0.0075695976 0.018633269 -2.5029436e-07 0.015146687
000110 f2 af 70 b8 cd 67 4c b7 d0 93 75 3c a4 67 1c b4
       -5.738432e-05 -1.21835155e-05 0.0149888545 -1.4566336e-07
000120 ce 0a 97 3c 97 b8 91 ba 59 54 97 3c 4d 4d 18 b8
       0.01843777 -0.0011117634 0.018472837 -3.6311616e-05
000130 6b f0 94 3c d6 bd 51 35 d1 fa 8e ba 16 45 3c 3c
       0.018181046 7.8134815e-07 -0.0010908489 0.011491081
000140 56 b6 96 3c 30 e6 64 3c 4e 6e fb b6 70 e7 8a b8
       0.018397491 0.013970897 -7.493224e-06 -6.6234614e-05
000150 17 ab 95 b6 7b e5 45 b4 98 e8 bf b5 ef 02 34 b9
       -4.4604635e-06 -1.8430539e-07 -1.4298303e-06 -0.0001716723
000160 02 99 75 3c 88 bf 5d 35 f9 b6 43 a1 54 e5 43 3d
       0.014990093 8.260763e-07 -6.631073e-19 0.047826126
000170 b3 43 97 3c 6d 9d d1 b6 9d 76 96 3c 29 eb 83 ba
       0.018464899 -6.247012e-06 0.018367106 -0.001006459
000180 df 15 b6 3b 34 da 18 b8 88 f4 60 39 3b 2f cd 37
       0.0055568065 -3.644284e-05 0.000214534 2.4459898e-05
000190 9f 9f aa b3 a9 de 80 3c cd 14 99 3c 7e e6 4a 37
       -7.945277e-08 0.015731173 0.018686676 1.2093804e-05
0001a0 75 a1 cc 37 e5 65 52 b7 a8 11 b4 b7 95 1c 92 b7
       2.439388e-05 -1.25407e-05 -2.1465894e-05 -1.7417866e-05
0001b0 cf c7 37 36 3c bb 5a 34 61 50 d2 37 0a 67 74 b7
       2.738543e-06 2.0370948e-07 2.507138e-05 -1.4567524e-05
0001c0 10 e5 2f b6 c1 48 b8 b7 da d6 f1 36 b4 64 72 3c
       -2.6210364e-06 -2.1968388e-05 7.2073717e-06 0.014794517
0001d0 9a 6b 89 b6 f1 f6 dd 3a 46 8b 8d 35 65 93 97 37
       -4.0954446e-06 0.0016934556 1.0545853e-06 1.8069239e-05
0001e0 0d 67 f1 b5 37 7b 94 3c d3 2c a1 b7 70 d4 29 b7
       -1.7985891e-06 0.01812516 -1.9213569e-05 -1.0122647e-05
0001f0 e4 8c f9 3b 6f e9 91 34 0a 8c 3f 37 c0 41 b7 36
       0.0076156724 2.71782e-07 1.14170925e-05 5.4614793e-06

weight f4 [128, 2]
000000 ec 36 e4 3b a3 89 79 3d d1 e5 37 3a 9e dc 2d bd
       0.006964555 0.060922276 0.00070151413 -0.042446725
000010 e6 26 47 bb 03 9b a4 3d 55 fa a3 b9 d2 25 7a b5
       -0.0030388176 0.08037379 -0.00031276295 -9.3187293e-07
000020 bb 00 fe ba 7c 71 60 bd 6b 08 85 b9 be a7 cd b4
       -0.001937888 -0.054795727 -0.0002537401 -3.8306274e-07
000030 01 fb a0 bc 13 22 a0 3d 6f 59 44 3a 90 e1 1a bd
       -0.019650938 0.07818999 0.0007490133 -0.03781277
000040 b8 b2 16 b7 06 3b 7f 33 ac e6 98 b9 8b ce 91 37
       -8.982308e-06 5.9425496e-08 -0.00029163563 1.7381526e-05
000050 60 63 3b 3a 87 3e 47 bd a3 1e 0e ba dc 5f 63 3d
       0.0007148292 -0.048643615 -0.00054214353 0.05551134
000060 01 e5 b5 3a 9d e9 ad bd b9 e2 3a ba 59 d7 bd 3d
       0.0013877453 -0.08491824 -0.0007129121 0.0926959
000070 58 87 50 3a de d6 1d bd 6a a7 2f ba f8 48 b2 3d
       0.0007954738 -0.03853499 -0.0006700667 0.08705324
000080 db 7f a9 b9 cb 3e 75 b8 8a fc 81 ba c4 8d fa bc
       -0.00032329452 -5.8471032e-05 -0.0009917181 -0.030585177
000090 1d 32 0e b9 10 46 cc bb f3 49 7e 3b 45 ab 21 3d
       -0.00013560844 -0.006233938 0.0038801401 0.039469976
0000a0 32 50 81 bb d8 44 0b be 72 82 f3 3b 75 21 ac 3d
       -0.0039463276 -0.1360048 0.007431322 0.08404819
0000b0 0d 1b 0a 3a 01 89 07 bd c1 d6 70 3b 9f 9b ba 3b
       0.0005268313 -0.03308964 0.0036749097 0.005694821
0000c0 0f 7e 6b 3a 9a bf 02 b9 61 d5 52 b4 9e b5 97 b0
       0.0008983323 -0.00012469143 -1.9635401e-07 -1.1038315e-09
0000d0 e9 da 3e ba 51 fc a7 3d a6 49 02 3c 45 b2 af 3d
       -0.0007280545 0.082024224 0.0079521295 0.08578924
0000e0 e1 28 ba bb c9 12 30 3c c9 df d4 bb 5a 28 ed 3c
       -0.0056811427 0.010746666 -0.006496404 0.028949905
0000f0 ed 84 74 b9 1c 44 7f bd 2d 54 73 3a aa 73 5d bd
       -0.00023319172 -0.062320814 0.00092822575 -0.054065384
000100 2c d2 1d b8 b0 70 0c bd ba 85 ae 3c 97 25 cd 3b
       -3.7627455e-05 -0.034287155 0.021304 0.0062605846
000110 0c cc a0 3b 6c 74 b3 bb 8c 30 a0 39 df 8a 12 bb
       0.004907137 -0.005476525 0.00030553748 -0.0022360606
000120 2c 34 aa b9 76 b6 f1 bb 3c b1 a9 3b f7 08 b8 bb
       -0.00032463798 -0.0073764874 0.0051785987 -0.005616303
000130 1f a8 76 39 0d cf c0 ba ed c4 99 b9 ad 4b 1e bb
       0.00023523018 -0.0014710143 -0.00029329155 -0.0024153993
000140 22 9a 69 bc 2a a3 62 3c 9e b9 4b 3b 67 81 05 bb
       -0.0142579395 0.013832847 0.0031085978 -0.002037132
000150 8b 1e ce bc 03 9d b4 3b 2b d3 9a 39 39 90 34 bb
       -0.025161048 0.0055118813 0.000295305 -0.0027551784
000160 ce 65 75 b9 72 15 d4 ba 97 3b 85 bc 5b dd e8 3b
       -0.00023402946 -0.0016180708 -0.016263766 0.0071064658
000170 26 c9 0e bd a3 84 a7 3c 07 07 9e 3c 47 83 a5 3b
       -0.0348598 0.020448988 0.01929046 0.00505105
000180 99 cf ac 3b e7 37 80 bb d5 29 c8 39 14 3e 39 bb
       0.005273771 -0.003912914 0.0003817814 -0.0028265761
000190 50 41 07 bd 6c 0c 44 3c e5 7b da 3b 19 3c dd bb
       -0.03302127 0.011965852 0.0066676014 -0.006751549
0001a0 ed f4 58 3b f8 ae 91 bb 27 ef 8b bc 11 eb 58 3c
       0.0033104972 -0.0044459067 -0.01708181 0.013239638
0001b0 14 3e 9f 3c cf be 9e 3b 44 50 3c bc f9 1b 1f 3c
       0.01943878 0.0048445235 -0.011493746 0.009711259
0001c0 bc 8e d0 bc 13 33 14 3c b6 00 40 3b 34 02 1c bb
       -0.025458686 0.00904538 0.0029297299 -0.0023805024
0001d0 b5 30 3b 3a eb 69 23 bb 2b fd 07 3a 36 08 2c bb
       0.0007140742 -0.0024934958 0.0005187566 -0.0026250011
0001e0 dd 66 db 39 ef 64 49 bb dd 41 a9 bc 73 18 da 3c
       0.00041847574 -0.0030730327 -0.020661289 0.026622986
0001f0 7c fa af bc 36 67 7d 3c 3f c5 ae 3a 57 73 b2 ba
       -0.021481745 0.015466502 0.001333393 -0.0013614696
000200 0e 88 a0 b9 a4 0e 44 bc a2 82 2b ba 88 49 1f 39
       -0.00030618947 -0.011966381 -0.0006542598 0.00015190814
000210 3f 5f 7b 35 fe 21 5a bc 53 91 74 b9 4b 2a f9 bc
       9.364339e-07 -0.013313768 -0.00023323791 -0.030415675
000220 4d 69 9a b9 68 17 4c bc d8 a0 1c b9 4f 08 96 bc
       -0.00029451624 -0.012456752 -0.00014937238 -0.018314509
000230 06 c1 63 b9 08 cc b8 bc d4 16 1a b9 1b 84 8b bc
       -0.00021720314 -0.022558227 -0.00014695089 -0.017030766
000240 68 00 ca bb 27 7b 0d 3c a5 b4 48 39 87 53 7d bd
       -0.006164599 0.008635319 0.00019140782 -0.061847236
000250 df 8b a7 bb 9f ec ca 3b 7f 3e 7f bb 8e 9b 89 3d
       -0.0051131095 0.006192758 -0.0038947163 0.06719123
000260 39 ea 57 b9 0a a0 65 bd ab a8 ee 3b 03 f9 4f 3d
       -0.00020591253 -0.05606083 0.0072832904 0.050774585
000270 9a de 71 39 84 60 8d bd ab f1 92 b9 9c ff 2a bd
       0.00023066477 -0.069031745 -0.00028027347 -0.041747674
000280 1a 32 6a b9 bd 4e 1b bc 93 94 e2 b8 0c b4 8e bc
       -0.00022334643 -0.009479222 -0.00010804194 -0.017419837
000290 80 c2 aa 3b 7c 9f 88 3c 0d 5a b0 b7 a2 8a c7 bb
       0.0052111745 0.01667761 -2.1022768e-05 -0.0060895244
0002a0 00 31 b5 3b 34 b0 90 3c 64 fe c7 3b 8e ad 00 3d
       0.005529523 0.017662145 0.006103324 0.031415515
0002b0 6e 94 4c b9 fc 95 5e bc 06 e5 9c b9 f0 d1 fa 3c
       -0.0001951025 -0.013585564 -0.00029925274 0.030617684
0002c0 b0 8f 1d b9 79 18 86 bd b1 24 a6 3b 2c 3a 6f 3c
       -0.00015026215 -0.065476365 0.005070292 0.014601272
0002d0 58 b3 fa b7 85 b0 4c bc c8 9f 41 b9 26 13 8f 3d
       -2.9885836e-05 -0.012493257 -0.00018465437 0.06986074
0002e0 d5 a6 fa bc 76 6e 20 3d 32 f1 34 b9 ed 6e e9 bc
       -0.03059713 0.039167844 -0.0001725599 -0.028495276
0002f0 43 1a a1 bd 5f c8 cf 3d 9e f3 8d 39 fa 05 ae bd
       -0.07866337 0.1014564 0.00027075125 -0.08497234
000300 a7 7b 64 b9 ec 1b a4 b9 0f 63 1a bd c1 b1 35 3b
       -0.00021789839 -0.0003130132 -0.037692126 0.0027724358
000310 89 5b b1 bc 28 d6 c1 3c b3 82 13 3c 96 17 7f ba
       -0.021650093 0.023661688 0.009003329 -0.00097309926
000320 6f 66 3e 3b 68 34 86 37 b3 b1 9f b9 88 c9 5b b7
       0.0029052754 1.5998448e-05 -0.0003045924 -1.310034e-05
000330 74 37 1d 3a 88 f0 86 bd c9 00 2c 3b 69 2b c4 39
       0.0005997338 -0.065888464 0.0026245585 0.00037416376
000340 e4 58 73 3b 1e 92 06 ba 4f fe dc bc b1 c8 6f 3c
       0.003713184 -0.00051334675 -0.026976733 0.014635251
000350 3f bc d2 3c d2 b3 65 3c 14 dd 75 b9 69 c1 db ba
       0.025724528 0.014019923 -0.00023447379 -0.0016766015
000360 27 a2 c1 3c 18 41 5d 3c 4f 11 db 3c ad 7b a1 3c
       0.02363689 0.013504289 0.026741652 0.019712294
000370 7e 85 bb 3b 32 e2 0e ba 1f 7b 48 3b 1d 7c 08 39
       0.0057227006 -0.0005450576 0.0030590964 0.00013016207
000380 45 bf 54 3b 93 60 96 37 ba fe 85 bc 9c 40 82 3b
       0.0032462638 1.7926364e-05 -0.016356815 0.003974987
000390 48 ac ae 3c 1b b1 26 3c 5a 3f 8f 3a a2 69 ab bd
       0.021322384 0.010174061 0.0010928914 -0.08369757
0003a0 47 78 9d 3c 01 ba 1a 3c f8 c6 23 bd a2 c3 19 3c
       0.019222392 0.009443761 -0.039984673 0.009385021
0003b0 e8 42 a0 3b 23 b4 09 b9 fe 65 9e 3c 4c bb 0f 3c
       0.0048907883 -0.00013132444 0.019335743 0.008772682
0003c0 e0 ed d1 3c d0 92 5d 3c 02 98 13 bc a9 dc 3a b9
       0.025626123 0.013523772 -0.009008409 -0.00017820545
0003d0 96 41 ac bc d4 24 ce 3b f1 5a c0 3c 10 5e 40 3c
       -0.021027368 0.0062910113 0.023480864 0.011741176
0003e0 49 6b ca 3a 6c 2d 7a bd bc 34 60 3b 31 95 43 38
       0.001544335 -0.061078474 0.003421112 4.663057e-05
0003f0 b6 0d 96 3c 39 89 f8 3b 7b cb 09 3d f5 a9 3a 3d
       0.018317085 0.0075847176 0.03364132 0.04557224

weight f4 [128, 16]
000000 4a 0a 00 00 da 02 00 80 1a 01 00 80 55 01 00 00
       3.691e-42 -1.023e-42 -3.95e-43 4.78e-43
000010 90 01 00 80 e3 01 00 00 f5 0a 00 00 a3 04 00 00
       -5.6e-43 6.77e-43 3.93e-42 1.663e-42
000020 8b 07 00 00 69 01 00 00 0c 03 00 80 9d 12 00 00
       2.706e-42 5.06e-43 -1.093e-42 6.677e-42
000030 c4 02 00 80 3d 01 00 80 b3 07 00 00 2f 0b 00 00
       -9.92e-43 -4.44e-43 2.762e-42 4.012e-42
000040 62 01 00 00 1a 00 00 80 61 01 00 80 66 01 00 00
       4.96e-43 -3.6e-44 -4.95e-43 5.02e-43
000050 72 01 00 00 ee 07 00 80 cd 03 00 00 60 01 00 00
       5.18e-43 -2.845e-42 1.363e-42 4.93e-43
000060 5f 01 00 00 f1 04 00 80 60 01 00 80 6c 01 00 80
       4.92e-43 -1.773e-42 -4.93e-43 -5.1e-43
000070 fd 00 00 80 eb 00 00 00 3d 0c 00 80 0a 01 00 00
       -3.55e-43 3.3e-43 -4.39e-42 3.73e-43
000080 01 02 00 80 9b 0b 00 00 5f 01 00 80 24 00 00 80
       -7.19e-43 4.163e-42 -4.92e-43 -5e-44
000090 3c 0f 00 00 02 07 00 00 93 04 00 00 0e 0b 00 00
       5.465e-42 2.514e-42 1.641e-42 3.966e-42
0000a0 85 08 00 00 1c 00 00 80 cc 0b 00 80 d1 0b 00 80
       3.056e-42 -3.9e-44 -4.232e-42 -4.239e-42
0000b0 dd 00 00 80 25 01 00 00 76 01 00 80 f3 00 00 00
       -3.1e-43 4.1e-43 -5.24e-43 3.4e-43
0000c0 b1 03 00 80 e7 04 00 00 f5 00 00 00 73 04 00 80
       -1.324e-42 1.759e-42 3.43e-43 -1.596e-42
0000d0 43 00 00 00 4c 00 00 80 9e 04 00 00 8d 08 00 00
       9.4e-44 -1.06e-43 1.656e-42 3.067e-42
0000e0 ba 03 00 00 81 01 00 00 1e 08 00 00 2e 0b 00 80
       1.337e-42 5.4e-43 2.912e-42 -4.01e-42
0000f0 cb 00 00 00 96 01 00 00 21 0c 00 80 7d 01 00 00
       2.84e-43 5.69e-43 -4.351e-42 5.34e-43
000100 6a 01 00 00 70 01 00 00 46 00 00 00 3b 04 00 80
       5.07e-43 5.16e-43 9.8e-44 -1.518e-42
000110 89 08 00 00 c3 03 00 00 91 08 00 80 ac 01 00 00
       3.062e-42 1.35e-42 -3.073e-42 6e-43
000120 88 04 00 00 f7 01 00 00 ba 01 00 80 16 02 00 80
       1.626e-42 7.05e-43 -6.2e-43 -7.48e-43
000130 82 01 00 80 60 00 00 00 a2 0b 00 80 80 01 00 80
       -5.41e-43 1.35e-43 -4.173e-42 -5.38e-43
000140 ed 01 00 00 ac 03 00 00 93 01 00 00 2e 0b 00 00
       6.91e-43 1.317e-42 5.65e-43 4.01e-42
000150 99 0f 00 00 2f 00 00 80 68 01 00 80 ab 01 00 00
       5.595e-42 -6.6e-44 -5.04e-43 5.98e-43
000160 71 03 00 80 8b 01 00 80 34 03 00 00 87 0b 00 80
       -1.235e-42 -5.54e-43 1.149e-42 -4.135e-42
000170 b5 01 00 80 b9 00 00 80 3a 0b 00 00 ce 03 00 80
       -6.12e-43 -2.59e-43 4.027e-42 -1.365e-42
000180 9b 01 00 00 38 0b 00 00 5f 01 00 80 5f 01 00 80
       5.76e-43 4.025e-42 -4.92e-43 -4.92e-43
000190 ae 01 00 80 60 01 00 00 65 01 00 80 7b 01 00 80
       -6.03e-43 4.93e-43 -5e-43 -5.31e-43
0001a0 61 01 00 00 2e 01 00 00 73 01 00 80 b9 01 00 80
       4.95e-43 4.23e-43 -5.2e-43 -6.18e-43
0001b0 6c 01 00 80 9a 01 00 00 f4 06 00 80 93 01 00 00
       -5.1e-43 5.75e-43 -2.494e-42 5.65e-43
0001c0 03 01 00 00 d7 02 00 00 e2 01 00 80 fb 04 00 80
       3.63e-43 1.019e-42 -6.75e-43 -1.787e-42
0001d0 de 0b 00 00 dc 06 00 80 f7 00 00 00 91 04 00 00
       4.257e-42 -2.46e-42 3.46e-43 1.638e-42
0001e0 de 00 00 00 a1 0f 00 80 1d 0b 00 80 37 00 00 80
       3.11e-43 -5.607e-42 -3.987e-42 -7.7e-44
0001f0 b4 01 00 80 66 01 00 80 90 01 00 80 84 04 00 80
       -6.11e-43 -5.02e-43 -5.6e-43 -1.62e-42
000200 0c 05 00 80 95 01 00 00 8d 04 00 00 f6 04 00 80
       -1.81e-42 5.68e-43 1.633e-42 -1.78e-42
000210 8e 08 00 80 0d 02 00 80 b8 02 00 80 41 05 00 80
       -3.069e-42 -7.36e-43 -9.75e-43 -1.885e-42
000220 69 0b 00 80 c2 03 00 00 42 00 00 00 9d 01 00 00
       -4.093e-42 1.348e-42 9.2e-44 5.79e-43
000230 52 0b 00 00 fc 01 00 00 c1 0f 00 80 8a 01 00 00
       4.061e-42 7.12e-43 -5.651e-42 5.52e-43
000240 42 01 00 80 81 01 00 80 ab 0f 00 80 7c 01 00 00
       -4.51e-43 -5.4e-43 -5.62e-42 5.32e-43
000250 66 01 00 00 ae 01 00 80 d0 02 00 80 6a 01 00 80
       5.02e-43 -6.03e-43 -1.009e-42 -5.07e-43
000260 89 01 00 80 5f 01 00 00 8c 01 00 80 7b 0f 00 80
       -5.51e-43 4.92e-43 -5.55e-43 -5.553e-42
000270 47 07 00 80 68 01 00 00 a8 01 00 80 5f 01 00 00
       -2.61e-42 5.04e-43 -5.94e-43 4.92e-43
000280 22 0c 00 80 71 07 00 80 6b 01 00 80 ac 01 00 80
       -4.352e-42 -2.67e-42 -5.09e-43 -6e-43
000290 e9 06 00 80 e2 06 00 00 e7 02 00 80 61 01 00 00
       -2.479e-42 2.469e-42 -1.041e-42 4.95e-43
0002a0 78 00 00 00 ab 04 00 80 9b 01 00 80 9b 02 00 00
       1.68e-43 -1.675e-42 -5.76e-43 9.35e-43
0002b0 15 05 00 00 b3 04 00 80 93 01 00 00 be 02 00 00
       1.823e-42 -1.686e-42 5.65e-43 9.84e-43
0002c0 b9 04 00 80 7b 07 00 80 2c 05 00 80 2c 0b 00 00
       -1.694e-42 -2.683e-42 -1.855e-42 4.008e-42
0002d0 ec 06 00 80 66 01 00 00 81 0b 00 80 2a 07 00 80
       -2.483e-42 5.02e-43 -4.127e-42 -2.57e-42
0002e0 95 01 00 80 01 03 00 00 aa 01 00 80 74 00 00 80
       -5.68e-43 1.078e-42 -5.97e-43 -1.63e-43
0002f0 e2 06 00 00 24 0c 00 80 ec 01 00 80 bc 02 00 00
       2.469e-42 -4.355e-42 -6.9e-43 9.81e-43
000300 71 04 00 80 b7 01 00 80 61 01 00 80 7e 0f 00 80
       -1.593e-42 -6.15e-43 -4.95e-43 -5.558e-42
000310 60 01 00 00 11 03 00 80 5f 01 00 00 65 01 00 80
       4.93e-43 -1.1e-42 4.92e-43 -5e-43
000320 81 01 00 00 f3 01 00 00 fb 07 00 80 4c 00 00 00
       5.4e-43 6.99e-43 -2.863e-42 1.06e-43
000330 6c 01 00 80 61 01 00 00 46 03 00 80 4a 03 00 00
       -5.1e-43 4.95e-43 -1.174e-42 1.18e-42
000340 81 01 00 80 65 0b 00 80 3f 01 00 80 6d 00 00 00
       -5.4e-43 -4.088e-42 -4.47e-43 1.53e-43
000350 60 01 00 80 2b 00 00 00 79 01 00 80 62 01 00 00
       -4.93e-43 6e-44 -5.28e-43 4.96e-43
000360 66 04 00 00 d5 0b 00 00 b1 00 00 00 64 03 00 80
       1.578e-42 4.245e-42 2.48e-43 -1.216e-42
000370 bb 01 00 80 ea 01 00 00 6c 01 00 00 5f 01 00 80
       -6.21e-43 6.87e-43 5.1e-43 -4.92e-43
000380 6d 0b 00 80 66 07 00 80 5f 01 00 00 09 02 00 00
       -4.099e-42 -2.654e-42 4.92e-43 7.3e-43
000390 ad 01 00 00 8b 01 00 00 62 00 00 80 98 01 00 80
       6.01e-43 5.54e-43 -1.37e-43 -5.72e-43
0003a0 60 01 00 00 a8 01 00 00 0a 02 00 00 b7 01 00 00
       4.93e-43 5.94e-43 7.31e-43 6.15e-43
0003b0 dd 02 00 80 25 01 00 80 61 01 00 00 a2 01 00 00
       -1.027e-42 -4.1e-43 4.95e-43 5.86e-43
0003c0 b0 0f 00 00 ce 07 00 00 e5 01 00 00 a9 01 00 80
       5.628e-42 2.8e-42 6.8e-43 -5.96e-43
0003d0 a1 02 00 00 aa 00 00 80 5f 01 00 80 57 0f 00 00
       9.43e-43 -2.38e-43 -4.92e-43 5.503e-42
0003e0 bb 04 00 80 2e 01 00 00 b6 01 00 80 cb 02 00 00
       -1.697e-42 4.23e-43 -6.14e-43 1.002e-42
0003f0 71 0f 00 80 6c 01 00 80 98 00 00 00 ea 04 00 00
       -5.54e-42 -5.1e-43 2.13e-43 1.763e-42
