anp_models/anp_link_prediction_next_topic_2024_05_16_20_17_51/model.pt (torch, 455946 bytes, 135 tensors)

weight f4 [32, 2]
000000 7d e7 cd be 21 21 01 3f 9f f4 25 bf d0 c2 72 3e
       -0.40215674 0.50441176 -0.6482639 0.23707128
000010 2a 72 46 be fc d8 1a bf 7d 69 f1 3e 5f b6 ef be
       -0.19379488 -0.6048734 0.47150794 -0.46818826
000020 00 b6 da 3e 9f c0 d2 3d e5 5a 72 3e 4f 0b 03 3f
       0.4271698 0.10290646 0.23667486 0.5118913
000030 76 06 ed 3e 42 9e 02 bf f0 1b ef be b6 4b 49 be
       0.46293992 -0.5102273 -0.46701002 -0.19657788
000040 cd c0 87 bd 58 8c 9d bc 70 bd 1b bf 03 66 2a 3f
       -0.06628571 -0.01923196 -0.60835934 0.6656191
000050 15 2a 23 3f 86 11 22 3f 2d 60 cf 3e 4f cc 1d 3f
       0.6373609 0.6330799 0.40503064 0.61639875
000060 65 42 ab 3e 05 e8 2e 3f 04 0e 2e 3f 7c a6 e1 be
       0.33449093 0.68322784 0.67990136 -0.4407233
000070 54 db 6e 3d 4d 4b ed 3d b5 42 cd 3e 80 e6 26 3e
       0.058314636 0.11586628 0.40089956 0.16298866
000080 db 3b 11 3f 5f eb 14 3f 29 3c 30 3f 69 c5 9d be
       0.5673196 0.5817165 0.688418 -0.30814674
000090 4b 25 49 be ae a3 5a 3e 1b 00 87 3e 12 67 b9 3e
       -0.19643132 0.21351501 0.26367268 0.3621145
0000a0 74 e1 d3 be c3 70 28 3e 00 c3 e2 3e 71 e8 00 3f
       -0.41382945 0.16449265 0.44289398 0.5035468
0000b0 c3 a9 36 3f 3a 5d 91 be dd 6e a5 be 09 d7 c0 3e
       0.71352786 -0.2839144 -0.32311144 0.3766406
0000c0 76 98 03 bf c8 5b 0d bf d0 b3 87 be c3 33 fd 3e
       -0.5140451 -0.5521817 -0.26504374 0.49453554
0000d0 1c bc 8b 3d 5a 74 d1 3d 39 34 d1 3e d7 c9 f8 be
       0.068229884 0.102272704 0.40860155 -0.48591492
0000e0 1f 13 1d bf d2 66 48 3e b2 91 a3 be d7 f1 29 3f
       -0.613573 0.19570473 -0.31947094 0.66384643
0000f0 83 f3 c1 be 03 ec 50 3e d3 3d 25 be 39 f7 e1 be
       -0.37881097 0.20402531 -0.16136865 -0.44133928

bias f4 [32]
000000 3f 01 1b bf 02 b4 d1 be b7 3b b9 be 8d 8c 00 3f
       -0.60548776 -0.40957648 -0.3617837 0.50214463
000010 0d fc 7f 3e f8 7c 33 bf 6d f9 26 bf bc f9 22 3d
       0.24998493 -0.7011256 -0.65224344 0.039788947
000020 2c 6b c9 bd c1 88 90 be 8a 7a 1f bf 07 7f 93 be
       -0.098348945 -0.28229335 -0.62296355 -0.28807852
000030 a5 5c 2f be 4b a8 29 bf 1f d4 4d bd 49 3d 11 bf
       -0.17125185 -0.6627242 -0.050251123 -0.5673414
000040 2a 12 26 bb 23 4a 0b bf ab 57 5d 3d fc 97 5a bd
       -0.0025340416 -0.5441 0.054038685 -0.0533676
000050 1e 31 1a 3d e8 9b 98 be 23 c0 a2 bd 9e f9 e6 be
       0.037644498 -0.29806447 -0.079468034 -0.45112318
000060 d9 80 6e be 92 d2 ef 3c ed 8f 25 be ca cd e2 3e
       -0.23291339 0.029275212 -0.16168185 0.4429763
000070 cd 53 21 3f 50 cc 6d be 36 1e d4 bd 77 e7 19 3c
       0.63018495 -0.2322247 -0.10357325 0.009393564

weight f4 [32, 2]
000000 b5 c2 09 bf 92 a0 25 3f bc 2c 25 bf 9d e7 f5 3d
       -0.53812724 0.64698136 -0.64521384 0.12007067
000010 68 db 91 3e 94 8e 2d 3e da 0d f0 3d 07 e2 b5 3d
       0.28487706 0.1694892 0.11721392 0.08881002
000020 ee 20 1d 3f 4f ce f5 bd 31 88 f8 be 8d d3 30 3f
       0.6137837 -0.12002241 -0.48541406 0.690728
000030 f6 a8 c5 be 26 09 aa be 82 a0 27 be f0 55 19 3f
       -0.3860547 -0.33210105 -0.16369823 0.59896755
000040 c0 b0 d4 3e 76 71 09 3f 2f 90 93 3e d9 45 d1 bd
       0.415411 0.5368875 0.2882094 -0.102184005
000050 9f 6a f2 3e 93 db c0 3b a2 0e 35 3f 59 dc a8 be
       0.4734697 0.0058855503 0.7072545 -0.32980612
000060 56 15 03 3f 4c 64 d0 be 78 82 5d be dc 24 37 be
       0.5120443 -0.4070152 -0.21631801 -0.17885154
000070 5f 2f 03 bf 96 96 de be 08 b9 35 bf a4 71 27 bf
       -0.5124416 -0.43474263 -0.7098546 -0.65407777
000080 b5 d2 71 3e 4b d6 9d 3e 54 ea eb be de 8f 17 bf
       0.23615535 0.30827555 -0.46077216 -0.592039
000090 3e 24 6d 3e 56 d4 23 bf 5c 78 be 3d db 87 1b be
       0.23158357 -0.63995874 0.093003005 -0.15188543
0000a0 df b4 1e 3f 78 5b 6f bd 32 2c 21 3d 0b 48 02 3f
       0.6199474 -0.05843684 0.03934879 0.5089118
0000b0 66 ed 1a 3f 65 dd 82 3e 47 35 da be db 9a e0 3d
       0.6051849 0.25559536 -0.42618772 0.10967036
0000c0 f4 be 0d bf ac 55 a8 be 18 3d fb be d6 27 0d 3f
       -0.55369496 -0.32877862 -0.49070048 0.5513891
0000d0 bf 5e 71 3d a1 46 ac be 51 f7 09 3f 95 7c 41 be
       0.058928248 -0.33647636 0.53893 -0.1889518
0000e0 d2 33 2c 3f d5 b4 1d 3f e3 dc 10 bf 0c 2a 18 bf
       0.6726657 0.6160405 -0.56587046 -0.5943916
0000f0 1d 51 e2 3e 5f 75 31 3f 0c 6d 28 3f 02 ba 17 bf
       0.4420251 0.6931972 0.6579139 -0.592682

weight f4 [32, 2]
000000 cd f4 93 be 8a 3f 46 be bf c6 34 bf 45 58 99 3d
       -0.28897706 -0.19360176 -0.7061576 0.07487539
000010 87 e6 d1 3e 5e 53 20 3f 79 3f ef 3e 9f ea 4d be
       0.4099619 0.6262721 0.46728113 -0.20109032
000020 e9 b0 da be 64 b0 bf be 68 73 0c 3f 22 1f ce 3e
       -0.42713097 -0.37439263 0.54863596 0.40258127
000030 d1 a4 24 3f 93 41 8c be fe 71 d8 be 17 8a b7 3e
       0.6431399 -0.2739378 -0.4227447 0.35847542
000040 0b 2b 3e be 09 3f 65 be 12 45 23 3e 7d 37 65 be
       -0.18571107 -0.22387327 0.15944317 -0.22384448
000050 b9 ef 87 3e c2 54 ba 3e 93 fb 2c 3f 7d 75 80 be
       0.2655008 0.3639279 0.6757137 -0.25089636
000060 28 3d 08 3f ad 68 1a 3f 66 f1 29 bf 5e ac 1b 3f
       0.5321832 0.6031597 -0.6638397 0.60809886
000070 38 5f 30 bf d1 19 45 3e de 0e 14 bf f4 da 87 be
       -0.6889529 0.1924813 -0.57835186 -0.26534235
000080 93 ab 55 be fe 75 cb bd 87 95 a6 be 18 9f 6c be
       -0.20866232 -0.099346146 -0.32535955 -0.23107564
000090 3c 27 f2 3e ed a6 c6 3e e1 41 80 be e5 cb 9b 3e
       0.47295558 0.3879923 -0.25050262 0.30428997
0000a0 99 2e e2 3d ae 46 07 3c b8 ef 2f bf 0d d0 f3 be
       0.11044044 0.008256597 -0.68725157 -0.47619668
0000b0 72 96 29 be 77 22 c9 3e 76 b5 08 be 6c be f6 be
       -0.16561297 0.39284107 -0.13350472 -0.48192155
0000c0 04 8a 01 bd 9f dc 90 3e bd 07 01 bd fa f0 f2 3e
       -0.031625763 0.2829332 -0.03150152 0.47449476
0000d0 fd 01 05 3f 94 6e ae 3b e1 bd db 3e 6b 4d 38 3f
       0.5195616 0.0053232405 0.42918304 0.7199313
0000e0 38 7b fd bd 85 82 12 3f bc 11 e9 3e fa 9c 29 be
       -0.12377018 0.57230407 0.45521343 -0.16563788
0000f0 93 22 30 bf 44 5b db 3e 01 81 15 3f 60 b4 00 3d
       -0.68802756 0.42843068 0.5839997 0.03142202

bias f4 [32]
000000 4f c7 1f 3f 3e 1c cd bd 7a 52 61 3d 64 c8 30 3f
       0.62413496 -0.100151524 0.055010296 0.6905577
000010 c9 21 77 3e 1b 51 3b 3d 34 b3 98 be 35 3d f0 3d
       0.24133982 0.045731645 -0.2982422 0.11730424
000020 79 31 bd 3d 70 2e cd 3d 1b 7a c2 be 8a 92 27 3f
       0.09237952 0.10018623 -0.37983784 0.65457976
000030 fa a1 b6 3d 02 3d 3b 3f 61 fd 33 3f 7e 17 2d 3f
       0.08917613 0.73139966 0.703085 0.6761397
000040 e6 d1 89 be 88 70 b7 3e fb 55 d5 3e d1 b2 49 be
       -0.26917952 0.35828042 0.4166716 -0.1969712
000050 bd d7 12 bf cc 20 0b bf 1b ea 72 3f 7f 84 b5 bd
       -0.5736044 -0.5434692 0.94888467 -0.08863162
000060 2a f5 2f 3f 7b 9a 02 3f 1e b8 94 be 8a 24 e2 be
       0.68733466 0.5101697 -0.2904672 -0.44168502
000070 6c d5 83 bd 83 14 8a 3d 4d 48 23 3f 83 37 0f 3e
       -0.06437191 0.067421935 0.637822 0.1398602

weight f4 [32, 32]
000000 65 dc 91 3d e3 77 05 3e 29 2d 7d be d3 13 25 3d
       0.07122115 0.13034014 -0.24724258 0.04030211
000010 6b c3 2b be 6f 8f 64 bd 6e 45 67 bd 6a 48 4a 3d
       -0.16773765 -0.05580085 -0.056462698 0.049385466
000020 79 ee 5b 3e fb de 27 3e 7b 6a f4 bd 51 2a b6 3c
       0.21477689 0.16393654 -0.11934372 0.022236975
000030 ec a1 33 3e 9a 8f 83 3e 3d d6 1f bd 1e db 67 bc
       0.17542237 0.25695497 -0.039022673 -0.014151363
000040 86 58 83 3e d3 76 71 bd 96 a5 40 be 05 fc 9d bd
       0.25653476 -0.05895121 -0.18813166 -0.077140845
000050 d1 bb 5b 3e 8d d0 6b be 9f 9c ee 3d 3f a1 76 3e
       0.21458365 -0.23028775 0.11650967 0.24084948
000060 48 e8 bb 3d dc f9 a4 3d 53 74 be bc 45 ad 12 bd
       0.091751635 0.080554694 -0.023248827 -0.035809774
000070 fe 8f ba bd 1b 83 9c 3b ff ab ec bd 86 4c e0 bd
       -0.091094956 0.004776371 -0.11556243 -0.10952096
000080 bb f3 c4 bd e9 0a 13 3e a2 b6 e2 3d 1b fe 75 bd
       -0.096168004 0.1435963 0.11069991 -0.060056787
000090 c8 c9 81 bd 82 b6 f4 bd 2c 2f 37 bd 01 6c ef 3d
       -0.06337315 -0.11948873 -0.04472272 0.11690522
0000a0 47 66 bb 3d 14 75 0d 3d b4 90 3b 3e d8 2f f1 bc
       0.09150367 0.034535483 0.18316919 -0.029441759
0000b0 e2 d8 20 be 8c 2e e0 3d bc 74 2c 3e 3a 4f a6 bc
       -0.15707734 0.10946378 0.16841406 -0.02030145
0000c0 f9 de 5b 3d cf 1e 2b be 1b 4f e6 3d 2d 66 34 be
       0.05367944 -0.16710971 0.11245557 -0.17617102
0000d0 9c e7 c6 3d 6d 67 01 be b1 8d d9 3c fa 20 4f 3e
       0.09712145 -0.1263711 0.026556822 0.20227423
0000e0 b8 03 d5 bd 14 b9 76 3e fe 3e 78 3d 70 4e 62 bc
       -0.104011 0.24094039 0.06060695 -0.013812646
0000f0 ca d0 b5 3d 7c 7f 0b 3e 7b 8c 1a 3d f0 72 6e bd
       0.08877714 0.1362285 0.03773163 -0.05821508
000100 f9 f1 0f be f2 1e 49 be 73 76 3a bd e1 50 04 3d
       -0.14057149 -0.19640711 -0.04552312 0.032303695
000110 be b1 48 3e 85 c3 a9 bd 46 c0 37 be 27 db ef 3d
       0.19599053 -0.082892455 -0.1794444 0.11711722
000120 24 e6 78 3d e5 db d7 3c 64 59 28 3e 09 a9 82 bc
       0.060766354 0.026349971 0.1644035 -0.015949743
000130 8e 66 2a be 7b bc b2 3d 1b 1c 99 3c 91 85 3d bd
       -0.16640684 0.08727356 0.01869016 -0.046269957
000140 33 3c 0e 3e 3a 05 31 be a7 81 27 3c c1 79 7e 3b
       0.13890152 -0.1728715 0.010223783 0.0038829895
000150 2b c9 13 3d 53 ab 09 be ea 26 16 3e 09 43 de 3d
       0.03608052 -0.13444261 0.14663282 0.1085263
000160 e6 a7 77 3d d5 e5 d0 3d 68 5c 65 3d cf e5 ce 3c
       0.060462855 0.10200087 0.05599633 0.025256066
000170 a5 f0 c1 3d 6d d9 1a be c6 9d 19 bc 55 a4 07 be
       0.094697274 -0.15122004 -0.009375995 -0.13246281
000180 61 51 48 be 8c 37 ae 3d 63 ec 04 3e 25 89 a5 bd
       -0.19562294 0.085066885 0.129808 -0.08082799
000190 a5 6c 20 bd 59 20 21 be 28 25 9a bd bd 23 86 3c
       -0.03916611 -0.15734996 -0.07526618 0.016374463
0001a0 1d d8 58 3d 49 50 4e bd 5c ce c7 bd ac c8 0f 3d
       0.052940477 -0.050369535 -0.09756157 0.035103485
0001b0 b5 23 42 3d a4 98 39 bc 9d a9 9d bd 35 f8 fb bd
       0.047397334 -0.011327896 -0.07698367 -0.12303201
0001c0 a5 4a e1 bc c3 e7 14 be 8e 39 89 bd cb 2e 9d bd
       -0.027501414 -0.14541535 -0.06700431 -0.07674941
0001d0 99 c8 13 3d 38 94 24 3c 04 05 0a 3e b4 82 07 3d
       0.036079977 0.010045104 0.13478476 0.033083633
0001e0 48 6d dd 3d 7e 9c 19 3e 00 30 28 be 5a 3a 36 3e
       0.10811859 0.15001103 -0.1642456 0.17795697
0001f0 9d 9e 4d 3c 8b 96 3d bd 7f 8d 91 3d 01 5e c3 bd
       0.012550023 -0.046286147 0.07107066 -0.09539414
000200 7f 02 16 3e dd 2e 49 3d 89 d6 80 bd ee 86 4b be
       0.1464939 0.049116958 -0.06290919 -0.1987569
000210 7f cf 2f 3d ab 82 a0 bc ec f7 7a bb 2d 89 7d bd
       0.042922493 -0.019593557 -0.0038294746 -0.0618984
000220 2d e8 d2 3c 77 c1 d9 3d 62 c6 6e be e6 97 d8 3d
       0.025745476 0.106326036 -0.23317865 0.10575847
000230 db 3e b3 3d 9a ea 86 3e 6a dc 23 be 9e 9a 72 be
       0.08752223 0.26350862 -0.1600205 -0.23691794
000240 03 f4 19 3e e2 a9 bd bc 5c 83 07 be 40 ca 4c bd
       0.1503449 -0.023152296 -0.13233703 -0.049997568
000250 30 32 a7 bd 20 96 25 be 8b 42 0d be 0e 35 fc bc
       -0.081638694 -0.1617055 -0.13794915 -0.030787017
000260 1f ca 8c 3c 3c 19 33 3d 8c ea 0a bd a6 c2 b8 bc
       0.017186223 0.043725237 -0.033915088 -0.022553753
000270 99 67 e2 bd 9a ac 13 3d 88 ef 1e be bc a7 09 be
       -0.11054916 0.036053278 -0.15521061 -0.13442892
000280 b8 23 7a bd ac df 19 be 4e 6b 91 3d 7c 25 04 3e
       -0.06106922 -0.1502673 0.07100545 0.12904924
000290 f4 3c 14 be 87 11 22 be 66 25 d3 bd 62 1d 83 bd
       -0.14476377 -0.15826999 -0.103098676 -0.06402089
0002a0 76 3f 14 bd a6 3c 8e bd b7 cc 83 bd 80 38 dc bd
       -0.036193334 -0.069451615 -0.06435531 -0.10752964
0002b0 5c c7 ad 3d 1a a1 f5 3d 68 cf 37 be 65 6e 1d be
       0.084852904 0.11993618 -0.17950213 -0.15374143
0002c0 e5 8f 1e 3e 96 b7 06 3e f1 ca e6 3d a0 a3 97 bd
       0.15484579 0.1315597 0.11269177 -0.07404256
0002d0 e8 7a 3f 3e 08 3a ac bd 86 2c 11 3e 7d d1 5a 3e
       0.18699229 -0.08409506 0.1417714 0.21368976
0002e0 d4 43 5a 3d 0e 84 c6 bc e9 b6 30 3e 3e d2 28 3e
       0.053287342 -0.02423289 0.17257275 0.16486451
0002f0 c6 fb 6f bc cd e9 b9 3d 9e d6 f9 bd 60 f5 8b be
       -0.01464743 0.09077797 -0.12199138 -0.27335644
000300 fb 82 d4 3d d0 70 11 3d 72 a1 a2 3d 1c 60 90 3c
       0.10376545 0.035507977 0.079409495 0.017623954
000310 56 52 97 3d 52 38 7e 3c c8 bb 35 be a0 61 52 be
       0.07388751 0.0155163575 -0.17747414 -0.20545053
000320 d3 3b 9e 3e 33 91 5c 3d 6f 6c e9 bd 9e a2 aa bd
       0.30905017 0.05384941 -0.11397635 -0.08331798
000330 90 b4 39 3e d0 31 78 3c 91 20 6b bb ae 0f 08 3e
       0.18135285 0.015148595 -0.0035877565 0.13287231
000340 dc e1 bc 3d 66 e6 55 3d 3b 96 34 3e 7b 7e f5 bd
       0.09222767 0.05222168 0.17635433 -0.11987015
000350 38 c7 b0 3d 29 73 0a be cc b4 26 3e ee c0 82 3e
       0.08631748 -0.13520493 0.16279906 0.2553782
000360 61 eb 82 bd 6c 8c 34 be 0a 05 17 be a4 7f ad 3c
       -0.06392551 -0.17631692 -0.14748016 0.021179028
000370 57 a3 cc 3d 26 32 2c be 24 af 91 bd d5 fc 3d 3d
       0.09992092 -0.16816005 -0.071134835 0.046383698
000380 73 42 55 be ef c7 cc bd 04 f5 68 be e9 a1 58 3d
       -0.2082613 -0.09999072 -0.22749716 0.052888785
000390 23 77 14 be d5 ac 89 3d 4e 87 66 be 65 94 3a 3e
       -0.14498572 0.06722418 -0.22512552 0.1822067
0003a0 c0 55 3c 3e 47 12 c7 bd 64 5d d9 bd 0c 34 f1 3d
       0.18392086 -0.09720283 -0.10613516 0.11777505
0003b0 fa 31 a6 bd 7b 36 89 bd af 3e e4 3d 4c 56 10 3e
       -0.08115001 -0.066998444 0.111447684 0.1409542
0003c0 57 f8 a8 3d e7 da 61 3e 0d 2e a2 bd f0 35 fe bd
       0.08250492 0.22056161 -0.0791894 -0.124126315
0003d0 d9 68 e9 bd 8a b7 0c 3e 90 b0 82 bd ba 1d f1 bd
       -0.11396951 0.1374189 -0.06381333 -0.11773248
0003e0 81 ea 18 be 4e 59 a8 bc 16 81 cd 3d b2 2b f0 3d
       -0.14933206 -0.020550396 0.10034387 0.11727084
0003f0 d4 ed 4e bc ed c7 dc 3d d1 b7 9f 3d 49 ca e1 bc
       -0.012629945 0.1078032 0.07798732 -0.027562277

weight f4 [32, 32]
000000 c9 88 c9 3d 6d 5e 32 be 59 6d 0c be b5 b6 c9 bd
       0.09840543 -0.17418833 -0.13713588 -0.09849302
000010 8d 8b 1d be 3a 51 ac bc be 6c ac bd da 6b 1d ba
       -0.15385266 -0.021034826 -0.084191784 -0.0006005146
000020 04 3f 3e be 35 d3 3e 3e e2 64 39 3e a6 de 47 3e
       -0.18578726 0.18635257 0.1810489 0.19518527
000030 69 06 48 bd d6 a8 9e 3c 89 ff 26 be 7a 27 3b bd
       -0.04883424 0.019367617 -0.16308416 -0.045691945
000040 24 c7 ba bd a8 24 69 3d 04 f9 01 be c1 c5 11 3e
       -0.09120014 0.056919724 -0.12692648 0.14235593
000050 c7 04 18 bd 32 5e 14 3e bc a0 03 3c 4c 7e 65 3d
       -0.03711393 0.14489058 0.0080339275 0.05602865
000060 c0 7b 1c 3e 0a 97 c9 3d 95 a0 a0 bc 33 58 30 3e
       0.15281582 0.098432615 -0.019607821 0.17221145
000070 cf 2c ab bd 27 7b 6a 3d c9 f7 f9 3d 21 6b 92 3d
       -0.08358156 0.057246353 0.122054644 0.071493395
000080 0e a5 96 3b c4 1d 3b 3e b2 e0 2b 3e b6 79 99 3d
       0.004597313 0.18273073 0.16784933 0.07493918
000090 ac 6b 19 bd 6b 48 fc bd 4e 90 1e bd 31 ba 10 be
       -0.0374562 -0.123185 -0.03871184 -0.14133526
0000a0 4c 6b fa bd ad 8e 40 3e 42 18 3e be 44 a3 13 be
       -0.122274965 0.18804426 -0.18563941 -0.1441775
0000b0 49 4b f3 bc 5b d2 54 bd 4e 1c f1 bc 7b e2 e8 3d
       -0.029698985 -0.051958423 -0.029432442 0.11371323
0000c0 a0 1b 18 3e 9d c4 93 bb 44 ce d2 3d 75 99 ad bb
       0.14854288 -0.004509522 0.10293248 -0.0052978345
0000d0 08 9d ab bd 44 32 12 be e9 0e 25 3e fc 1b eb bd
       -0.08379561 -0.14276987 0.16118969 -0.11479947
0000e0 b7 95 61 3d 7a 81 a3 3d 59 a0 a6 bd 71 73 72 bd
       0.05507442 0.0798368 -0.08136053 -0.059192125
0000f0 55 9c ee 3d e5 f0 24 be 4a 3e 34 3e b2 cc bb bc
       0.11650912 -0.16107519 0.17601886 -0.022924755
000100 9a 3f 31 be e5 cc fc bd a9 71 30 bb ca cd 1b be
       -0.17309418 -0.12343768 -0.0026923215 -0.15215221
000110 e9 e7 20 3e 9e de 25 3e ec c8 01 3d 9f 4b 2c 3d
       0.15713467 0.16198203 0.031685755 0.042064305
000120 22 39 1b bd 08 23 cd 3d 2b 16 2c be 92 a3 07 3e
       -0.037896283 0.10016447 -0.16805331 0.13245991
000130 e2 ae cb 3d af 5f c3 3d e5 55 a4 bd 89 69 ae 3b
       0.099454656 0.095397346 -0.080241956 0.0053226394
000140 c5 84 42 be c6 3c 91 bd 03 52 43 3d 2b 61 b1 bd
       -0.1899596 -0.0709167 0.047685634 -0.086611114
000150 fd 08 b8 3d 1a 22 e6 bd fc f0 ef bd ca 80 15 3e
       0.089860894 -0.11236973 -0.11715886 0.1459991
000160 3f 85 ae 3d 3a 90 d8 bd 2c 55 30 3d 6f 80 06 bc
       0.085215084 -0.10574384 0.043049976 -0.008209332
000170 3c fb b6 bd 2d cb dc bc 2c 9c 72 3d 3b 14 47 bd
       -0.08934638 -0.02695235 0.05923097 -0.048603278
000180 96 3a 2e 3e cf 2f b2 bd 02 b2 bf bd c5 24 70 bc
       0.17014536 -0.08700525 -0.09360124 -0.014657204
000190 a9 fa 86 bd 04 4b fc 3d 52 72 d2 3d 3a 00 1a be
       -0.065907784 0.123189956 0.10275711 -0.15039149
0001a0 b8 f1 84 bd d8 13 3d 3d ca f2 88 bd d6 dd 09 be
       -0.06491417 0.046161503 -0.06686933 -0.1346353
0001b0 b0 cf 24 3d c6 be ba 3d 06 6a 15 3e 59 08 fc 3d
       0.04023713 0.091184184 0.14591226 0.1230628
0001c0 da 6d 62 be bc 92 33 3d 1b c2 02 be 1e 05 03 be
       -0.22112218 0.04384111 -0.12769358 -0.12794921
0001d0 13 d1 00 3e 71 1e bb bb 1b c3 b3 bd d1 7b 35 be
       0.12579755 -0.005710416 -0.08777448 -0.17723013
0001e0 12 0c 96 bd 4d 6e 41 3c 3f ea 28 be 05 9e d9 bd
       -0.07326521 0.011806083 -0.16495608 -0.10625843
0001f0 6c 90 08 3e ff b5 a1 3c 8d 7a 39 3e 14 97 a5 3c
       0.13336343 0.019740103 0.18113156 0.020213641
000200 8f 07 b2 bd 8a 2f 8a bb 6e fc 1f 3e f5 9f 0f be
       -0.08692848 -0.004217093 0.15623638 -0.14025863
000210 c8 00 4d be ab c4 f7 bd eb 27 76 3c 20 71 fe bc
       -0.2001983 -0.12098058 0.015024166 -0.031059802
000220 fc cd 2f be 38 47 cc 3c 87 cb 0d 3e c7 6d e5 3d
       -0.1716842 0.024936303 0.13847171 0.11202579
000230 ae a6 8b bc f3 06 b2 bd 07 8f bf 3d 19 55 26 bd
       -0.017047253 -0.08692732 0.09353452 -0.0406085
000240 c3 52 10 be 4a e5 69 3d cf 5c 08 3e c5 14 8d 3c
       -0.14094071 0.057103433 0.13316654 0.017221818
000250 6c d4 1f 3e 6a 0f b0 3d b5 0b d6 bd dd 72 cb bc
       0.15608376 0.0859669 -0.10451452 -0.024835045
000260 08 4e c6 bd 6e e8 1c 3d 56 fa 18 be 73 8f e6 3d
       -0.09682852 0.0383076 -0.14939246 0.112578295
000270 66 85 64 bb dd 55 5d 3d 0d be 11 be ae 60 00 be
       -0.003486955 0.054036964 -0.14232655 -0.1253688
000280 55 97 a0 3d 90 cd 74 bd 05 61 71 3c 75 41 28 3d
       0.07841364 -0.059766352 0.014732604 0.04107805
000290 f0 64 c4 3d 1b c9 2e 3e 59 d1 1d be 11 e6 07 3e
       0.09589565 0.17068903 -0.15411891 0.13271357
0002a0 de cf 0a 3e 4c 94 6f 3d f9 49 92 bd 3c d2 68 bc
       0.13555858 0.058491036 -0.071430154 -0.01421028
0002b0 ac b4 27 3e 50 ce 51 3d 79 eb c6 bd 8b 2d da 3d
       0.16377515 0.051222146 -0.097128816 0.10653218
0002c0 76 a2 30 3e eb 79 1c be c8 f2 a4 3d 10 96 a2 3d
       0.17249474 -0.15280883 0.08054119 0.079387784
0002d0 c5 46 af bd 09 b1 75 bd 5b 36 4a 3d 18 12 26 3d
       -0.0855842 -0.059983287 0.049368244 0.0405446
0002e0 d2 24 bc bc e8 14 d2 bd 92 b0 1c be 45 7c db bd
       -0.022966776 -0.10257894 -0.15301731 -0.10717062
0002f0 14 3f 97 3d 8d 3a dc 3d 85 19 2c be 26 5e 11 be
       0.07385078 0.10753355 -0.1680661 -0.14196071
000300 8f a8 fd bd a1 00 34 3e 38 8f 05 3e 79 c8 e0 3d
       -0.123856656 0.17578365 0.13042915 0.10975737
000310 8e 1c 40 be 1a be 8b bd b5 ea 72 bd 91 90 2f 3e
       -0.18760893 -0.06823368 -0.059305865 0.17144991
000320 e4 c7 9b 3c 40 e5 15 3e 47 51 b7 bd e6 64 d5 3c
       0.019016214 0.14638233 -0.08951049 0.026049089
000330 a4 cf 51 bd 53 7b 4c bd c6 86 cb bc 1e 6f 02 3d
       -0.051223412 -0.0499223 -0.024844538 0.03184425
000340 92 72 37 3e 96 ca a5 3d 6f 22 1e 3e db 66 25 be
       0.17914799 0.08095281 0.15442823 -0.16152517
000350 a8 67 22 be 02 d2 f4 bd c0 fa 67 3d 28 1b 89 bd
       -0.15859854 -0.11954118 0.05663562 -0.06694633
000360 ed aa 34 be bd 1f 7a 3d 81 c0 1d be 0d 59 65 bb
       -0.17643328 0.061065424 -0.15405466 -0.0034995705
000370 c8 cf 26 be 5e 4b a4 3d b9 9b 45 bd 83 40 90 3d
       -0.162902 0.08022188 -0.04824421 0.07043555
000380 98 c7 cc 3d c8 a1 e8 bc 46 d2 b7 bd 79 7d ca 3b
       0.09999007 -0.028397456 -0.08975653 0.0061795083
000390 88 9a eb 3d aa fc c4 bd 8d 22 23 be 87 07 85 bd
       0.11504084 -0.09618504 -0.15931149 -0.06495576
0003a0 f0 f2 1b be 36 7a 29 be f6 55 ae bd c9 0b 90 3d
       -0.15229392 -0.16550526 -0.085124895 0.07033498
0003b0 ed c7 d9 bd c0 00 5d bd fc 5c 01 3c c1 10 08 3c
       -0.10633836 -0.053955793 0.007895704 0.008304776
0003c0 f7 63 3a bd 17 4c 34 3d ae 6f dc bc e8 d9 5b be
       -0.04550549 0.044017877 -0.026908722 -0.21469843
0003d0 c5 70 93 bd e1 de 05 be 76 b1 04 be 75 75 01 be
       -0.071992435 -0.13073303 -0.12958321 -0.12642463
0003e0 66 b3 05 be 48 49 31 be 25 91 69 3d 2c 82 f5 bd
       -0.13056716 -0.17313111 0.057023186 -0.11987719
0003f0 9f 4a a8 bc f6 ea 9d 3d 7f 8d 37 be 53 63 33 bd
       -0.020543395 0.07710831 -0.1792507 -0.043795895

bias f4 [32]
000000 49 6b 29 3e 41 53 bd bd 24 b9 18 3d 90 cf d3 bd
       0.16544832 -0.09244395 0.03728594 -0.10342324
000010 9f 99 d2 3d 49 f2 f7 bb 19 79 ea 3d 50 99 fe 3d
       0.10283207 -0.0075667244 0.11448879 0.12431586
000020 c9 27 15 bd e1 71 1e 3e e2 f0 f2 3d 87 63 2f 3d
       -0.036414895 0.15473129 0.11862351 0.042819526
000030 ff d6 54 bc ae 6d dc 3b 7f cc 07 be 4f aa 29 bd
       -0.012990712 0.006726942 -0.13261603 -0.041422185
000040 d1 2e a1 bd 5b 28 db 3c 0a 02 f1 3d da b1 eb bd
       -0.07870258 0.026752641 0.11767967 -0.11508532
000050 b0 35 9e 3d e0 de c6 3d cc fa 82 ba 36 f1 e5 bd
       0.07725084 0.09710479 -0.0009992956 -0.11227648
000060 fa 6b ef 3c ae 4e 22 3e 48 2c 32 3e b7 8f 18 3e
       0.029226292 0.15850326 0.17399704 0.14898573
000070 d4 01 e8 bd ec 0f 57 3d a2 4e 01 be 49 1e 97 bd
       -0.11328474 0.05250542 -0.12627652 -0.07378823

weight f4 [32, 2]
000000 22 d4 02 be a7 a3 cb be 6e 1c de be fc f5 70 3e
       -0.12776235 -0.39773294 -0.43381065 0.23531336
000010 1d 47 50 bd 1e 92 03 3f 34 e9 dd bd dc 87 26 bd
       -0.05084907 0.5139483 -0.108354956 -0.04065691
000020 2f f0 25 bf e8 9b 66 bd f2 b5 25 3f 24 8a 2e bf
       -0.64819616 -0.056301028 0.6473075 -0.68179536
000030 51 b2 cd 3d a5 ab a5 3e 6b ba 29 be 45 a4 e3 be
       0.10043777 0.32357517 -0.16575019 -0.44461265
000040 bc 1c dc 3e a7 6f e5 bd 9a 80 57 3d fb ab 61 3e
       0.42990673 -0.112029366 0.05261288 0.22038262
000050 83 c4 69 be da 7b 4d 3e eb ee 5d 3e 54 1d c6 3e
       -0.2282887 0.20066777 0.21673171 0.3869425
000060 1f f9 04 bf 73 0f 29 3f 29 92 05 3e b9 6d 3f 3e
       -0.5194263 0.660392 0.13044037 0.186942
000070 37 1c ea be 39 01 d1 3e 47 ee c5 3e f4 68 78 be
       -0.4572465 0.40821245 0.38658354 -0.24258786
000080 a5 a0 d4 3e 14 f8 6b 3d 7b 76 82 3e 3a 4c 3c 3c
       0.41528812 0.057609633 0.25481018 0.011492783
000090 8c 41 23 bf d1 8e b4 3c f9 4d 19 bf bb ab 04 3f
       -0.6377189 0.022040756 -0.598846 0.5182454
0000a0 37 98 bd bd 35 e8 1a bf b8 79 02 3f 70 79 12 3f
       -0.09257548 -0.6051057 0.5096698 0.5721655
0000b0 32 e4 ee 3e 28 88 e4 be 79 72 06 bf 36 26 85 3e
       0.46658474 -0.4463513 -0.5251842 0.26005715
0000c0 01 2e 52 be d3 3b 19 3f d8 29 d9 be 73 97 1b 3e
       -0.20525362 0.5985691 -0.42414737 0.15194492
0000d0 d9 2d 1a 3e cc 1a d3 3e 8b 9c b3 3e 6f 08 28 3e
       0.15056552 0.41231382 0.3508037 0.16409467
0000e0 1e 5c 25 3f 94 44 12 3f 41 91 00 3e 65 b0 54 3d
       0.64593685 0.5713589 0.1255541 0.051926035
0000f0 e1 25 09 3f 4e 19 3e 3e fd 4c da 3e 3f a8 c8 be
       0.53573424 0.1856434 0.42636862 -0.39190862

weight f4 [32, 2]
000000 80 ed e2 be b4 80 bd 3e 8e e4 18 3d c8 57 c7 3e
       -0.44321823 0.37012255 0.03732734 0.3893416
000010 c5 d8 4b be cf d2 f9 be 9e a0 8c be 5d 61 49 be
       -0.1990691 -0.48793647 -0.2746629 -0.19666047
000020 32 5f 31 3f 86 63 c6 3d 9f 03 93 be 51 2a 30 bc
       0.6928588 0.09686951 -0.287137 -0.0107522765
000030 41 1a 02 bf c9 5f 20 3f 9f 7a 27 be ff 49 1c bf
       -0.5082131 0.62646157 -0.1635537 -0.6105041
000040 cc 30 0c 3f d4 18 74 bd 2d e5 a3 3e 0d d1 bb 3d
       0.5476196 -0.05959399 0.32010785 0.09170733
000050 ec c9 87 be 53 86 12 3f 30 5d 20 be 42 3c bb be
       -0.26521242 0.5723621 -0.15660548 -0.3656941
000060 b4 7b 3c 3e 9f 3c 77 3e 38 ca 61 be ad 44 9c be
       0.18406564 0.24144219 -0.22049797 -0.30521145
000070 2f 70 ea be ec f5 61 3e 2e 68 72 be 1c ad 1d bf
       -0.45788714 0.22066468 -0.23672554 -0.6159227
000080 ac 9e f6 3e 46 04 ae 3d 9a d2 f6 3e e7 05 9f 3e
       0.48167932 0.08496909 0.4820755 0.3105919
000090 28 26 04 bd e0 5b eb 3e 50 c0 06 3e 33 a3 a5 be
       -0.03226295 0.45968533 0.13159299 -0.32351074
0000a0 f8 de 99 be 28 74 fd bb 7c 30 09 3d 8d 8c 1d 3f
       -0.30052924 -0.007734794 0.033493504 0.6154259
0000b0 cf b7 15 bf 74 f1 a0 3e f0 04 d6 be 26 ae 9d be
       -0.58483595 0.31434214 -0.41800642 -0.30796927
0000c0 ad 60 f2 be 17 21 92 be f6 19 f1 3e 6a 5a 58 be
       -0.47339383 -0.2854087 0.4709012 -0.2112824
0000d0 96 50 c1 bd 22 82 1d bf de 18 b4 3e 51 a8 17 bf
       -0.09439199 -0.6152669 0.35175222 -0.59241205
0000e0 06 e2 10 3f cd db 99 3e 02 d2 89 be e3 5a 14 3e
       0.56594884 0.30050507 -0.26918036 0.14487796
0000f0 13 c4 6f be f0 7a bc be e0 ce 97 bd c8 cd ba 3e
       -0.2341464 -0.36812544 -0.07412505 0.36485124

bias f4 [32]
000000 18 71 81 be 7d 02 4f 3c f1 ab 12 bf b8 70 fb 3e
       -0.25281596 0.012634871 -0.5729361 0.49109435
000010 c9 ea 2e 3f 8a ee 33 bd cc 4e cb be 12 c4 9a 3e
       0.68327004 -0.04392866 -0.39708555 0.30227715
000020 1e 3f 91 be 14 ca 07 bf e1 34 4c be c2 b5 39 3f
       -0.28368467 -0.5304272 -0.19942047 0.72542965
000030 6f 0c 9d be 9b a0 22 3f a9 03 14 3f 6f 4f a7 3d
       -0.3067355 0.63526314 0.57818085 0.08169448
000040 db 7d 29 bf 22 b1 2d 3f fe d7 9b 3e 8c 6c a4 be
       -0.66207665 0.6784841 0.30438226 -0.32114065
000050 06 4f 85 3d e2 2f 4a 3e 31 51 92 3c 6b a7 21 bf
       0.06509213 0.19744828 0.01786098 -0.63146085
000060 81 5d 2d bd 07 fc 0f 3f c1 df e6 be b9 0d d3 bc
       -0.0423255 0.5624394 -0.45092586 -0.02576338
000070 3e db 18 bf 13 a2 26 be 99 a7 fe be 67 04 11 bf
       -0.5970954 -0.16272764 -0.49737242 -0.5664734

weight f4 [32, 2]
000000 81 bf fd 3e e0 99 01 bf 0b 86 e1 3d da 87 5b 3e
       0.49560168 -0.5062542 0.11011895 0.21438542
000010 57 62 71 be 2b c4 e4 3d 02 63 ae 3d c0 03 a1 3e
       -0.2357267 0.111702286 0.08514978 0.31448174
000020 67 ac e3 be 36 61 18 bf 0d 4e dc 3e 95 14 93 3e
       -0.4446747 -0.5952333 0.43028298 0.2872664
000030 32 18 97 be 8e 6e ff bc db 94 c0 3c be 88 1a bf
       -0.29510647 -0.031180646 0.02350848 -0.603649
000040 ec c9 ea be b5 f9 20 3f 15 c8 cd 3e 13 41 39 3d
       -0.4585718 0.6288102 0.40191713 0.045228075
000050 fe 63 04 3f 17 d0 f0 be 80 98 c6 3e 75 69 ad be
       0.51715076 -0.4703376 0.38788223 -0.3386952
000060 ad a3 07 3f be 44 e6 be fa 80 0b 3f 96 44 db 3c
       0.52984124 -0.4497432 0.5449368 0.026766103
000070 d1 b6 d0 bb de b8 0d bf 45 4c a8 be 19 d8 e7 3e
       -0.0063694497 -0.5536021 -0.3287069 0.45282057
000080 c5 b5 fe 3e 9e c0 8f be 00 ad 5d 3e 50 fe 87 3e
       0.49748054 -0.28076643 0.21648026 0.26561213
000090 bf 15 34 be 19 74 a8 3e 3f d3 07 be 80 af 13 3f
       -0.1758642 0.32901075 -0.13264178 0.57689667
0000a0 2e a1 97 be ff 8c 2a 3f 63 f9 75 3e ae c3 d7 be
       -0.29615158 0.6662139 0.24020915 -0.4214148
0000b0 f2 0a 32 bf cd 3b b0 bb a9 8e 16 bf e3 fc eb 3d
       -0.6954795 -0.0053782226 -0.5881143 0.11522844
0000c0 73 06 30 3e 31 03 05 3f b8 59 22 bf a0 5e 65 3e
       0.1718996 0.51957995 -0.6341815 0.22399378
0000d0 c5 19 2f bf 02 68 24 3f b4 6f 08 bf 31 c8 e4 bc
       -0.68398696 0.64221203 -0.53295445 -0.02792749
0000e0 6e dd f9 3e 33 6b 1c bf e4 48 be bd 12 84 bc 3e
       0.4880175 -0.61101073 -0.092912465 0.36819512
0000f0 f8 8e 77 3e 37 ba c5 be 61 4e e7 3c 8f 9f 30 3f
       0.24175632 -0.38618633 0.028235616 0.6899347

weight f4 [32, 32]
000000 f1 d6 e5 3c a5 57 c9 3c b8 36 f8 3d a0 be 83 3d
       0.028056594 0.024577925 0.12119812 0.06432843
000010 75 31 ca 3c b4 8f 59 bc 33 a6 5d 3c 9c 32 32 bd
       0.024681786 -0.01327889 0.0135283945 -0.043505296
000020 4b 1c 56 be af 10 1e 3d 52 66 02 3e 7f d0 b9 bd
       -0.2090923 0.03859013 0.12734345 -0.090729706
000030 d0 59 8e 3d fa 7d 2a 3e 03 1d a9 3d 80 cc eb 3d
       0.06950724 0.16649619 0.08257487 0.11513615
000040 cd 9b 0f 3e b8 15 bc bd 8a 80 a7 3d 3f e9 2b be
       0.14024277 -0.0918383 0.08178814 -0.16788195
000050 61 da 98 3d bf d5 95 3d c2 a5 2d be 71 3f 05 3e
       0.074635275 0.073161595 -0.16957763 0.13012482
000060 cb 3e cf 3d 68 40 2c 3e 8c a8 c2 bd e7 2c 6f bd
       0.10119399 0.16821444 -0.09504804 -0.05839243
000070 5a 99 8d bb ec 10 51 3d 1e 4e e2 3d a0 13 16 3d
       -0.0043212594 0.05104153 0.11050056 0.03663981
000080 9b 8e af 3c 71 f9 0c 3e fd 44 46 bd aa c5 14 bd
       0.021430304 0.1376703 -0.048405636 -0.03632132
000090 57 1b da bd 8b 43 45 be 92 99 ed bc 43 1f 31 be
       -0.10649746 -0.19264047 -0.029003892 -0.17297082
0000a0 23 59 a5 3d c9 7c 05 3e 31 c2 9b bc 45 27 98 bd
       0.08073642 0.13035883 -0.019013496 -0.07429365
0000b0 87 e2 eb 3c 2b 8c a8 3d 7f 78 25 3e f7 43 0d 3c
       0.02879454 0.0822986 0.16159247 0.008622161
0000c0 bc 95 08 be 03 1e 6e 3d 9e bb 13 be 56 ab 24 3c
       -0.13338369 0.05813409 -0.14427039 0.010050615
0000d0 b6 4a 9a bd 27 91 37 be 0a d5 43 bc 6a 28 c8 3d
       -0.07533781 -0.17926465 -0.011952648 0.09773333
0000e0 22 31 27 3e bd d5 19 3e e4 d5 17 3d dc fa 85 bc
       0.16327336 0.15022941 0.037069216 -0.01635497
0000f0 50 95 e1 3d d5 04 3e bc c3 99 22 3d ab 31 93 bc
       0.11014807 -0.011597832 0.03969742 -0.01796802
000100 1a f6 31 be 15 ad 23 be 4b 0f 32 bb 9e c6 c4 3d
       -0.17379037 -0.15983994 -0.002716976 0.09608196
000110 15 10 05 bb 1b 9b 00 3e 6c b9 92 bd 42 4a d9 3d
       -0.0020303775 0.12559168 -0.07164273 0.10609867
000120 6d 49 bf 3d 5a 72 85 bd 5d 19 28 bc 3a ce fd 3d
       0.09340177 -0.065159515 -0.010259953 0.1239285
000130 dd 81 cc 3d 55 a1 24 be fd 36 da bd 2b 0b 62 3c
       0.09985707 -0.16077168 -0.106550194 0.013796608
000140 a7 5c 16 be 4c 0b 92 bc 7e 6f 1a be 94 25 38 be
       -0.14683782 -0.017827652 -0.15081593 -0.17983085
000150 66 07 04 ba 03 50 ce 3d 08 78 02 bb 7c 42 be 3b
       -0.0005036503 0.10073855 -0.001990797 0.0058062654
000160 ca ce 19 3e d0 ba 70 bd 23 43 ca bd 2c ca 3f bc
       0.1502029 -0.05877191 -0.098760866 -0.011705916
000170 3a ea 74 bc 37 08 d5 3d cd 12 de 3d ac 58 12 be
       -0.014948422 0.104019575 0.1084343 -0.14291638
000180 5d 8a 5a 3d b0 bd 20 bd 5f 69 b7 bc 87 63 21 be
       0.05335461 -0.0392434 -0.022389112 -0.15760623
000190 7f da ba bd a3 8e 44 bd d4 e0 85 bd c5 45 01 3e
       -0.09123706 -0.04798759 -0.06537023 0.12624271
0001a0 33 d0 3f be 50 40 33 3e ad b0 15 3e 55 b6 2c be
       -0.18731765 0.17505002 0.14618178 -0.16866429
0001b0 e4 f5 cc bd c8 60 1c 3c 8b 26 3e 3e 0e 27 92 3b
       -0.100078374 0.009544559 0.1856939 0.004460222
0001c0 12 74 76 bd 96 05 8a 3d a9 1a 49 3c b1 8c 69 3d
       -0.060169287 0.06739347 0.012274423 0.05701894
0001d0 0e c8 0f 3e bb c1 f5 3c bd 2b 0c 3e d5 a0 8d 3d
       0.14041159 0.029999604 0.1368856 0.06915442
0001e0 61 74 bc 3d e5 6e 57 bd 4e 3e ea 3c 4b a5 fc 3d
       0.09201885 -0.05259599 0.028594162 0.12336215
0001f0 86 bd ff bd 65 9e ff 3d 60 cc 09 3d 5a 6e 32 be
       -0.124873206 0.12481383 0.033642173 -0.17424908
000200 ae 57 1f be 7d d9 1a bd b3 ae 48 3d fa b1 2d be
       -0.15560791 -0.03780507 0.04899473 -0.16962424
000210 8f 3f ff 3d 89 cd 24 3e 7c b3 2e be f6 a7 f2 bd
       0.12463295 0.1609403 -0.17060655 -0.11848442
000220 0c ee 46 bc 39 a3 28 be 16 4a 7e 3d 04 3c 17 3d
       -0.012141716 -0.16468515 0.062082373 0.03692247
000230 f8 e8 b8 bd 6f ca 34 bc 46 92 06 be e0 61 a9 bd
       -0.0902881 -0.011034592 -0.13141736 -0.08270621
000240 a4 66 3c 3d 5d 2f 16 be ad bd f2 3d 88 d4 41 3d
       0.045996323 -0.14666505 0.11852584 0.047321826
000250 1f e0 19 be e9 1a 0a be c9 23 80 bc ae c3 db bd
       -0.15026902 -0.13486828 -0.015642064 -0.10730682
000260 db ec 15 3e b8 60 0d 3e 37 10 d1 3d 38 b3 df 3d
       0.14641134 0.13806427 0.10208171 0.10922855
000270 4e 6f 20 bd cd 58 18 be 1b 5a 53 3e 3f f8 bb 3d
       -0.03916865 -0.14877625 0.20639841 0.091782086
000280 63 97 da 3b 1c 62 61 3e ee 28 38 3e eb 5b 10 be
       0.0066708787 0.22010082 0.17984363 -0.14097564
000290 ba 32 60 3d 77 20 1e be 27 ef 99 bd 4e 64 a9 bd
       0.054735877 -0.15442072 -0.07516318 -0.08271085
0002a0 a6 13 9a bc f6 90 e4 3d 38 37 be 3d 3d 90 3c be
       -0.018808197 0.111604616 0.09287876 -0.18414398
0002b0 05 1f a3 bc 57 50 f9 3c 92 c4 24 3e 19 55 01 be
       -0.019912252 0.030433817 0.1609061 -0.12630118
0002c0 57 5b 20 3e 30 38 e7 3d 84 d6 dd 3b 29 06 8c 3d
       0.15659843 0.11290014 0.006769957 0.068371125
0002d0 31 4e 0f be 80 dc e7 bd 10 f7 a9 3d 66 39 20 be
       -0.13994671 -0.11321354 0.082990766 -0.15646896
0002e0 ae 77 f9 3d 61 c3 13 be ba 35 9c 3c 86 a8 21 bc
       0.1218103 -0.1443 0.019068588 -0.009866839
0002f0 53 4e 2b be 4e 46 15 be f0 ed fe bd d6 6d cd 3d
       -0.16729097 -0.145776 -0.12447727 0.10030715
000300 47 a4 ba 3b 87 79 09 3e 7d bd ed 3c 9e 72 87 bd
       0.005695853 0.13425265 0.02902102 -0.06613658
000310 03 c4 3f be 35 a8 bc 3a f0 cc 6a 3d 28 37 15 be
       -0.18727116 0.0014393391 0.05732435 -0.14571822
000320 ad ea 40 3e c3 2a f1 bd db cd 78 3b bf 8e 74 3d
       0.18839522 -0.11775734 0.0037964496 0.059706446
000330 9c 14 8a 3d 03 6e 24 3e 98 bd 86 3d f2 38 11 3d
       0.06742212 0.16057591 0.06579131 0.035454698
000340 85 2c ff bc 14 f9 14 bc 94 1f d4 bc ca 1c bf 3d
       -0.031149158 -0.009092588 -0.025893964 0.09331663
000350 97 17 28 be 9c 40 15 3e 1b f6 d8 3d e3 0e b6 bd
       -0.16415249 0.14575428 0.10593816 -0.08889558
000360 e0 70 c0 bd 12 d7 7a 3d 10 38 b7 3d 9e 48 22 3e
       -0.09396529 0.061240263 0.0894624 0.15848014
000370 72 e8 16 3e b8 19 45 3d bc 7d 08 be a8 32 7a bd
       0.14737108 0.04812023 -0.13329214 -0.061083466
000380 01 8e 28 3e 3d 04 f7 3d e5 19 e7 bd bc ba b1 3d
       0.1646042 0.12061355 -0.11284236 0.08678195
000390 91 c2 c4 bd 96 14 08 3e 61 d4 b5 bd b4 60 08 be
       -0.09607423 0.13289103 -0.08878399 -0.1331814
0003a0 98 69 9a bd fd 00 78 38 f8 2c 9a bd e5 ed d0 3d
       -0.07539672 5.9128728e-05 -0.07528108 0.10201625
0003b0 67 7c 0f 3d d7 38 65 3c 37 fa fd 3d 55 ae fd bd
       0.03503075 0.013990602 0.1240124 -0.12386767
0003c0 1d a9 76 3d db 15 40 be 37 79 ba 3b 48 0a 01 3e
       0.060219873 -0.18758337 0.0056907195 0.12601578
0003d0 cb 5b 3b 3e b1 f0 f5 bd 43 47 ec bd 16 b2 44 be
       0.18296735 -0.12008799 -0.115370296 -0.1920856
0003e0 3f a8 b1 bd a6 4b 8d 3d 39 22 d6 bc 6e 10 ef 3d
       -0.086746685 0.068991944 -0.026139366 0.116730556
0003f0 66 ce 0d 3e 61 74 0f 3e d2 a2 12 3e 46 63 4c 3e
       0.13848266 0.14009239 0.14319924 0.19959745

bias f4 [32]
000000 45 75 6b 3b 0c e3 ec 3d 9c 2c 2d 3e 7f 1c 22 be
       0.0035928052 0.11566743 0.16911548 -0.15831183
000010 78 c1 01 bd 93 1b 15 3e 64 6a 33 3c 44 37 e3 3d
       -0.031678647 0.145613 0.0109506585 0.110945255
000020 ab 47 ac 3d 27 3d d0 3c ec 2e 78 3d 2a ae 1d 3d
       0.08412107 0.025419785 0.060591623 0.038496174
000030 89 18 13 3e dc 38 31 3e 88 6b 33 3d 66 d2 93 bd
       0.14364828 0.17306846 0.04380372 -0.07217865
000040 5d 3c 47 bd cc c5 09 be 6f bd 7a bd 45 a9 51 bc
       -0.04864155 -0.1345436 -0.061215814 -0.012796705
000050 3f 40 67 3d 16 1c c9 3d 3c d4 88 3d c6 9c 85 3d
       0.056457754 0.0981981 0.066811055 0.06524043
000060 f6 98 10 be d6 ae fa 3d b5 be 1a 3d 49 7e 35 3d
       -0.1412085 0.122403786 0.03777953 0.044309888
000070 7a 8f 6e 3d 07 a2 1f be dd 60 1a 3e 8c 59 00 be
       0.0582423 -0.15589152 0.15076013 -0.1253416

weight f4 [32, 2]
000000 12 9a 13 be a2 10 c2 3e 03 e5 87 3e 53 f2 62 3e
       -0.14414242 0.37903315 0.2654191 0.22162752
000010 7f 71 04 be e6 78 76 be 4b de 13 3f 32 8f 4f be
       -0.1293392 -0.24069557 0.5776107 -0.20269468
000020 af 1b cc be 52 aa 87 be 24 e0 1e 3f 20 c0 05 bf
       -0.3986487 -0.26497132 0.6206076 -0.52246284
000030 c4 ec 89 be ab 12 6b 3e 0d 5b 00 3f f2 91 21 3f
       -0.2693845 0.2295634 0.5013893 0.6311332
000040 73 40 f4 3e e4 b8 23 bf 59 9b 29 be 27 90 46 be
       0.4770542 -0.63953996 -0.16563167 -0.19390927
000050 46 07 06 bf 88 1e d5 3e f2 ba 1c bf 3c 82 28 3f
       -0.5235485 0.41624856 -0.61222756 0.6582372
000060 f8 ff 88 3d cf 2f 4c 3e 2c da e9 3d 66 af 18 3f
       0.06689447 0.19940113 0.11418566 0.59642637
000070 0e ed 03 3f 52 97 2f 3f 38 ee 26 bf 46 98 02 3f
       0.5153359 0.6859027 -0.6520724 0.510136
000080 ab 97 d1 bb 6e e3 da be e7 b0 0b 3f 66 72 de be
       -0.006396254 -0.4275164 0.54566807 -0.43446654
000090 e8 99 17 bd fa 9a bc bc b9 54 da bd c0 c7 04 3e
       -0.03701201 -0.023023117 -0.10660691 0.12966824
0000a0 c4 2a ad bd e7 77 f5 3d 59 da 9b 3e 98 1e e3 be
       -0.084554225 0.1198576 0.30440024 -0.4435928
0000b0 23 5e 9a be 82 e9 2f 3f 4a 75 ee bd a3 3f bb be
       -0.30149946 0.6871568 -0.11643465 -0.36571988
0000c0 5a 3c e9 3e c8 f2 e1 3e a8 18 b8 be bb 77 15 3f
       0.45553857 0.4413054 -0.3595631 0.5838582
0000d0 20 cb 87 3c d2 10 76 ba a2 6d 0a 3f b1 20 0c 3f
       0.01657635 -0.00093866617 0.54073536 0.54737383
0000e0 51 75 43 3e 80 3b 0b 3f 9c f1 7e 3e b0 15 9b be
       0.19087721 0.54387665 0.24896854 -0.30289984
0000f0 29 dc 94 be d8 8f 00 bf 3e a5 83 3d 5a 44 44 3f
       -0.2907422 -0.5021949 0.06428002 0.76666796

weight f4 [32, 2]
000000 d6 1e b5 3e 09 7b 87 3e ef dc ad be 29 78 de be
       0.35375088 0.26461056 -0.3395762 -0.4345105
000010 00 85 fe bc 5f 39 c0 3e de be 4b bd 51 9b d9 3e
       -0.031069279 0.3754377 -0.049742572 0.4250131
000020 67 f8 d4 3d 36 31 1a 3f 02 bd b9 bb ef 52 16 3d
       0.103989415 0.6023134 -0.0056682834 0.036700185
000030 b9 f6 bc be ea d3 e1 bd 6b 39 27 bf 99 ff 71 bd
       -0.36906984 -0.110267475 -0.6532199 -0.059081648
000040 04 79 81 be 0d 40 f6 bd 99 d2 ae be 91 e3 33 bf
       -0.2528764 -0.120239355 -0.34145048 -0.70269114
000050 e6 f6 17 bf 94 d3 6e bc 76 b1 50 3e 03 3b c9 3e
       -0.5936111 -0.014576811 0.20380196 0.39302835
000060 e5 80 d6 3e 04 98 f2 be 7d bd 96 be 15 8f af be
       0.41895214 -0.47381604 -0.29441443 -0.3428885
000070 e8 2b 2b bf f2 1a 10 bf 27 c9 8b 3e a0 ab 17 3f
       -0.6686387 -0.56291115 0.27301905 0.59246254
000080 72 de 20 3f 6e e6 bc 3e ba c9 17 bf e7 de 11 3d
       0.62839425 0.36894554 -0.59292185 0.035612967
000090 35 bd 89 be 46 84 08 be 50 d7 c2 bd 3d d3 2f bf
       -0.26902166 -0.13331708 -0.09513724 -0.686817
0000a0 78 f4 05 3f b2 8d 33 be 7d ad 01 bf 54 7e ef be
       0.52326155 -0.17534521 -0.5065535 -0.46776068
0000b0 6a c0 06 be 88 3a 1b bf 84 6a 25 3f c1 d5 a0 be
       -0.13159338 -0.60636187 0.64615655 -0.3141308
0000c0 a1 3d 42 be 8d 13 10 3f 55 96 88 3e e8 db a9 3e
       -0.18968822 0.5627983 0.26677194 0.33175588
0000d0 8c f2 aa be 1b d3 08 3f 91 0d 85 be d3 0c 0d bf
       -0.33388174 0.5344712 -0.25986913 -0.55097693
0000e0 ef b9 7a 3e cc b7 09 bf b2 6c 56 3e ae b6 c2 bd
       0.2448499 -0.53796077 0.20939901 -0.095075
0000f0 e5 b6 4b 3e 1b e1 35 be 67 d3 2c be ae 9d 49 be
       0.19893987 -0.17761652 -0.16877519 -0.19689056

bias f4 [32]
000000 97 aa 67 3c 62 1b 59 be 13 59 c5 bd e2 0d e9 bd
       0.014139793 -0.21201852 -0.0963613 -0.11379601
000010 ad c9 a4 3e 9a 2a 07 bf e9 36 a1 bd 10 1e 65 3d
       0.32185116 -0.5279938 -0.078718014 0.055936873
000020 eb 55 98 bd c4 6a e5 3e 23 ce 1e be b5 a8 a2 be
       -0.074382626 0.44808018 -0.15508322 -0.31769338
000030 ec 27 39 3f 93 7e 69 3d fb d9 83 be 77 4f ad bd
       0.7232654 0.057005476 -0.25752243 -0.08462422
000040 49 6b 92 be 48 e9 c0 3c 32 50 dd be 4c c0 1c 3e
       -0.28597477 0.023548737 -0.43225247 0.1530773
000050 e0 94 42 bd 01 8b 4f be 7b cb 23 3e 0d c3 83 3e
       -0.04750526 -0.2026787 0.1599559 0.2573475
000060 7e 25 82 be 2f 10 4e be 14 86 c6 3e 72 5f 93 3e
       -0.2541923 -0.20123361 0.38774168 0.28783756
000070 a5 37 01 3f 65 fe 20 3f 53 3f 87 be 4a 14 89 be
       0.5047553 0.62888175 -0.264155 -0.26773292

weight f4 [32, 32]
000000 72 ea 27 be 23 86 85 3b fe ce 2c 3d dd 67 66 be
       -0.16398028 0.0040748282 0.04218959 -0.22500558
000010 5a bd ee 3c 5b d8 81 3b 74 71 d6 bc 96 4d b0 3d
       0.029143024 0.003962559 -0.026177146 0.08608548
000020 dc c5 9e bd 57 5c c5 bd ec ba d1 3c 6e a1 3d 3d
       -0.077525824 -0.09636753 0.025601827 0.04629653
000030 73 e7 0b 3e d7 e7 87 bd 47 7f ec 3d c1 82 95 3d
       0.1366251 -0.06636017 0.11547714 0.0730033
000040 b4 ab dd 3d f3 6b 94 bd af 26 f8 bc 89 d1 24 be
       0.108237654 -0.07247152 -0.030291883 -0.16095556
000050 71 6d 81 bd 7a 64 76 3d 0e c0 9a bd dc 6a 34 3e
       -0.063197024 0.060154416 -0.07556163 0.17618889
000060 a7 34 26 3e ab 62 ef bd e4 57 da 3c 72 ee 99 bd
       0.16231023 -0.11688741 0.026653238 -0.07516183
000070 7e 06 85 3d 7c 7d c9 3d 74 66 01 bd 3f a9 36 bd
       0.06495379 0.09838387 -0.031591848 -0.044595
000080 04 6a 71 bd 2e 6f 20 be 07 ff 5c bd ae 4e 45 be
       -0.058938995 -0.15667412 -0.05395415 -0.19268295
000090 fa 28 28 3e 14 9e e3 3d da f1 ae bd 08 5e 40 3e
       0.16421881 0.111141354 -0.08542223 0.1878587
0000a0 0f 4c a7 bd 24 59 69 3b 4d e3 b2 3d cb f9 30 3e
       -0.08168804 0.003560611 0.087347604 0.17282788
0000b0 18 02 d4 3d 76 cf 48 3e 10 68 28 3d 62 2f c5 3d
       0.10351962 0.1961039 0.041114867 0.09628178
0000c0 16 ca 1a bd f0 5a da 3d a2 f7 2f bd 5d 9e af 3d
       -0.03779038 0.10661876 -0.04296077 0.08575127
0000d0 ae 05 ce 3d 98 c2 87 bd 2a dd c2 3d 86 70 65 3d
       0.10059677 -0.06628913 0.0951484 0.056015514
0000e0 c4 85 f0 bd 15 f5 6f 3e d6 7e 5f be 22 80 3b be
       -0.11744264 0.23433335 -0.21825728 -0.18310598
0000f0 49 ad 77 bd f8 30 51 3c 55 41 a9 bd 41 3c c4 3b
       -0.060467992 0.012768023 -0.08264414 0.005988628
000100 df 85 29 be c7 76 2f be 3a 86 10 be c3 bf 0d be
       -0.16554974 -0.17135154 -0.14113703 -0.13842683
000110 a0 c3 ee 3d 1b 71 a7 bd 90 be 5a be 9a 4f ea 3d
       0.11658406 -0.0817587 -0.21361756 0.11440964
000120 d1 11 8c 3d 78 6c e2 bd 0c 22 a3 3d 6f ee ea bd
       0.06839336 -0.11055845 0.07965478 -0.11471259
000130 e1 f2 51 3d b3 62 3b 3d e8 da 9c 3d ca 2b 25 be
       0.051257018 0.045748424 0.076589406 -0.16129985
000140 d5 14 65 3e 1b c4 e5 bb 0b 0d 28 3d 95 d4 48 3d
       0.22371228 -0.007011903 0.041028064 0.04903086
000150 c7 33 1d 3e da a5 0f 3e 8b 56 ae bd 14 86 8d 3d
       0.15351783 0.14028111 -0.085126005 0.06910339
000160 90 ab 88 3d a8 94 55 bd 70 d7 28 3e aa 28 27 3e
       0.06673348 -0.052143723 0.16488433 0.16324106
000170 d8 c8 d5 3d 54 de 31 bd b6 39 c9 bc d6 ca 4b be
       0.104386985 -0.04342492 -0.024563652 -0.19901595
000180 ae 9c 2f bd 24 64 ad bd 17 74 44 3d 77 ad e3 3b
       -0.04287403 -0.08466366 0.047962274 0.006948169
000190 9c 76 8d bd e2 96 d0 3d 0c a5 88 3a 79 8c a4 bd
       -0.069073886 0.101850286 0.0010425164 -0.080346055
0001a0 d4 c6 a6 bb 88 98 40 3e bc 15 e4 bd e3 e7 4c 3c
       -0.00508962 0.18808186 -0.11136958 0.012506458
0001b0 8d ef 4d be 6c 1c 0c 3e 4c 3c 26 be d9 c7 18 bd
       -0.20110913 0.13682717 -0.16233939 -0.037299965
0001c0 66 0c 20 3d 10 95 74 3d 65 ce 4b bd 1a 9c bf bd
       0.039074324 0.05971247 -0.04975738 -0.09355946
0001d0 84 af d5 3d 1c cf c3 bd 48 43 d2 3d df ec 0d 3d
       0.104338676 -0.09560987 0.10266739 0.034649726
0001e0 cf bd cb bd 19 86 a8 bd e2 33 03 be 96 b6 89 bc
       -0.099483125 -0.08228702 -0.1281276 -0.016810697
0001f0 38 7d 18 3e fb c9 27 bd d2 fc 8e bc 99 78 be bd
       0.14891517 -0.040964108 -0.017454538 -0.09300346
000200 8e de 85 3e f1 0d 18 bd b9 bb 34 be f6 ec 31 bd
       0.26146358 -0.03712267 -0.17649736 -0.043438874
000210 3a f0 6f 3c 08 57 68 be de 6c 9a 3d 35 d4 9d b9
       0.014644677 -0.2268945 0.07540296 -0.0003010348
000220 4a 5c 4e 3e d1 6c 90 3e 19 1e 38 be e4 43 6b 3c
       0.20152393 0.2820802 -0.17980231 0.014359448
000230 ee 46 d7 3d de 80 87 3d 07 fb 3a be 58 6e 5a bd
       0.10511576 0.06616376 -0.18259822 -0.05332789
000240 3e 38 15 3e 26 df 45 3e 0a 24 42 bc 4b ed 78 3c
       0.14572236 0.19323406 -0.011849413 0.015193294
000250 70 d0 e7 3d 49 69 13 3c 1a e9 60 be 55 65 51 3e
       0.11319053 0.00899727 -0.21963921 0.20448811
000260 3f b3 68 3c e9 ca 80 be 19 3f ac b9 cf 90 52 bd
       0.014202892 -0.25154808 -0.00032853408 -0.05140763
000270 f2 01 3a be 76 7a 70 3d 2b 6c 0f be bc 6d 78 be
       -0.18164805 0.058710538 -0.14006107 -0.2426061
000280 b7 5e 77 bd 20 e3 b0 bd de 5d da bd 5e 42 08 3d
       -0.06039306 -0.08637071 -0.10662435 0.033266418
000290 63 a7 2f 3e 6e 3a c3 bd 49 a2 9c bd 17 26 41 bd
       0.17153697 -0.09532629 -0.07648141 -0.047155466
0002a0 fb 68 01 3d 68 61 90 3d b1 ca 24 bd 38 65 1d be
       0.031594258 0.07049829 -0.040232364 -0.15370643
0002b0 84 11 6a bd d2 25 74 3e de bd 18 3c 0a ad 17 be
       -0.05714561 0.23842552 0.009322612 -0.14812103
0002c0 20 3c 50 3d ee bd c1 bd 1d 88 45 3d e6 ab f0 3d
       0.05083859 -0.09460054 0.04822551 0.11751537
0002d0 eb fc 89 3e d7 60 91 bd 56 31 02 be 20 95 a9 3e
       0.26950774 -0.07098549 -0.12714133 0.33121586
0002e0 7e 2e e5 3d ed b1 93 3d 56 aa 0f 3e 9f fc 1a 3d
       0.11190508 0.07211671 0.14029822 0.037838574
0002f0 a3 94 e1 bc 5a d3 6f be 1e b6 cd bd a3 8b a4 bd
       -0.027536696 -0.23420468 -0.10044502 -0.08034446
000300 bc 11 d6 3d e4 c0 c7 bd 2a 08 98 3d 81 09 7f 3d
       0.10452601 -0.09753588 0.07423432 0.062264923
000310 35 44 2a bd bb 0d 8d bd 6f 95 7d be 4c 04 10 be
       -0.041568954 -0.068873845 -0.24764036 -0.14064139
000320 8f 4c 4c 3c fe b8 3d 3e a5 f3 03 be 16 77 eb bb
       0.012469425 0.185276 -0.12885912 -0.007185827
000330 18 49 75 3d 90 eb 8a 3e 02 7e 86 bd 44 d4 3c 3c
       0.05988416 0.27132845 -0.06567003 0.011525217
000340 4b 26 02 be 2b 65 4f 3e 9c 51 e6 3c b3 31 83 3d
       -0.1270992 0.20253436 0.028115086 0.06405964
000350 21 0f 4f 3d e0 e8 9d 3d ab cc 50 bd ec f2 51 3e
       0.050551537 0.07710433 -0.050976437 0.20502824
000360 58 ee 24 3d 36 d2 b9 bd 72 02 13 3d 72 9b 16 bd
       0.040266365 -0.09073298 0.035891004 -0.036769338
000370 c9 0d 34 be b0 28 16 bd 5b ac 5f be 9f c2 b4 bd
       -0.17583384 -0.036659896 -0.21843092 -0.088261835
000380 0e 88 d1 3d 1d 16 22 be 82 47 45 be 73 94 c1 3d
       0.102310285 -0.15828748 -0.1926556 0.094521426
000390 14 c7 34 be 15 eb e5 bd ca 14 5b bd e0 63 73 3e
       -0.17654067 -0.11226479 -0.053486623 0.23768568
0003a0 3e 25 f8 bd 0e 88 16 be b4 34 d3 bd e4 ff 22 bc
       -0.121164784 -0.14700338 -0.10312787 -0.009948704
0003b0 cf 8a 5f bd 1a 5b d7 bd ea d4 92 bd 47 d7 46 bd
       -0.054575738 -0.10515423 -0.071695164 -0.04854515
0003c0 95 bf 4d be 81 48 02 3e 5a 0b 36 3d 84 6e 15 3e
       -0.20092614 0.1272297 0.04444442 0.1459294
0003d0 bb 49 ea bd fd e1 fd 3d 1b 4f 3d bd c4 e7 91 3d
       -0.11439844 0.123966195 -0.04621802 0.07124284
0003e0 ae ad 04 be c3 eb 11 3e ae dc 8f bd 91 29 74 3c
       -0.12956879 0.14250092 -0.07024513 0.014902488
0003f0 79 bf ba bd 22 74 31 bd 6c fb ac 3d da bf 03 bd
       -0.09118552 -0.043323644 0.084463924 -0.032165386
