anp_models/anp_link_prediction_next_topic_fixed_overfit_2024_10_19_00_37_05/model.pt (torch, 152153 bytes, 45 tensors)

att_src f4 [1, 4, 32]
-0.38649654 -0.19536877 -0.004930404 0.03256357 0.26903608 -0.12291476 -0.22896446 0.28072214
0.40184557 -0.08643223 -0.2886957 0.022224316 -0.39645907 -0.36481196 -0.25744197 0.36843136
0.28209758 0.26096973 -0.17514077 -0.32979804 0.2965711 -0.12553222 0.38285148 0.15319975
-0.24902627 0.26880026 0.2827181 0.36227894 0.16312927 -0.3748028 0.043689672 0.115379505
-0.3538809 0.40393874 -0.068837024 -0.12935647 -0.11895478 -0.06750038 0.17894371 0.28619418
-0.0067490893 -0.14847228 -0.3308019 0.044390574 -0.25440413 0.3418669 0.25429538 0.28601575
-0.11933774 0.36600345 0.17256065 0.11973861 -0.042859703 0.22663425 0.17675632 0.3373424
0.18852551 0.14540549 -0.07244782 0.2868205 -0.12713648 0.2375391 0.082948506 -0.12816344
0.059396796 -0.12713337 0.3577106 -0.19307187 0.051521067 -0.28214324 0.21418464 -0.27944833
0.18240388 0.18792394 0.121859126 -0.19804648 0.09380718 -0.02803496 0.26589528 -0.37317064
0.099376 0.25654966 0.122409746 0.009255342 0.34297857 0.23054585 -0.17040002 0.16971849
0.2196718 0.31112632 -0.033762433 0.045540135 0.2563142 0.38431713 -0.28177488 -0.36778852
0.1562976 0.016956747 0.107822545 -0.031311806 0.3692073 -0.14021286 0.2871909 0.17015061
0.19700067 0.09581664 -0.32759362 0.31638795 -0.1726515 0.37077418 -0.08506357 0.17419833
-0.33152533 0.11353688 -0.327181 0.2232531 0.31457013 -0.014802552 -0.2878487 0.10731578
0.39947924 0.22157702 0.32523546 0.041232668 0.27892825 0.22603023 0.02121842 -0.39491785
00000000: e0e2 c5be c00e 48be 3a8f a1bb 6161 053d
00000010: 19bf 893e bcba fbbd a975 6abe d0ba 8f3e
00000020: b4be cd3e 6203 b1bd eccf 93be c50f b63c
00000030: affc cabe a2c8 babe 6fcf 83be 09a3 bc3e
00000040: 186f 903e d39d 853e 1a58 33be 4adb a8be
00000050: 2bd8 973e 858b 00be 1c05 c43e 65e0 1c3e
00000060: be00 7fbe 30a0 893e 6dc0 903e a07c b93e
00000070: 5c0b 273e 27e6 bfbe f1f3 323d 174c ec3d
00000080: e12f b5be 0fd1 ce3e 6dfa 8cbd 0676 04be
00000090: 909e f3bd a43d 8abd 053d 373e 0b88 923e
000000a0: 7727 ddbb 1e09 18be de5e a9be e4d2 353d
000000b0: 4241 82be 2e09 af3e 0133 823e a870 923e
000000c0: 5867 f4bd ce64 bb3e bdb3 303e 8439 f53d
000000d0: a88d 2fbd cf12 683e 9cff 343e 25b8 ac3e
000000e0: d50c 413e 2de5 143e 865f 94bd 23da 923e
000000f0: 1130 02be 733d 733e e8e0 a93d 473d 03be
00000100: 0e4a 733d 402f 02be d825 b73e a2b4 45be
00000110: c107 533d 1475 90be 3853 5b3e da13 8fbe
00000120: 15c8 3a3e 226f 403e 4791 f93d b2cc 4abe
00000130: fb1d c03d 93a9 e5bc 6d23 883e 3910 bfbe
00000140: a585 cb3d 7a5a 833e f6b1 fa3d b8a3 173c
00000150: e39a af3e 3614 6c3e 587d 2ebe afca 2d3e
00000160: a5f1 603e f34b 9f3e 7a4a 0abd 4b88 3a3d
00000170: 9d3b 833e 37c5 c43e cc44 90be c74e bcbe
00000180: 7a0c 203e e0e8 8a3c 11d2 dc3d cf40 00bd
00000190: bd08 bd3e f693 0fbe b00a 933e f63b 2e3e
000001a0: 8bba 493e 843b c43d 5aba a7be 9afd a13e
000001b0: 8ecb 30be 1dd6 bd3e cf35 aebd 0c61 323e
000001c0: b0bd a9be 0686 e83d 4584 a7be 769c 643e
000001d0: 560f a13e 6786 72bc e860 93be 60c8 db3d
000001e0: 8b88 cc3e 16e5 623e 4385 a63e 96e3 283d
000001f0: afcf 8e3e 7874 673e 40d2 ad3c ac32 cabe

att_dst f4 [1, 4, 32]
0.28319043 -0.3949243 0.05128912 -0.028029608 0.112331785 0.28387412 -0.38879547 0.406289
0.21655881 0.03720713 0.019266337 0.25388917 -0.13473378 0.043140806 -0.12477593 0.01887262
0.266172 -0.15769574 0.36497235 0.124771506 0.26423436 0.104231894 0.045795396 -0.38622314
0.06677948 0.2962184 -0.19011472 -0.012342484 -0.01234954 0.18452182 0.18911871 -0.048246507
0.08320478 -0.1622228 -0.10284537 0.22642103 -0.3750995 0.28676888 -0.17020735 0.14777805
0.003358071 0.027478892 -0.40326467 -0.15711287 -0.114710726 0.060385905 -0.032123767 0.37864238
0.09775344 0.20989995 -0.35370833 0.34330153 -0.3062851 0.016011683 -0.33161783 0.05669714
0.24868472 0.30545154 -0.23760572 -0.40822554 0.37467858 -0.09949421 0.20069045 0.38848728
0.39359248 -0.15002476 0.022400929 -0.40668932 -0.1552732 0.003910782 -0.29840034 -0.02851579
0.016211947 -0.09232483 -0.13959415 0.06100753 -0.22702168 0.14001377 0.17739016 0.24423029
-0.27635956 0.08362897 0.2858708 -0.35067865 0.09191277 0.2468691 -0.032329626 -0.2406571
-0.04629788 -0.3506006 0.092182726 -0.2437091 0.27894405 0.2836601 -0.101923086 -0.081547625
0.072663955 -0.11726472 0.10265333 -0.18758292 -0.23845054 -0.28516188 0.036994603 0.22084409
-0.2695816 0.14497098 -0.03708415 0.19071703 -0.013565048 -0.09242777 0.35517594 -0.2579865
0.16068648 0.011466722 0.36701015 -0.29294938 -0.036575045 -0.2935739 -0.13598175 0.1334442
-0.34769833 0.009491767 -0.14678884 0.3626685 -0.39819604 -0.1338166 0.21111701 0.30603847
00000000: 56fe 903e 8533 cabe 8a14 523d 599e e5bc
00000010: 350e e63d f357 913e 3310 c7be 1d05 d03e
00000020: 98c1 5d3e 8166 183d 70d4 9d3c c3fd 813e
00000030: a7f7 09be 6ab4 303d 868a ffbd c19a 9a3c
00000040: b247 883e fe7a 21be a8dd ba3e 3488 ff3d
00000050: ba49 873e 8877 d53d f493 3b3d 0abf c5be
00000060: aec3 883d f0a9 973e 6fad 42be 2138 4abc
00000070: ba55 4abc 4af3 3c3e 56a8 413e 219e 45bd
00000080: 4567 aa3d bc1d 26be 98a0 d2bd eada 673e
00000090: 0b0d c0be 5fd3 923e d64a 2ebe 2153 173e
000000a0: 1513 5c3b 6a1b e13c b578 cebe 32e2 20be
000000b0: 75ed eabd 3657 773d 3694 03bd 6add c13e
000000c0: f532 c83d 03f0 563e 4219 b5be 38c5 af3e
000000d0: 67d1 9cbe ef2a 833c d0c9 a9be 433b 683d
000000e0: 35a7 7e3e 2564 9c3e ea4e 73be f002 d1be
000000f0: dfd5 bf3e 9fc3 cbbd cc81 4d3e cee7 c63e
00000100: f484 c93e 17a0 19be 2782 b73c 9539 d0be
00000110: f0ff 1ebe 0426 803b eec7 98be f299 e9bc
00000120: ebce 843c cd14 bdbd c5f1 0ebe 08e3 793d
00000130: 5f78 68be c55f 0f3e c4a5 353e 8117 7a3e
00000140: 007f 8dbe aa45 ab3d a85d 923e 278c b3be
00000150: c33c bc3d 41cb 7c3e 126c 04bd d16e 76be
00000160: d9a2 3dbd ec81 b3be 4cca bc3d e18e 79be
00000170: c1d1 8e3e e63b 913e 0dbd d0bd 7102 a7bd
00000180: d7d0 943d 7c28 f0bd e93b d23d bd15 40be
00000190: 612c 74be bd00 92be a787 173d f424 623e
000001a0: 9906 8abe 4673 143e 8de5 17bd 534b 433e
000001b0: ef3f 5ebc c54a bdbd 9fd9 b53e ce16 84be
000001c0: ff8a 243e ebde 3b3c c1e8 bb3e 76fd 95be
000001d0: b7cf 15bd 514f 96be cd3e 0bbe 99a5 083e
000001e0: 8405 b2be 5b83 1b3c d04f 16be b0af b93e
000001f0: 5ae0 cbbe 3807 09be 0f2f 583e 13b1 9c3e

bias f4 [128]
0.0 0.0 0.0 0.0 0.0 0.0 0.0 0.0
0.0 0.0 0.0 0.0 0.0 0.0 0.0 0.0
0.0 0.0 0.0 0.0 0.0 0.0 0.0 0.0
0.0 0.0 0.0 0.0 0.0 0.0 0.0 0.0
0.0 0.0 0.0 0.0 0.0 0.0 0.0 0.0
0.0 0.0 0.0 0.0 0.0 0.0 0.0 0.0
0.0 0.0 0.0 0.0 0.0 0.0 0.0 0.0
0.0 0.0 0.0 0.0 0.0 0.0 0.0 0.0
0.0 0.0 0.0 0.0 0.0 0.0 0.0 0.0
0.0 0.0 0.0 0.0 0.0 0.0 0.0 0.0
0.0 0.0 0.0 0.0 0.0 0.0 0.0 0.0
0.0 0.0 0.0 0.0 0.0 0.0 0.0 0.0
0.0 0.0 0.0 0.0 0.0 0.0 0.0 0.0
0.0 0.0 0.0 0.0 0.0 0.0 0.0 0.0
0.0 0.0 0.0 0.0 0.0 0.0 0.0 0.0
0.0 0.0 0.0 0.0 0.0 0.0 0.0 0.0
00000000: 0000 0000 0000 0000 0000 0000 0000 0000
00000010: 0000 0000 0000 0000 0000 0000 0000 0000
00000020: 0000 0000 0000 0000 0000 0000 0000 0000
00000030: 0000 0000 0000 0000 0000 0000 0000 0000
00000040: 0000 0000 0000 0000 0000 0000 0000 0000
00000050: 0000 0000 0000 0000 0000 0000 0000 0000
00000060: 0000 0000 0000 0000 0000 0000 0000 0000
00000070: 0000 0000 0000 0000 0000 0000 0000 0000
00000080: 0000 0000 0000 0000 0000 0000 0000 0000
00000090: 0000 0000 0000 0000 0000 0000 0000 0000
000000a0: 0000 0000 0000 0000 0000 0000 0000 0000
000000b0: 0000 0000 0000 0000 0000 0000 0000 0000
000000c0: 0000 0000 0000 0000 0000 0000 0000 0000
000000d0: 0000 0000 0000 0000 0000 0000 0000 0000
000000e0: 0000 0000 0000 0000 0000 0000 0000 0000
000000f0: 0000 0000 0000 0000 0000 0000 0000 0000
00000100: 0000 0000 0000 0000 0000 0000 0000 0000
00000110: 0000 0000 0000 0000 0000 0000 0000 0000
00000120: 0000 0000 0000 0000 0000 0000 0000 0000
00000130: 0000 0000 0000 0000 0000 0000 0000 0000
00000140: 0000 0000 0000 0000 0000 0000 0000 0000
00000150: 0000 0000 0000 0000 0000 0000 0000 0000
00000160: 0000 0000 0000 0000 0000 0000 0000 0000
00000170: 0000 0000 0000 0000 0000 0000 0000 0000
00000180: 0000 0000 0000 0000 0000 0000 0000 0000
00000190: 0000 0000 0000 0000 0000 0000 0000 0000
000001a0: 0000 0000 0000 0000 0000 0000 0000 0000
000001b0: 0000 0000 0000 0000 0000 0000 0000 0000
000001c0: 0000 0000 0000 0000 0000 0000 0000 0000
000001d0: 0000 0000 0000 0000 0000 0000 0000 0000
000001e0: 0000 0000 0000 0000 0000 0000 0000 0000
000001f0: 0000 0000 0000 0000 0000 0000 0000 0000

weight f4 [128, 2]
-0.14235844 0.06575059 -0.016223308 0.046766825 -0.12982687 0.06307964 -0.17716882 -0.003995957
0.15596119 0.0861076 0.15867585 -0.007511465 -0.05024282 -0.17920323 -0.05611534 -0.20840232
-0.06884298 -0.101121984 0.20859158 0.049772345 -0.18110776 -0.16154927 0.11967116 -0.19492319
-0.19723034 0.042437848 -0.06844071 -0.089173004 0.06953589 0.12758304 0.07368992 0.16941415
-0.016156146 0.20822246 -0.041796733 -0.082349546 0.16255559 0.1418752 0.11385007 -0.21428126
-0.110949755 0.026119191 -0.088142425 -0.17055413 0.1334744 0.007836894 -0.007552774 -0.044287574
-0.19572933 0.12244388 0.15847458 0.08177286 -0.01352875 -0.0026014394 0.1943018 0.11729247
0.09962738 -0.09212345 0.09918474 -0.039272826 -0.0063624093 0.058163803 -0.025719441 0.14216642
-0.12686193 0.17543697 -0.17572188 0.016060324 0.19562602 -0.041306846 0.16568425 -0.14196433
0.18321475 0.0407667 -0.20606953 0.025412245 -0.15347613 -0.025862973 -0.14189075 -0.11852914
0.076479316 -0.016554257 0.16418023 0.19236113 0.19775611 -0.1119456 -0.10109443 -0.20705104
-0.19717734 -0.06309416 0.18146306 0.18882151 -0.103499465 -0.0120264 -0.15801527 -0.018658524
0.05737447 -0.079579234 -0.087241106 0.17077503 0.18089989 -0.17358616 0.08786969 0.12597394
-0.18076617 -0.030018687 0.11835781 0.15716791 -0.20406371 0.057744794 -0.13258944 0.15923776
0.109075546 -0.16664945 -0.082625024 -0.11728874 -0.20977055 0.044260528 -0.078005806 -0.098968916
-0.1731054 -0.15972266 0.08941409 -0.07208361 0.07270314 -0.08519392 -0.07442773 0.16124213
0.16430572 0.2138876 -0.0794389 -0.20984468 0.02846773 -0.17526026 0.14074458 -0.1454619
-0.021719502 -0.15543625 0.021483656 -0.03543741 0.040732432 -0.15332957 0.008324412 -0.12749884
-0.1747142 0.09284046 -0.09016095 0.031740133 -0.001864901 -0.084964916 0.028634401 0.20065732
0.0001901306 0.029972307 -0.06985508 -0.1762316 0.16165625 0.00403564 -0.067790866 -0.1727467
0.1526225 -0.11812272 0.098074175 0.19250928 -0.20583497 0.04891558 0.020959722 0.10299119
-0.1166279 0.14790818 -0.12087305 0.006998133 0.016592044 -0.11963407 0.11705325 0.016730033
0.14031328 0.14168482 -0.115726285 0.13278097 -0.17954147 -0.052957363 0.13427418 -0.13566417
0.053152133 0.07824881 0.18360564 -0.010444531 0.06748187 -0.14663525 -0.08650197 0.13172683
0.022206916 0.21244241 -0.13621214 0.19460602 -0.16640186 0.026678186 0.15188661 -0.0750455
-0.03995091 0.15039046 -0.0015115306 0.05525845 0.09751326 0.13983952 0.024451707 -0.0070397877
-0.02860555 -0.05615738 -0.008647869 0.16311671 0.14057024 0.006205751 0.13908699 0.07216176
0.14083609 0.07318358 -0.049842156 -0.104416616 0.012630573 -0.18473 0.042269256 -0.047733344
-0.13624269 -0.18366702 -0.01036619 0.1435054 0.053009406 -0.14126785 0.1323651 0.00057948346
-0.19868101 -0.056256417 -0.053493015 -0.078399085 0.16170664 -0.039646097 -0.20377775 0.16658548
0.15112023 0.18395309 0.020959953 -0.0001818969 -0.13394791 0.076108426 -0.05438021 -0.17211013
-0.11203888 0.10512645 -0.09903758 0.16253905 -0.17341946 -0.20135187 0.11286531 -0.14559408
00000000: 69c6 11be 3fa8 863d bee6 84bc 928e 3f3d
00000010: 56f1 04be e62f 813d be6b 35be 84f0 82bb
00000020: 4ab4 1f3e 2e59 b03d ec7b 223e bc22 f6bb
00000030: 6acb 4dbd 0d81 37be 33d9 65bd 6b67 55be
00000040: 8cfd 8cbd 0b19 cfbd 0899 553e 16de 4b3d
00000050: 5074 39be 2c6d 25be 2716 f53d f299 47be
00000060: c0f6 49be 4fd3 2d3d a52a 8cbd 56a0 b6bd
00000070: d568 8e3d 21a5 023e beea 963d e77a 2d3e
00000080: e559 84bc 4538 553e 0d33 2bbd e1a6 a8bd
00000090: f974 263e bc47 113e 3a2a e93d 8c6c 5bbe
000000a0: a039 e3bd eaf7 d53c 0484 b4bd bea5 2ebe
000000b0: 83ad 083e 5166 003c 437d f7bb e366 35bd
000000c0: 456d 48be dbc3 fa3d 2947 223e 8778 a73d
000000d0: b1a7 5dbc e97c 2abb 0df7 463e 0937 f03d
000000e0: 7109 cc3d 38ab bcbd 5e21 cb3d 8bdc 20bd
000000f0: c27b d0bb 2b3d 6e3d 94b1 d2bc 1394 113e
00000100: 18e8 01be c0a5 333e 70f0 33be f190 833c
00000110: 3052 483e 5e31 29bd 22a9 293e 195f 11be
00000120: a69c 3b3e fcfa 263d e403 53be 572d d03c
00000130: d928 1dbe 96de d3bc cf4b 11be 68bf f2bd
00000140: 30a1 9c3d cb9c 87bc dd1e 283e 51fa 443e
00000150: 9480 4a3e bc43 e5bd 990a cfbd 3005 54be
00000160: dbe8 49be 8337 81bd 74d1 393e 6d5a 413e
00000170: 87f7 d3bd 610a 45bc c1ce 21be c3d9 98bc
00000180: 7e01 6b3d 70fa a2bd 77ab b2bd a6df 2e3e
00000190: d23d 393e 92c0 31be 06f5 b33d 50ff 003e
000001a0: c41a 39be c0e9 f5bc 9465 f23d a0f0 203e
000001b0: 14f6 50be ce85 6c3d 87c5 07be 390f 233e
000001c0: 0063 df3d 27a6 2abe 4f37 a9bd 1435 f0bd
000001d0: 17ce 56be 874a 353d 82c1 9fbd 37b0 cabd
000001e0: 8b42 31be 568e 23be bc1e b73d 92a0 93bd
000001f0: 62e5 943d 267a aebd 916d 98bd a81c 253e
00000200: c23f 283e 5a05 5b3e ddb0 a2bd 86e1 56be
00000210: 2835 e93c 6d77 33be 591f 103e f7f3 14be
00000220: 19ed b1bc ae2a 1fbe 7efe af3c d126 11bd
00000230: 0dd7 263d 6d02 1dbe 1d63 083c 0e8f 02be
00000240: 47e8 32be 2423 be3d 4ea6 b8bd f101 023d
00000250: b26f f4ba 1602 aebd b192 ea3c 1d79 4d3e
00000260: cb5d 4739 7c88 f53c 2e10 8fbd 0e76 34be
00000270: 3789 253e 673d 843b f0d5 8abd 83e4 30be
00000280: 1349 1c3e 53ea f1bd 1ddb c83d 2721 453e
00000290: 67c6 52be b45b 483d b9b3 ab3c 0ced d23d
000002a0: 9cda eebd 3e75 173e 4a8c f7bd 9850 e53b
000002b0: 0aec 873c b502 f5bd 9db9 ef3d 6c0d 893c
000002c0: 49ae 0f3e d315 113e e701 edbd bcf7 073e
000002d0: b8d9 37be d2e9 58bd 2c7f 093e 8ceb 0abe
000002e0: 0db6 593d e940 a03d 1e03 3c3e 8a1f 2bbc
000002f0: ef33 8a3d 8d27 16be f227 b1bd 66e3 063e
00000300: 47eb b53c 818a 593e 327b 0bbe cd46 473e
00000310: 4065 2abe 368c da3c 2a88 1b3e 75b1 99bd
00000320: 91a3 23bd f5ff 193e 8d1e c6ba af56 623d
00000330: 08b5 c73d 1732 0f3e f24e c83c 05ae e6bb
00000340: 3056 eabc 4805 66bd cbaf 0dbc 1108 273e
00000350: a5f1 0f3e 9d59 cb3b d26c 0e3e 8bc9 933d
00000360: 5637 103e 46e1 953d 4a27 4cbd 61d8 d5bd
00000370: 76f0 4e3c dc29 3dbe 8722 2d3d 0a84 43bd
00000380: 3483 0bbe 3513 3cbe f4d6 29bc 14f3 123e
00000390: 6420 593d 85a8 10be b78a 073e 7ae8 173a
000003a0: 0973 4bbe 216d 66bd 7e1b 5bbd b38f a0bd
000003b0: 6d96 253e f263 22bd 1dab 50be 6295 2a3e
000003c0: 43bf 1a3e 335e 3c3e 35b4 ab3c 94bb 3eb9
000003d0: a429 09be bcde 9b3d c8bd 5ebd a33d 30be
000003e0: a474 e5bd 894c d73d 37d4 cabd a370 263e
000003f0: df94 31be 2f2f 4ebe ed25 e73d 9d16 15be

weight f4 [128, 2]
0.030805409 0.18496384 0.09403546 -0.11363999 0.06228562 0.09486844 -0.21219595 -0.143197
0.053392895 0.10380577 -0.08591948 0.054482713 0.03081345 0.10077429 0.11390839 -0.082905576
0.1699282 -0.0006648296 0.15468164 0.16085492 -0.12514658 -0.15039116 -0.17013156 0.13556916
-0.020208444 -0.19988596 -0.14031105 0.1135837 -0.19240357 0.16911143 0.009938729 0.19099961
0.1115547 -0.13395321 -0.08003298 -0.11362257 0.07189907 -0.20847365 0.16790758 -0.040996294
0.20116648 -0.13861564 0.19115677 -0.046103597 0.061583646 0.09149728 0.09033667 0.08135585
-0.09109873 0.03080423 -0.026677022 -0.19295897 0.010604903 0.098821945 -0.077442676 0.04974612
0.03038914 0.125508 0.008409207 0.015481635 0.08674773 0.17719337 -0.070592605 0.15241921
0.060671918 0.06590215 0.20446621 0.124411 0.161064 -0.21282062 -0.07321699 0.02729191
0.046078242 -0.17623611 0.13240162 0.19273284 0.18260925 -0.122672215 -0.21274751 -0.19849798
-0.1485638 -0.10484285 0.16161984 0.2125841 -0.018977154 0.054717455 -0.018517347 -0.1553501
0.10555619 -0.20762958 -0.12379628 -0.19203103 0.0064095063 0.07695887 0.09688084 0.08361513
-0.19818497 0.17910339 0.047099683 -0.1476339 -0.119767234 -0.040203184 -0.016614838 0.14708503
-0.18387973 -0.08905028 0.17896712 0.13419354 -0.118600525 0.023130115 -0.09351034 0.100511655
-0.077183716 -0.069418065 0.08763822 -0.13186891 -0.1524309 0.016533576 0.02800659 0.07060176
0.11342753 -0.13671163 -0.05495339 0.03245105 0.16407669 -0.021182377 0.19934033 0.047657166
0.04524089 -0.15458304 0.13929845 0.12441776 0.13744467 0.06658013 0.036583085 -0.21149349
-0.0016481101 0.20756906 0.09680872 -0.159237 -0.16233678 -0.17089438 -0.10172049 0.10401509
-0.037751183 0.064607784 0.19718716 0.17994301 0.18102343 -0.18080404 0.10818605 0.055121943
-0.13422409 0.16182448 0.15948029 0.20862287 -0.16630422 0.08282221 0.12727955 0.16595869
-0.14948787 0.1266572 0.21258117 -0.2126901 -0.13786492 -0.11488106 -0.18749157 -0.10529582
0.19581057 -0.017804692 -0.08547232 -0.030597812 -0.093282185 0.13469483 0.16275305 0.0718624
-0.20707299 -0.06019402 0.08665492 0.013533053 0.027647432 0.113569714 -0.16009156 0.15195332
0.14922525 0.14195615 0.062323064 0.06505353 -0.1043777 0.1384641 -0.07569056 -0.07080657
0.18767932 0.21311784 0.1712746 -0.04724004 -0.03667595 -0.035729915 0.10081396 -0.1911026
0.10203651 -0.062847495 -0.071647495 -0.19588609 0.025339667 -0.0070426944 -0.15991288 -0.17841311
0.0952499 -0.15754963 0.0035367007 -0.14687937 -0.066458635 0.12573068 0.110793486 0.03923439
-0.138659 -0.118325904 -0.20401418 -0.16523369 -0.022683818 0.08934986 -0.06135981 0.1962681
0.12341446 -0.18130091 -0.08472284 0.13865182 -0.06420286 -0.0056841215 -0.16177526 0.06597959
-0.009270442 -0.10516151 -0.092652366 0.16780798 -0.03646163 -0.20148496 -0.15912956 -0.13771942
-0.12581685 -0.13902447 -0.09225378 0.10483162 -0.05908722 0.011557912 0.16276947 -0.06674268
0.088536605 -0.050957985 0.020797404 -0.1306524 -0.16264066 0.07707432 0.14662704 0.02899676
00000000: a05b fc3c 2967 3d3e aa95 c03d 15bc e8bd
00000010: 351f 7f3d 624a c23d e549 59be 3ca2 12be
00000020: 82b2 5a3d 1f98 d43d 8df6 afbd 4429 5f3d
00000030: 7d6c fc3c c062 ce3d cd48 e93d 66ca a9bd
00000040: a801 2e3e f647 2eba dd64 1e3e 27b7 243e
00000050: 6d26 00be 2400 1abe f836 2ebe a4d2 0a3e
00000060: 2e8c a5bc e8ae 4cbe b3ad 0fbe 929e e83d
00000070: 7105 45be 8c2b 2d3e 0dd6 223c 6795 433e
00000080: ca76 e43d 082b 09be 55e8 a3bd f3b2 e8bd
00000090: d23f 933d 1e7a 55be f7ef 2b3e bbeb 27bd
000000a0: 96fe 4d3e 42f1 0dbe 9abe 433e 20d7 3cbd
000000b0: 223f 7c3d ed62 bb3d 6f02 b93d e59d a63d
000000c0: f991 babd 2759 fc3c c589 dabc 0997 45be
000000d0: 30c0 2d3c 2963 ca3d 449a 9ebd 96c2 4b3d
000000e0: a5f2 f83c 2b85 003e c5c6 093c afa6 7d3c
000000f0: cba8 b13d 2e72 353e db92 90bd c813 1c3e
00000100: 1e83 783d b5f7 863d 975f 513e 32cb fe3d
00000110: f6ed 243e a6ed 59be caf2 95bd 4993 df3c
00000120: 8abc 3c3d 3d77 34be 4a94 073e c25b 453e
00000130: ebfd 3a3e 923b fbbd 7cda 59be 0e43 4bbe
00000140: 1c21 18be d9b7 d6bd ac7f 253e a5af 593e
00000150: fa75 9bbc 691f 603d b1b1 97bc 1914 1fbe
00000160: d82d d83d d99c 54be e788 fdbd c8a3 44be
00000170: d606 d23b 9d9c 9d3d 7669 c63d 693e ab3d
00000180: 00f1 4abe e166 373e 99eb 403d 572d 17be
00000190: 8648 f5bd 18ac 24bd d71b 88bc 759d 163e
000001a0: f84a 3cbe fe5f b6bd 2843 373e 086a 093e
000001b0: d5e4 f2bd 5e7b bd3c 5982 bfbd 0ed9 cd3d
000001c0: 7f12 9ebd 0f2b 8ebd ab7b b33d a508 07be
000001d0: d916 1cbe 6c71 873c 146e e53c a897 903d
000001e0: b14c e83d 22fe 0bbe ce16 61bd 64eb 043d
000001f0: b803 283e aa86 adbc df1f 4c3e 2934 433d
00000200: 834e 393d 044b 1ebe 41a4 0e3e bdce fe3d
00000210: 4cbe 0c3e 2a5b 883d 25d8 153d c091 58be
00000220: 6605 d8ba fc8c 543e a643 c63d 060f 23be
00000230: 9d3b 26be f0fe 2ebe d552 d0bd dd05 d53d
00000240: fca0 1abd 1651 843d 6eeb 493e fb42 383e
00000250: 355e 393e b224 39be a690 dd3d 8cc7 613d
00000260: 0a72 09be 51b5 253e cd4e 233e 3ca1 553e
00000270: a74b 2abe b19e a93d 9255 023e 13f1 293e
00000280: 5913 19be 6db2 013e e1ae 593e 6fcb 59be
00000290: 762c 0dbe c346 ebbd cafd 3fbe 56a5 d7bd
000002a0: 9182 483e 25db 91bc 1d0c afbd 43a8 fabc
000002b0: bb0a bfbd 71ed 093e bca8 263e 982c 933d
000002c0: f10a 54be 018e 76bd 2278 b13d bdb9 5d3c
000002d0: de7c e23c 3d97 e83d 0bef 23be a799 1b3e
000002e0: 81ce 183e f45c 113e 7846 7f3d c93a 853d
000002f0: fac3 d5bd 88c9 0d3e a703 9bbd 0903 91bd
00000300: 022f 403e 903b 5a3e 9c62 2f3e c67e 41bd
00000310: 8539 16bd 8859 12bd 8d77 ce3d 66b0 43be
00000320: 85f8 d03d 30b6 80bd ecbb 92bd 5d96 48be
00000330: 2295 cf3c 67c6 e6bb 34c0 23be edb1 36be
00000340: 6112 c33d b154 21be fec7 673b 8c67 16be
00000350: 771b 88bd 8bbf 003e b2e7 e23d 3db4 203d
00000360: a0fc 0dbe da54 f2bd 18e9 50be 0533 29be
00000370: 6ad3 b9bc 0ffd b63d 6d54 7bbd 81fa 483e
00000380: b8c0 fc3d f2a6 39be 2b83 adbd befa 0d3e
00000390: ca7c 83bd de41 babb 6aa8 25be 4f20 873d
000003a0: 0de3 17bc eb5e d7bd 86c0 bdbd dbd5 2b3e
000003b0: ca58 15bd 1352 4ebe dcf2 22be 5206 0dbe
000003c0: 22d6 00be 6e5c 0ebe 8def bcbd f6b1 d63d
000003d0: 7105 72bd 665d 3d3c 0aad 263e 63b0 88bd
000003e0: ae52 b53d 52b9 50bd 515f aa3c bec9 05be
000003f0: 468b 26be 24d9 9d3d 6625 163e 9d8a ed3c

att_src f4 [1, 4, 32]
-1.1611445e-07 -0.0008510619 0.00014049986 -6.5489905e-07 0.0319405 -0.01644114 -3.6154465e-06 -8.950461e-05
0.0017082145 0.0064458833 -9.2084024e-10 -0.0004927238 -0.00013891642 -0.07276463 3.8494032e-05 0.00021839341
0.00050699455 1.6790214e-05 -1.8542757e-07 0.007000745 0.00012799854 -0.0021538911 0.0043891105 0.0018029509
-0.00010204897 -0.0004859342 0.013849648 -0.001274979 0.026691375 -0.00015954123 0.0002914528 -0.00012971013
0.11153554 -0.012623125 0.0027861758 0.013452036 -0.03960971 -0.0057221004 -0.053377505 0.0046987515
-0.019106876 0.009003293 -0.0014156632 -0.0004515297 0.0384498 -0.000249972 3.970887e-10 -0.10375406
-0.00017794114 0.0065428684 0.00038230233 0.11229202 -0.039472748 -0.06433007 -0.13482629 8.644268e-05
0.012060722 0.06558642 0.06868453 -0.031475935 -0.00073351996 -0.00039751834 0.0019167998 -0.0005212757
-0.09000269 0.029678626 -0.015216452 -0.0009259388 9.871363e-05 -0.13028164 0.04919324 0.043734208
0.00033789244 -0.0004817511 0.00012185506 -0.0554555 0.06881331 0.001878148 -0.11671426 0.054056674
0.0798459 -0.00022961978 6.472206e-05 0.00013396735 0.107139684 -0.0006451177 -0.02907546 0.000691077
0.0075327824 -0.00038754853 -0.009391803 -0.009109884 0.11157231 -0.00146204 0.0016004167 0.02090345
0.0027586543 0.011839802 0.00041335492 0.012150013 -0.00045813643 0.0016367417 0.00022680916 0.006314401
-0.04384058 0.00012808382 -0.003158977 0.0071530496 0.00042265092 -0.044681523 -0.04534967 0.008487679
0.0031832014 0.0068568913 0.01196136 -0.00036680305 0.00012942328 0.025430406 0.00039911643 0.0036467211
0.007890356 0.0001269783 -0.0006427519 0.00039479087 -0.003525928 0.00039300506 9.859446e-05 0.00628582
00000000: 985a f9b3 cc19 5fba 2553 1339 52cc 2fb5
00000010: 0bd4 023d 92af 86bc e6a0 72b6 6cb4 bbb8
00000020: 2be6 df3a fd37 d33b 5f1e 7db0 222a 01ba
00000030: 18aa 11b9 9f05 95bd a774 2138 8900 6539
00000040: d4e7 043a b6d8 8c37 f119 47b4 8166 e53b
00000050: 5937 0639 4c28 0dbb 87d2 8f3b fe50 ec3a
00000060: 2003 d6b8 fcc4 feb9 a2e9 623c 321d a7ba
00000070: dfa7 da3c 864a 27b9 22ce 9839 cc02 08b9
00000080: bf6c e43d 39d1 4ebc 4698 363b ee65 5c3c
00000090: cb3d 22bd 7580 bbbb 5fa2 5abd fcf7 993b
000000a0: 0686 9cbc 8c82 133c c68d b9ba 4abb ecb9
000000b0: 8a7d 1d3d ad0e 83b9 444d da2f 027d d4bd
000000c0: b695 3ab9 8f65 d63b c06f c839 5cf9 e53d
000000d0: 2dae 21bd 7cbf 83bd e70f 0abe 8f48 b538
000000e0: 569a 453c 2c52 863d 7aaa 8c3d e9ec 00bd
000000f0: b149 40ba 026a d0b9 213d fb3a 38a6 08ba
00000100: 5553 b8bd 9720 f33c 6d4e 79bc b3ba 72ba
00000110: 7a04 cf38 8d68 05be da7e 493d a422 333d
00000120: 2827 b139 8a93 fcb9 708c ff38 4e25 63bd
00000130: feed 8c3d 302c f63a e307 efbd 886a 5d3d
00000140: 3f86 a33d 17c6 70b9 64bb 8738 9679 0c39
00000150: 0d6c db3d 1e1d 29ba a92f eebc 6429 353a
00000160: 8fd5 f63b e22f cbb9 14e0 19bc 9f41 15bc
00000170: 0680 e43d eca1 bfba 13c5 d13a b63d ab3c
00000180: 8aca 343b bbfb 413c 8fb7 d839 d910 473c
00000190: 0832 f0b9 f087 d63a 9fd3 6d39 09e9 ce3b
000001a0: 2e92 33bd 3d4e 0639 d706 4fbb 2164 ea3b
000001b0: 3f97 dd39 f903 37bd 93c0 39bd e80f 0b3c
000001c0: 429d 503b c6af e03b 95f9 433c 794f c0b9
000001d0: ccb5 0739 6d53 d03c 8040 d139 d4fd 6e3b
000001e0: 8d46 013c 7a25 0539 5a7e 28ba effb ce39
000001f0: 4113 67bb 3f0c ce39 7fc4 ce38 48f9 cd3b

att_dst f4 [1, 4, 32]
5.14e-43 4.95e-43 1.876e-42 -4.85e-43 -4.99e-43 4.96e-43 -2.798e-42 2.48e-43
4.97e-43 4.95e-43 3.94e-43 4.95e-43 5.04e-43 6.18e-43 4.95e-43 -2.83e-43
-4.95e-43 1.2e-42 2.926e-42 -5.04e-43 5.32e-43 -4.93e-43 1.843e-42 -5.94e-43
-4.95e-43 5.16e-43 -4.92e-43 4.96e-43 -4.95e-43 -5.5e-43 4.128e-42 -4.93e-43
-2.821e-42 -4.92e-43 9.81e-43 4.96e-43 -4.92e-43 5.82e-43 4.97e-43 -4.96e-43
4.93e-43 -4.95e-43 -4.92e-43 -5.13e-43 -4.92e-43 4.93e-43 -4.114e-42 -4.92e-43
2.964e-42 5.5e-43 4.92e-43 4.92e-43 5e-43 -4.93e-43 -4.95e-43 4.99e-43
4.93e-43 5.02e-43 4.92e-43 -4.96e-43 4.92e-43 4.95e-43 -4.12e-43 -4.95e-43
4.93e-43 -6.12e-43 4.93e-43 4.95e-43 -5.98e-43 1.073e-42 5.34e-43 5.52e-43
4.97e-43 4.92e-43 6.15e-43 -5.37e-43 1.32e-43 -5.66e-43 -5.04e-43 5.06e-43
5.24e-43 -4.95e-43 5.24e-43 6.11e-43 -5.06e-43 -3.095e-42 4.95e-43 -5e-43
-4.92e-43 4.95e-43 -5.27e-43 4.96e-43 -4.95e-43 -4.96e-43 -5.11e-43 -4.37e-43
-5.5e-43 -2.14e-43 -4.97e-43 5.58e-43 -1.08e-43 -2.522e-42 -1.49e-42 5.28e-43
4.93e-43 4.93e-43 -5.56e-43 5.56e-43 5.07e-43 -4.93e-43 -4.93e-43 -4.92e-43
-6.05e-43 4.93e-43 -4.93e-43 1.99e-43 -6.6e-44 -4.92e-43 -4.95e-43 -5.02e-43
4.95e-43 4.93e-43 -1.673e-42 -4.95e-43 -4.95e-43 4.93e-43 -4.92e-43 4.95e-43
00000000: 6f01 0000 6101 0000 3b05 0000 5a01 0080
00000010: 6401 0080 6201 0000 cd07 0080 b100 0000
00000020: 6301 0000 6101 0000 1901 0000 6101 0000
00000030: 6801 0000 b901 0000 6101 0000 ca00 0080
00000040: 6101 0080 5803 0000 2808 0000 6801 0080
00000050: 7c01 0000 6001 0080 2305 0000 a801 0080
00000060: 6101 0080 7001 0000 5f01 0080 6201 0000
00000070: 6101 0080 8801 0080 820b 0000 6001 0080
00000080: dd07 0080 5f01 0080 bc02 0000 6201 0000
00000090: 5f01 0080 9f01 0000 6301 0000 6201 0080
000000a0: 6001 0000 6101 0080 5f01 0080 6e01 0080
000000b0: 5f01 0080 6001 0000 780b 0080 5f01 0080
000000c0: 4308 0000 8801 0000 5f01 0000 5f01 0000
000000d0: 6501 0000 6001 0080 6101 0080 6401 0000
000000e0: 6001 0000 6601 0000 5f01 0000 6201 0080
000000f0: 5f01 0000 6101 0000 2601 0080 6101 0080
00000100: 6001 0000 b501 0080 6001 0000 6101 0000
00000110: ab01 0080 fe02 0000 7d01 0000 8a01 0000
00000120: 6301 0000 5f01 0000 b701 0000 7f01 0080
00000130: 5e00 0000 9401 0080 6801 0080 6901 0000
00000140: 7601 0000 6101 0080 7601 0000 b401 0000
00000150: 6901 0080 a108 0080 6101 0000 6501 0080
00000160: 5f01 0080 6101 0000 7801 0080 6201 0000
00000170: 6101 0080 6201 0080 6d01 0080 3801 0080
00000180: 8801 0080 9900 0080 6301 0080 8e01 0000
00000190: 4d00 0080 0807 0080 2704 0080 7901 0000
000001a0: 6001 0000 6001 0000 8d01 0080 8d01 0000
000001b0: 6a01 0000 6001 0080 6001 0080 5f01 0080
000001c0: b001 0080 6001 0000 6001 0080 8e00 0000
000001d0: 2f00 0080 5f01 0080 6101 0080 6601 0080
000001e0: 6101 0000 6001 0000 aa04 0080 6101 0080
000001f0: 6101 0080 6001 0000 5f01 0080 6101 0000

bias f4 [128]
0.0053624553 -2.7428088e-05 -0.00025106882 -3.2297029e-21 0.019719558 -0.00010473458 0.016726125 -4.693394e-05
2.0555226e-05 4.0851346e-06 -3.119922e-25 0.016837966 0.018699998 1.2922208e-06 0.018807143 -0.00015409038
-0.00013714939 0.007422373 -2.706e-42 0.018668704 -7.01065e-05 4.8804195e-06 -2.4323826e-05 2.134736e-05
0.017828811 0.011689997 0.019572517 0.014741912 0.018608076 -2.6534528e-05 -0.000109208915 -1.4409891e-06
0.055352014 0.00080523704 0.019730244 -0.00373174 -1.5900594e-05 -8.4883286e-05 -0.00013366067 6.576508e-07
-0.0001302661 -1.0056832e-10 0.011187353 0.007850414 0.0043416233 0.008580129 2.6359945e-08 -3.6299207e-05
0.020025311 -8.7529195e-05 0.00089205464 -0.0011507923 -4.1828898e-07 -5.4608026e-05 0.060299605 0.017919729
-9.499089e-06 -0.00054517295 1.0264068e-05 0.016524944 0.020141253 0.020258272 -0.00024623345 0.020454884
-3.4543253e-05 0.013759286 -2.7862131e-06 0.025477527 1.46561e-05 -1.0026552e-06 0.019250015 1.8326834e-06
-0.00020153052 -1.7277831e-05 -5.001763e-05 1.1059441e-05 0.012668729 4.8722704e-06 0.010977192 0.008933983
-2.8694225e-05 -6.216766e-07 -1.3410832e-05 0.020817397 0.01579657 -0.0003331804 -3.1103507e-05 -8.623784e-05
-0.00018285633 -3.45189e-05 -1.9873596e-08 0.018591333 -9.477115e-05 -4.7995916e-05 -0.00013737167 0.014937154
-9.0905354e-07 -4.2633965e-05 -7.1434656e-06 1.156524e-05 0.020063743 2.084446e-06 1.2859839e-05 1.119307e-05
0.0 -5.3080576e-06 4.219455e-06 -1.8898523e-05 -1.266109e-05 0.0113140475 0.02780682 -5.1161118e-05
-2.3435961e-05 0.005568246 0.00017357878 0.019648336 -1.5587422e-05 1.4594331e-05 -9.572137e-06 3.9671282e-05
-2.0143558e-05 3.798866e-07 0.013244824 -1.5230139e-05 -0.00022996817 -4.5910174e-06 2.1126125e-05 0.00013592975
00000000: 89b7 af3b 5f15 e6b7 e3a1 83b9 8a07 749d
00000010: e98a a13c f3a4 dbb8 3a05 893c efda 44b8
00000020: 036e ac37 0a13 8936 231d c196 c6ef 893c
00000030: bd30 993c 5e70 ad35 7011 9a3c 5293 21b9
00000040: c2cf 0fb9 6137 f33b 8b07 0080 1cef 983c
00000050: 2406 93b8 7cc2 a336 050b ccb7 1b13 b337
00000060: ba0d 923c 6787 3f3c 8b56 a03c 0f88 713c
00000070: f76f 983c 7796 deb7 1707 e5b8 0268 c1b5
00000080: cbb8 623d 8b16 533a 52a1 a13c 3590 74bb
00000090: 4462 85b7 5e03 b2b8 4327 0cb9 6b89 3035
000000a0: 0a98 08b9 ee26 ddae 294b 373c 069f 003c
000000b0: 2d44 8e3b ab93 0c3c 226e e232 fa3f 18b8
000000c0: 1f0c a43c e18f b7b8 c6d8 693a 2fd6 96ba
000000d0: 3391 e0b4 ec0a 65b8 b8fc 763d 65cc 923c
000000e0: 475e 1fb7 f0e9 0eba d633 2c37 525f 873c
000000f0: 45ff a43c adf4 a53c e518 81b9 0091 a73c
00000100: 89e2 10b8 a16e 613c c7fa 3ab6 3fb6 d03c
00000110: 78e3 7537 f892 86b5 35b2 9d3c 86fa f535
00000120: f051 53b9 dcef 90b7 05ca 51b8 f08b 3937
00000130: 8090 4f3c 7c7c a336 aed9 333c d75f 123c
00000140: 61b4 f0b7 4ae1 26b5 16ff 60b7 3f89 aa3c
00000150: cf67 813c b7ae aeb9 2375 02b8 96da b4b8
00000160: 1fbd 3fb9 63c8 10b8 80b6 aab2 da4c 983c
00000170: e0bf c6b8 394f 49b8 6d0b 10b9 f7ba 743c
00000180: af05 74b5 dfd1 32b8 e7b1 efb6 5408 4237
00000190: b85c a43c 82e2 0b36 97c0 5737 dfc9 3b37
000001a0: 0000 0000 de1b b2b6 d894 8d36 4588 9eb7
000001b0: f86a 54b7 8e5e 393c 21cb e33c d595 56b8
000001c0: 5898 c4b7 d575 b63b b302 3639 8cf5 a03c
000001d0: bcc1 82b7 2dda 7437 0498 20b7 b764 2638
000001e0: f6f9 a8b7 37f3 cb34 d100 593c f384 7fb7
000001f0: 9c23 71b9 8a0c 9ab6 0238 b137 5d88 0e39

weight f4 [128, 2]
-3.3091274e-05 -1.9541485e-08 0.002821783 0.0041840416 -0.00026998585 -0.00071725855 -4.135466e-05 -2.2214034e-07
-0.019872406 0.025541954 -0.00394495 0.018673316 -0.00015629329 -7.014844e-07 0.0011209254 0.0005534963
0.00084583095 -0.011489103 0.0017523589 -0.028641036 -1.7769299e-06 1.2502539e-09 -0.002384431 0.0024672393
-0.00071052765 0.0006696479 0.006122572 0.057704344 -0.00031688454 -0.00015007626 0.00029992338 -0.0011387864
0.00037167346 -0.0032841698 0.00029679618 0.00015154631 -4.462631e-05 -5.007418e-08 -0.00029294787 -0.002687829
0.00082811795 -0.0006272462 0.0026145028 -0.037421193 0.0018909234 -0.030379223 0.0016083466 -0.026072685
0.00031228788 0.00039066645 -0.00043063058 0.0028152599 -0.0003178356 -0.01217924 -0.0053542103 0.0062782
-4.9887094e-05 -0.024389649 0.0019654823 0.00096401357 0.00048413288 -0.0017898063 -0.00076894753 0.0006451384
0.00025921603 -0.097593464 -0.00023068042 0.013799592 -0.0049758023 0.005619191 0.00017281841 -0.050016165
0.0052366895 0.03932386 -0.0015129732 0.0054847174 -0.012919018 0.05302345 0.0007482208 -0.0043667657
-0.0046541733 0.018624553 -8.79159e-05 -0.009045077 -0.0012586559 0.0012088544 -0.00061164197 0.0003499222
0.0001197782 -0.038712297 -0.0002710095 0.00021868991 -2.2877387e-10 -4.4126314e-10 -0.019061431 0.09195713
-0.00033276438 0.00011670556 -0.00014942572 -0.0077738874 0.00031921675 -0.00039152455 0.00030094825 -0.10962649
-0.009433834 0.03663307 -0.015211317 0.05874344 -0.00027127296 0.12190272 -0.0003160314 -0.0001885768
-0.00010396973 -0.012084484 -8.2014274e-05 -0.062975086 0.008602872 -0.06371899 -0.024342442 0.030802209
-0.00072078477 0.00062596385 -0.00032356114 0.00038053794 -0.00031986312 -0.002383537 -0.00080035237 0.00036986254
-0.004883034 0.055116735 -2.5124134e-05 -0.038709603 0.0011970509 -0.018554742 -0.00024545923 0.014880051
0.0014978665 -0.00029423647 0.005271489 -0.051677708 -0.0077598314 0.029296314 0.0030664538 -0.029689768
0.00029124581 -0.000980463 -0.0005162577 0.0012332017 0.00090625434 -0.00025543742 0.009042796 0.07161152
-0.008335291 0.033248708 0.0012647884 -0.010886575 -0.0011890094 0.07991667 0.00043486722 -0.063268736
-0.008381209 0.080812216 -0.0012576716 0.00073798606 0.0011009193 -0.00020530481 -0.00031459038 -0.00031967397
-0.0003886114 -0.09267969 -0.00031934833 -0.007239903 0.0042974255 0.016791886 -0.0003526532 -0.0019696222
-0.0007978195 0.01669711 0.0014717327 0.00064572267 -0.006697988 0.023060681 -0.0073390356 0.009454561
-0.005675035 0.063219614 -0.0011737685 0.019947162 0.00047500705 -0.0062648263 -0.00016612864 -0.014143562
0.013677176 0.002259507 0.014572604 0.012990456 0.0042080125 0.0001492845 0.02441389 0.012641132
-0.00035906996 -0.0004085607 0.009906892 0.0012962231 0.0034220144 -0.0002993222 0.01802684 0.0067054117
-0.0016461604 -0.04301599 0.0036289936 -9.266058e-05 0.015329762 -0.003229418 0.02049802 0.007560315
0.0036184855 -3.9517025e-05 0.0010870034 -0.063041985 0.00049543084 -0.06119565 -0.020292116 0.0113279205
-0.02944085 0.0050470764 -0.10311587 0.015015252 -0.017340519 0.016275115 -0.00031910877 -0.00031753498
0.0037750376 -0.0003230978 0.027918192 0.025215302 0.003775658 -0.00010303953 0.014736803 0.0035262618
0.01885403 0.0084799435 0.003407302 -0.00015023444 -0.01805238 0.00017495234 0.004010181 -6.820281e-05
-0.0003411211 -0.0035261102 0.006881614 -4.215906e-06 0.0040061194 -0.00026487096 -0.053936236 0.013030206
00000000: 7ccb 0ab8 2edc a7b2 aaed 383b 491a 893b
00000010: e38c 8db9 6806 3cba 3a74 2db8 7985 6eb4
00000020: 75cb a2bc 5c3d d13c a444 81bb c8f8 983c
00000030: a9e2 23b9 a44d 3cb5 04ec 923a 8218 113a
00000040: c1ba 5d3a ca3c 3cbc 68af e53a 9ba0 eabc
00000050: d97e eeb5 66d5 ab30 1d44 1cbb 68b1 213b
00000060: b442 3aba 4f8b 2f3a db9f c83b 645b 6c3d
00000070: 8623 a6b9 ca5d 1db9 093f 9d39 5543 95ba
00000080: 2bdd c239 3a3b 57bb 4f9b 9b39 67e8 1e39
00000090: 232d 3bb8 2511 57b3 cc96 99b9 4a26 30bb
000000a0: 0e16 593a c86d 24ba 1458 2b3b f746 19bd
000000b0: dcd8 f73a d9dd f8bc 28cf d23a 6296 d5bc
000000c0: 92ba a339 5dd2 cc39 42c6 e1b9 3980 383b
000000d0: 2ca3 a6b9 6f8b 47bc 5f72 afbb 5cb9 cd3b
000000e0: dc3d 51b8 cdcc c7bc 52cf 003b dbb5 7c3a
000000f0: 37d3 fd39 ef97 eaba 3293 49ba 811e 293a
00000100: 63e7 8739 15df c7bd cee2 71b9 af17 623c
00000110: 0e0c a3bb 3121 b83b 9736 3539 c0dd 4cbd
00000120: 8998 ab3b 0e12 213d f54e c6ba 25b9 b33b
00000130: 4aaa 53bc 1e2f 593d 3f24 443a 1617 8fbb
00000140: 0982 98bb 8592 983c 7d5f b8b8 cd31 14bc
00000150: 7cf9 a4ba 6c72 9e3a 9956 20ba c375 b739
00000160: 6e31 fb38 c990 1ebd 4816 8eb9 2050 6539
00000170: 1f8a 7baf 4496 f2af b826 9cbc 0554 bc3d
00000180: e176 aeb9 d2bf f438 29af 1cb9 18bc febb
00000190: 8c5c a739 8945 cdb9 97c8 9d39 da83 e0bd
000001a0: 5e90 1abc 8f0c 163d e338 79bc f69c 703d
000001b0: a439 8eb9 22a8 f93d 04b1 a5b9 b3bc 45b9
000001c0: 530a dab8 00fe 45bc 14ff abb8 15f9 80bd
000001d0: 0ff3 0c3c 1a7f 82bd cd69 c7bc ea54 fc3c
000001e0: 0cf3 3cba b917 243a a4a3 a9b9 f082 c739
000001f0: 4db3 a7b9 1d35 1cbb bdce 51ba 1cea c139
00000200: dc01 a0bb 16c2 613d abc1 d2b7 f68d 1ebd
00000210: 5de6 9c3a 1d00 98bc fbb0 80b9 75cb 733c
00000220: 0f54 c43a c043 9ab9 74bc ac3b 01ac 53bd
00000230: 2f46 febb d3fe ef3c 8ff6 483b f537 f3bc
00000240: 5ab2 9839 e182 80ba 7855 07ba 62a3 a13a
00000250: b391 6d3a 3bec 85b9 3c28 143c 10a9 923d
00000260: bf90 08bc cc2f 083d 42c7 a53a 9b5d 32bc
00000270: 89d8 9bba 5aab a33d e4fe e339 0a93 81bd
00000280: 5751 09bc e080 a53d 75d8 a4ba 6875 413a
00000290: b94c 903a 1747 57b9 9bef a4b9 ea99 a7b9
000002a0: 8abe cbb9 d9ce bdbd 356e a7b9 b53c edbb
000002b0: 6bd1 8c3b 238f 893c 50e4 b8b9 c714 01bb
000002c0: c324 51ba 61c8 883c 28e7 c03a b745 293a
000002d0: cc7a dbbb c1e9 bc3c 4b7c f0bb 4ee7 1a3c
000002e0: a5f5 b9bb 4979 813d 23d9 99ba 3b68 a33c
000002f0: 5e0a f939 2c49 cdbb d132 2eb9 66ba 67bc
00000300: 3c16 603c 3d14 143b eec1 6e3c ecd5 543c
00000310: 5ee3 893b 4189 1c39 a3ff c73c c01c 4f3c
00000320: 8e41 bcb9 1734 d6b9 8450 223c 08e6 a93a
00000330: e043 603b 58ee 9cb9 06ad 933c 12b9 db3b
00000340: fac3 d7ba 8931 30bd 69d4 6d3b c552 c2b8
00000350: af29 7b3c a5a4 53bb 77eb a73c 85bc f73b
00000360: 1d24 6d3b 15bf 25b8 c879 8e3a 281c 81bd
00000370: cddf 013a 4aa8 7abd a73b a6bc be98 393c
00000380: f02d f1bc f261 a53b 6a2e d3bd 8802 763c
00000390: b40d 8ebc 6453 853c 0e4e a7b9 d37a a6b9
000003a0: 9f66 773b 7465 a9b9 b1b4 e43c 5290 ce3c
000003b0: 0871 773b ed16 d8b8 a272 713c db18 673b
000003c0: c473 9a3c 76ef 0a3c 0b4d 5f3b 4088 1db9
000003d0: 96e2 93bc 6973 3739 d667 833b 1b08 8fb8
000003e0: 80d8 b2b9 5016 67bb 2a7f e13b 5b76 8db6
000003f0: c445 833b 61de 8ab9 3eec 5cbd a57c 553c

weight f4 [128, 16]
5.14e-43 -5.02e-43 -5.09e-43 2.775e-42 -1.013e-42 5.52e-43 4.92e-43 4.079e-42
-2.75e-43 -4.013e-42 -4.95e-43 3.92e-43 2.913e-42 -5.98e-43 5.31e-43 1.494e-42
-1.697e-42 -9.44e-43 -5.72e-43 -9.92e-43 7.3e-43 4.92e-43 -1.735e-42 -5.66e-43
1.798e-42 4.95e-43 -5.94e-43 4.287e-42 5.7e-44 1.501e-42 -4.95e-43 6.17e-43
-6.01e-43 -4.09e-43 -4.92e-43 -5.14e-43 4.12e-43 5.23e-43 5.38e-43 5.31e-43
4.92e-43 -3.87e-43 5.41e-43 5.63e-43 4.16e-43 4.92e-43 4.99e-43 -5.1e-43
-5.87e-43 1.058e-42 -1.36e-43 4.92e-43 4.97e-43 1.767e-42 6.03e-43 5.06e-43
-4.95e-43 -4.92e-43 4.179e-42 9.81e-43 -4.92e-43 1.009e-42 -1.204e-42 -3.06e-42
-5.65e-43 -1.391e-42 5.59e-43 5.76e-43 5.83e-43 -5.34e-43 -5.27e-43 5.02e-43
4.93e-43 -4.96e-43 5.579e-42 -5e-43 6.96e-43 -1.439e-42 -4.92e-43 -5.96e-43
7.19e-43 1.006e-42 -5.91e-43 6.53e-43 5.25e-43 5.24e-43 -4e-42 5.54e-43
1.428e-42 -3.077e-42 5.62e-43 -1.704e-42 -4.93e-43 2.564e-42 5.24e-43 5e-43
-4.067e-42 5.2e-43 5.73e-43 -4.294e-42 6.01e-43 -5.75e-43 -4.92e-43 -5.57e-42
-2.772e-42 -5.84e-43 -6.26e-43 4.96e-43 -4.364e-42 -2.475e-42 -5.27e-43 4.96e-43
-5.62e-43 -5.17e-43 -5.68e-43 2.976e-42 6.15e-43 -4.97e-43 5.98e-43 4.96e-43
-5.44e-43 -2.479e-42 4.96e-43 4.92e-43 -1.013e-42 1.599e-42 -4.92e-43 4.004e-42
1.293e-42 3.062e-42 -3.71e-43 1.701e-42 1.11e-42 -1.85e-43 5.93e-43 -3.57e-43
-3.78e-43 -1.546e-42 6.17e-43 4.058e-42 1.704e-42 5.31e-43 5.616e-42 -4.236e-42
3.084e-42 -2.45e-43 -3.14e-43 1.69e-42 2.763e-42 5.27e-43 2.58e-43 -4.92e-43
-2.853e-42 -5.32e-43 9.2e-44 1.043e-42 -1.187e-42 -7.29e-43 -6.99e-43 -4.093e-42
-4.337e-42 6.07e-43 -1.015e-42 -4.67e-43 -1.805e-42 1.519e-42 -4.93e-43 -3.067e-42
1.1e-42 4.97e-43 4.93e-43 1.717e-42 4.181e-42 1.872e-42 9.23e-43 2.626e-42
-4.57e-43 -2.479e-42 -5.62e-42 -9.23e-43 -1.609e-42 5.84e-43 1.027e-42 -9.9e-43
2.518e-42 1.46e-43 1.25e-43 -6.04e-43 -1.075e-42 5.23e-43 7.33e-43 1.47e-42
5.4e-43 5.54e-43 5.87e-43 5.58e-43 -5.04e-43 5e-43 -4.93e-43 -2.511e-42
9.46e-43 5.66e-43 3.28e-43 -4.32e-43 3.093e-42 -1.045e-42 -1.871e-42 -4.93e-43
5.4e-43 4.15e-42 5.59e-43 5.44e-43 4.93e-43 -4.93e-43 -5.63e-43 3.044e-42
1.82e-43 -4.96e-43 -1.003e-42 2.494e-42 4.396e-42 4.96e-43 -1.365e-42 -5.03e-43
-1.802e-42 7.6e-44 -4.92e-43 -3.936e-42 3.988e-42 -2.888e-42 -3.02e-42 5.13e-43
2.89e-43 1.733e-42 -1.694e-42 -1.626e-42 -5.03e-43 -2.706e-42 -4.134e-42 -9.16e-43
5.17e-43 5.27e-43 -4.92e-43 4.92e-43 1.27e-42 1.504e-42 2.919e-42 -1.009e-42
4.95e-43 -5e-43 5.56e-43 9.78e-43 -4.92e-43 4.93e-43 -5.65e-43 -3.027e-42
00000000: 6f01 0000 6601 0080 6b01 0080 bc07 0000
00000010: d302 0080 8a01 0000 5f01 0000 5f0b 0000
00000020: c400 0080 300b 0080 6101 0080 1801 0000
00000030: 1f08 0000 ab01 0080 7b01 0000 2a04 0000
00000040: bb04 0080 a202 0080 9801 0080 c402 0080
00000050: 0902 0000 5f01 0000 d604 0080 9401 0080
00000060: 0305 0000 6101 0000 a801 0080 f30b 0000
00000070: 2900 0000 2f04 0000 6101 0080 b801 0000
00000080: ad01 0080 2401 0080 5f01 0080 6f01 0080
00000090: 2601 0000 7501 0000 8001 0000 7b01 0000
000000a0: 5f01 0000 1401 0080 8201 0000 9201 0000
000000b0: 2901 0000 5f01 0000 6401 0000 6c01 0080
000000c0: a301 0080 f302 0000 6100 0080 5f01 0000
000000d0: 6301 0000 ed04 0000 ae01 0000 6901 0000
000000e0: 6101 0080 5f01 0080 a60b 0000 bc02 0000
000000f0: 5f01 0080 d002 0000 5b03 0080 8808 0080
00000100: 9301 0080 e103 0080 8f01 0000 9b01 0000
00000110: a001 0000 7d01 0080 7801 0080 6601 0000
00000120: 6001 0000 6201 0080 8d0f 0000 6501 0080
00000130: f101 0000 0304 0080 5f01 0080 a901 0080
00000140: 0102 0000 ce02 0000 a601 0080 d201 0000
00000150: 7701 0000 7601 0000 260b 0080 8b01 0000
00000160: fb03 0000 9408 0080 9101 0000 c004 0080
00000170: 6001 0080 2607 0000 7601 0000 6501 0000
00000180: 560b 0080 7301 0000 9901 0000 f80b 0080
00000190: ad01 0000 9a01 0080 5f01 0080 870f 0080
000001a0: ba07 0080 a101 0080 bf01 0080 6201 0000
000001b0: 2a0c 0080 e606 0080 7801 0080 6201 0000
000001c0: 9101 0080 7101 0080 9501 0080 4c08 0000
000001d0: b701 0000 6301 0080 ab01 0000 6201 0000
000001e0: 8401 0080 e906 0080 6201 0000 5f01 0000
000001f0: d302 0080 7504 0000 5f01 0080 290b 0000
00000200: 9b03 0000 8908 0000 0901 0080 be04 0000
00000210: 1803 0000 8400 0080 a701 0000 ff00 0080
00000220: 0e01 0080 4f04 0080 b801 0000 500b 0000
00000230: c004 0000 7b01 0000 a80f 0000 cf0b 0080
00000240: 9908 0000 af00 0080 e000 0080 b604 0000
00000250: b407 0000 7801 0000 b800 0000 5f01 0080
00000260: f407 0080 7c01 0080 4200 0000 e802 0000
00000270: 4f03 0080 0802 0080 f301 0080 690b 0080
00000280: 170c 0080 b101 0000 d402 0080 4d01 0080
00000290: 0805 0080 3c04 0000 6001 0080 8d08 0080
000002a0: 1103 0000 6301 0000 6001 0000 c904 0000
000002b0: a80b 0000 3805 0000 9302 0000 5207 0000
000002c0: 4601 0080 e906 0080 ab0f 0080 9302 0080
000002d0: 7c04 0080 a101 0000 dd02 0000 c202 0080
000002e0: 0507 0000 6800 0000 5900 0000 af01 0080
000002f0: ff02 0080 7501 0000 0b02 0000 1904 0000
00000300: 8101 0000 8b01 0000 a301 0000 8e01 0000
00000310: 6801 0080 6501 0000 6001 0080 0007 0080
00000320: a302 0000 9401 0000 ea00 0000 3401 0080
00000330: 9f08 0000 ea02 0080 3705 0080 6001 0080
00000340: 8101 0000 920b 0000 8f01 0000 8401 0000
00000350: 6001 0000 6001 0080 9201 0080 7c08 0000
00000360: 8200 0000 6201 0080 cc02 0080 f406 0000
00000370: 410c 0000 6201 0000 ce03 0080 6701 0080
00000380: 0605 0080 3600 0000 5f01 0080 f90a 0080
00000390: 1e0b 0000 0d08 0080 6b08 0080 6e01 0000
000003a0: ce00 0000 d504 0000 b904 0080 8804 0080
000003b0: 6701 0080 8b07 0080 860b 0080 8e02 0080
000003c0: 7101 0000 7801 0000 5f01 0080 5f01 0000
000003d0: 8a03 0000 3104 0000 2308 0000 d002 0080
000003e0: 6101 0000 6501 0080 8d01 0000 ba02 0000
000003f0: 5f01 0080 6001 0000 9301 0080 7008 0080

att_src f4 [1, 4, 32]
-0.33759776 0.113565296 0.15525194 0.38692603 -0.1338957 -0.0810065 -0.21185394 0.25682053
-0.07781141 -0.13597392 -0.39591235 -0.15071549 0.2472576 -0.3538302 0.07769228 0.16989475
0.116922155 -0.1512988 0.14283426 -0.14990708 0.11913465 0.2652591 -0.19748038 0.29960057
0.1542948 -0.07548289 -0.030960187 -0.1091091 0.121790946 0.26618052 -0.37939778 -0.021913528
0.30169922 0.28462568 -0.13640822 -0.2294346 -0.20142114 0.14366154 -0.2948211 -0.22705531
0.1671952 -0.18676537 -0.23717853 -0.3379163 -0.2878891 -0.336404 -0.28530502 -0.19022866
-0.258528 -0.17370407 -0.031699926 0.1485101 0.23484135 0.13803701 0.019159853 0.23788434
0.3988761 -0.040365912 -0.20398642 0.0989836 0.17686665 0.16917881 -0.104238026 -0.039130062
0.2791323 0.030818518 -0.17361286 0.1881147 0.3600312 -0.22232707 0.23348923 -0.3057673
0.017115159 0.040821385 0.3280328 -0.19883443 -0.14881471 0.16232087 -0.24752358 0.08301922
0.030032303 -0.34620816 -0.1568414 0.3554595 0.37529993 -0.12236244 0.04073909 0.19309285
0.3867189 0.25751773 0.16612686 -0.3950996 0.17369005 -0.17620371 0.31797922 -0.0587998
-0.37944698 0.38247505 -0.14883417 -0.2799759 -0.3513133 0.10703039 0.3909648 -0.31535873
0.06851972 -0.16938001 0.037823837 -0.09441966 0.10032291 0.39868248 0.21627192 0.4042511
0.18114676 -0.171741 -0.40241122 0.076786436 0.09876299 0.19354954 -0.07628239 0.07330626
-0.10181684 -0.051049337 -0.12119108 0.10605345 -0.34984553 -0.0044447077 0.059938166 0.4065505
00000000: 9dd9 acbe ec94 e83d 5dfa 1e3e 2b1b c63e
00000010: f41b 09be bce6 a5bd 3df0 58be fb7d 833e
00000020: 975b 9fbd bf3c 0bbe 06b5 cabe 2955 1abe
00000030: 1931 7d3e 3b29 b5be 211d 9f3d e4f8 2d3e
00000040: e274 ef3d 13ee 1abe 2543 123e 3e81 19be
00000050: defc f33d 0ad0 873e 4c38 4abe 3f65 993e
00000060: 75ff 1d3e c696 9abd 38a0 fdbc 9874 dfbd
00000070: 886d f93d d048 883e 6d40 c2be 0084 b3bc
00000080: 5278 9a3e 75ba 913e 99ae 0bbe e7f0 6abe
00000090: 5841 4ebe 031c 133e cbf2 96be 3081 68be
000000a0: 3835 2b3e 6c3f 3fbe eede 72be 5e03 adbe
000000b0: 3366 93be 253d acbe 8013 92be 4dcb 42be
000000c0: c85d 84be 7bdf 31be c8d7 01bd 0813 183e
000000d0: 407a 703e 9359 0d3e 20f5 9c3c f497 733e
000000e0: 7d39 cc3e ba56 25bd d1e1 50be eab7 ca3d
000000f0: 881c 353e 363d 2d3e bf7a d5bd d846 20bd
00000100: 6eea 8e3e 1e77 fc3c 92c7 31be 24a1 403e
00000110: 0256 b83e b5a9 63be cd17 6f3e 888d 9cbe
00000120: 1735 8c3c 5334 273d eaf3 a73e 419b 4bbe
00000130: e262 18be 7137 263e d276 7dbe fb05 aa3d
00000140: 4e06 f63c 3242 b1be 089b 20be cafe b53e
00000150: 5027 c03e 2999 fabd 08de 263d 22ba 453e
00000160: 0500 c63e 5dd9 833e 291d 2a3e 7f4a cabe
00000170: cedb 313e bf6e 34be 2cce a23e 0fd8 70bd
00000180: e046 c2be c5d3 c33e fc67 18be 0059 8fbe
00000190: 56df b3be c032 db3d 8a2c c83e b376 a1be
000001a0: 1154 8c3d f471 2dbe 2bed 1a3d 185f c1bd
000001b0: 1976 cd3d 1c20 cc3e 6376 5d3e 00fa ce3e
000001c0: 897e 393e dfdc 2fbe d808 cebe 3542 9d3d
000001d0: 4044 ca3d da31 463e f139 9cbd 9821 963d
000001e0: 5985 d0bd 1c19 51bd 0733 f8bd 8d32 d93d
000001f0: f41e b3be e9a4 91bb b981 753d 6327 d03e

att_dst f4 [1, 4, 32]
-0.1127145 0.16139682 0.05413059 -0.3826482 0.24300149 0.33184963 -0.09531236 0.123650074
0.10256096 -0.108485386 0.35588184 -0.37586355 0.23474902 0.3538355 -0.36957064 -0.13522148
-0.112507716 -0.027336054 -0.26305273 0.111039825 0.06842331 0.30159572 -0.03156064 0.1652951
-0.34024957 -0.30751076 -0.23926727 -0.18183725 0.009019794 -0.07618365 -0.34051082 -0.36644498
-0.27435777 -0.2058251 -0.2765073 -0.22761191 -0.37338328 -0.10992374 -0.39626327 -0.2868533
0.35808793 0.39228907 -0.07716234 -0.19591102 0.11661136 0.19639024 -0.35668156 -0.041794676
-0.1485609 0.11488043 -0.1752404 -0.046973377 0.24479978 0.04988123 -0.049451455 -0.09732814
-0.38611603 -0.08684094 -0.15651874 0.36104783 -0.3169526 -0.28898108 -0.3565169 -0.27488333
0.26179132 -0.31990483 -0.16861399 0.3470272 -0.18782426 -0.07560013 -0.25732905 -0.039972145
-0.20631674 -0.037173014 -0.22782478 0.18847373 0.066458374 0.33728784 -0.27663475 0.22933593
0.19393772 0.39910695 -0.05998815 0.0027333815 0.35670447 -0.08626964 -0.10933731 -0.19455229
0.22984408 0.39307383 -0.19873706 -0.17732845 -0.30106205 -0.071857154 0.073248446 0.2655656
0.34250596 0.13263035 -0.08464766 0.19668832 0.36734337 -0.40539798 -0.29957214 -0.36812514
-0.0058374596 -0.11332284 0.39299086 0.18502513 0.28850472 0.28413922 -0.065847024 -0.2862843
-0.103697725 -0.36302644 0.13839252 0.31241658 -0.24888065 -0.2472012 -0.034108065 0.3619216
-0.12783325 -0.4037153 0.1073022 0.06763933 -0.023445176 0.03350396 -0.013934722 0.14370199
00000000: dcd6 e6bd 3545 253e 0ab8 5d3d 77ea c3be
00000010: 62d5 783e 32e8 a93e 2033 c3bd 403c fd3d
00000020: 7b0b d23d 962d debd 2536 b63e 3071 c0be
00000030: 0c62 703e ed29 b53e 5d38 bdbe 8077 0abe
00000040: 726a e6bd dcef dfbc d9ae 86be d968 e33d
00000050: 8521 8c3d c16a 9a3e bb45 01bd 1e43 293e
00000060: 3135 aebe 0d72 9dbe 7b02 75be 8b33 3abe
00000070: c2c7 133c 2c06 9cbd 6f57 aebe ad9e bbbe
00000080: 9f78 8cbe d1c3 52be 5d92 8dbe 1913 69be
00000090: 182c bfbe b31f e1bd 05e3 cabe 70de 92be
000000a0: 4d57 b73e 1dda c83e 4a07 9ebd e69c 48be
000000b0: f0d1 ee3d 861a 493e f79e b6be e530 2bbd
000000c0: 5920 18be 6e46 eb3d 3872 33be 2867 40bd
000000d0: cbac 7a3e 4350 4c3d 9c8d 4abd fa53 c7bd
000000e0: 00b1 c5be aad9 b1bd 7346 20be 43db b83e
000000f0: 9c47 a2be 54f5 93be 6289 b6be 82bd 8cbe
00000100: 8309 863e 91ca a3be 25a9 2cbe 8dad b13e
00000110: 0155 40be 3ed4 9abd a2c0 83be d5b9 23bd
00000120: b244 53be bb42 18bd e64a 69be 42ff 403e
00000130: 541b 883d feb0 ac3e 12a3 8dbe 0ad7 6a3e
00000140: 9c97 463e bf57 cc3e 22b6 75bd 8822 333b
00000150: f8a1 b63e 23ae b0bd 3dec dfbd b738 47be
00000160: 3f5c 6b3e f940 c93e ba81 4bbe 9795 35be
00000170: ce24 9abe d829 93bd 4803 963d 37f8 873e
00000180: f15c af3e 40d0 073e c15b adbd aa68 493e
00000190: 6e14 bc3e 5390 cfbe 8561 99be e67a bcbe
000001a0: 2948 bfbb ce15 e8bd 1936 c93e 3a77 3d3e
000001b0: e4b6 933e b27a 913e ceda 86bd db93 92be
000001c0: 795f d4bd 9ade b9be c5b6 0d3e 11f5 9f3e
000001d0: 92da 7ebe 5022 7dbe e6b4 0bbd ca4d b93e
000001e0: b8e6 02be c6b3 cebe 41c1 db3d 7d86 8a3d
000001f0: 1910 c0bc 733b 093d 764e 64bc 9d26 133e
