anp_models/anp_link_prediction_next_to_2024_10_20_09_29_28/model.pt (torch, 259474 bytes, 75 tensors)

weight f4 [32, 2]
0.08056307 0.4693851 0.5539332 0.073723726 -0.30311096 0.63173044 -0.3181635 0.29986164
-0.05291975 -0.55928415 -0.10906251 0.07084386 0.39302695 -0.5949768 -0.00944601 0.03622411
0.36293092 0.21954826 0.29018688 -0.26139674 0.55172426 0.30751714 -0.25922617 -0.55009574
0.6882693 0.20370094 -0.10534298 0.40136513 -0.64096344 0.16735272 0.320974 -0.62786925
-0.040473487 -0.37492004 -0.025011685 0.54915226 -0.10634542 -0.6558771 0.20275058 0.08574789
0.61996084 -0.3869429 -0.10957006 0.07306606 -0.13601887 0.08363174 -0.6862881 0.58249
0.4381574 -0.25220427 0.15854159 -0.39603874 -0.439142 0.6338016 0.5814799 0.18533997
-0.039436612 -0.20552582 -0.22663417 -0.35184932 -0.25715956 -0.66610205 0.28988943 -0.2512359
00000000: 40fe a43d 3e53 f03e 91ce 0d3f 77fc 963d
00000010: 5c31 9bbe 16b9 213f 54e6 a2be 7787 993e
00000020: 61c2 58bd 3f2d 0fbf 2a5c dfbd 9616 913d
00000030: d43a c93e 6650 18bf 70c3 1abc bb5f 143d
00000040: 15d2 b93e 42d1 603e 6093 943e cbd5 85be
00000050: cd3d 0d3f e372 9d3e 4bb9 84be 13d3 0cbf
00000060: 6b32 303f fb96 503e 0fbe d7bd bb7f cd3e
00000070: 2e16 24bf 835e 2b3e b456 a43e 0abc 20bf
00000080: 87c7 25bd 85f5 bfbe 4ee5 ccbc 3e95 0c3f
00000090: a1cb d9bd 90e7 27bf d99d 4f3e 979c af3d
000000a0: c1b5 1e3f 611d c6be 4566 e0bd a9a3 953d
000000b0: 8848 0bbe 1e47 ab3d 94b0 2fbf 111e 153f
000000c0: 2b56 e03e eb20 81be ba58 223e 97c5 cabe
000000d0: 38d7 e0be d240 223f dedb 143f c3c9 3d3e
000000e0: 4988 21bd 5c75 52be ca12 68be 9825 b4be
000000f0: 6baa 83be aa85 2abf 636c 943e fea1 80be

bias f4 [32]
-0.1343712 0.3038805 -0.16279456 -0.6584088 -0.28917444 0.26874992 -0.36475345 0.111135215
-0.46324256 0.3718967 0.57135993 -0.34567648 0.16031116 0.5658756 -0.5743514 -0.075715505
0.36989555 -0.0003483106 -0.58139706 -0.12285962 -0.49596277 -0.03873257 0.009397018 0.679589
-0.33831707 -0.024383642 -0.22242858 -0.20676452 -0.2202555 0.34234822 0.70740396 -0.16318461
00000000: 9b98 09be 3a96 9b3e 9eb3 26be 7b8d 28bf
00000010: ac0e 94be 9799 893e f7c0 babe dc9a e33d
00000020: 212e edbe 3f69 be3e a544 123f 82fc b0be
00000030: 9c28 243e 39dd 103f b108 13bf bb10 9bbd
00000040: f362 bd3e 759d b6b9 70d6 14bf d39d fbbd
00000050: d5ee fdbe 0ba6 1ebd f3f5 193c 8bf9 2d3f
00000060: e537 adbe 34c0 c7bc 51c4 63be 14ba 53be
00000070: a88a 61be 4448 af3e 6d18 353f de19 27be

weight f4 [32, 2]
0.3277283 0.34595144 0.09831309 0.50315654 0.6580052 0.09562932 -0.62951326 -0.38967708
-0.7023874 0.40745482 -0.06944857 -0.6936492 0.5887546 -0.24347016 -0.2884108 -0.54072684
0.4770335 0.4173649 0.6925171 0.6308578 0.7084678 0.5320572 0.26459464 -0.15472175
-0.105989814 0.038062997 0.26785806 0.30909738 -0.5226042 -0.15826885 0.36381707 0.21998818
-0.23820204 -0.5018848 -0.10438468 -0.6146944 -0.1179985 0.08830252 -0.20024039 0.24052776
-0.66983384 0.06960499 0.70365596 -0.021428501 0.62767047 0.62718695 -0.5161266 -0.11776012
0.41046712 0.014131754 0.4168665 -0.45335928 -0.24196911 0.48887873 0.2669432 -0.23103158
-0.6284756 0.19016676 -0.5769451 -0.59054536 0.5778283 -0.28015447 -0.450896 -0.49404997
00000000: 01cc a73e 8c20 b13e 6058 c93d dece 003f
00000010: 0773 283f 4ed9 c33d c827 21bf c183 c7be
00000020: a9cf 33bf eb9d d03e 0d3b 8ebd fe92 31bf
00000030: 9fb8 163f 3e50 79be 95aa 93be 136d 0abf
00000040: bc3d f43e dab0 d53e cd48 313f e67f 213f
00000050: 255e 353f e734 083f f378 873e 616f 1ebe
00000060: 3011 d9bd f2e7 1b3d b124 893e 0342 9e3e
00000070: 64c9 05bf 3b11 22be 3b46 ba3e 9544 613e
00000080: 3ceb 73be 867b 00bf a3c7 d5bd 9d5c 1dbf
00000090: 33a9 f1bd f4d7 b43d d10b 4dbe e94c 763e
000000a0: 3b7a 2bbf 108d 8e3d cc22 343f d38a afbc
000000b0: 03af 203f 538f 203f df20 04bf 382c f1bd
000000c0: bf28 d23e df88 673c 876f d53e b51e e8be
000000d0: c0c6 77be 504e fa3e c7ac 883e 8b93 6cbe
000000e0: c7e3 20bf 13bb 423e adb2 13bf fb2d 17bf
000000f0: 8eec 133f 6870 8fbe d7db e6be 1ef4 fcbe

weight f4 [32, 2]
-0.23970383 -0.52634674 -0.27434826 -0.13512588 0.69910145 0.21772751 -0.55155194 0.07766923
-0.29654968 -0.70071703 0.50729966 0.5227679 -0.3760289 -0.49432483 -0.111365505 0.077625185
-0.19531474 -0.07103152 -0.24517994 -0.09341718 -0.44901899 -0.4032955 -0.53141195 0.55254966
-0.575821 -0.6769005 0.37223452 0.33449692 -0.051994 0.5564761 0.5541663 -0.1784506
-0.62377477 0.6524386 -0.70257264 -0.2768657 0.1798494 0.26639268 -0.12246788 0.20335315
-0.20192432 -0.4063922 -0.09714482 -0.2224044 -0.6609025 0.03607669 0.23633344 0.631602
-0.05887725 -0.20306553 0.5250404 0.6980188 0.40128547 -0.37416083 0.41209596 0.023271523
-0.50062025 -0.2551308 -0.28861922 0.47930136 -0.36112866 0.5082709 -0.111388475 -0.5188949
00000000: ec74 75be a9be 06bf 6077 8cbe 705e 0abe
00000010: 50f8 323f f6f3 5e3e 8232 0dbf 0c11 9f3d
00000020: 5cd5 97be 3162 33bf 64de 013f 1ed4 053f
00000030: dc86 c0be 2518 fdbe 9913 e4bd f4f9 9e3d
00000040: 9600 48be f978 91bd 7310 7bbe 8251 bfbd
00000050: d1e5 e5be bf7c cebe 9d0a 08bf e573 0d3f
00000060: 0169 13bf 5a49 2dbf 8695 be3e 2e43 ab3e
00000070: a9f7 54bd 3875 0e3f d8dd 0d3f c1bb 36be
00000080: b4af 1fbf 3706 273f cddb 33bf 57c1 8dbe
00000090: 712a 383e 9f64 883e 71d0 fabd cf3b 503e
000000a0: 40c5 4ebe a312 d0be ddf3 c6bd fbbd 63be
000000b0: e830 29bf 27c5 133d 6501 723e abb0 213f
000000c0: 4529 71bd 69f0 4fbe 0c69 063f 5cb1 323f
000000d0: 4a75 cd3e 0292 bfbe 3efe d23e eca3 be3c
000000e0: a628 00bf 81a0 82be e6c5 93be fd66 f53e
000000f0: dbe5 b8be 0b1e 023f a41f e4bd 4cd6 04bf

bias f4 [32]
0.50819147 -0.5521656 -0.15541944 -0.47945565 0.23923819 0.3084349 0.41662148 0.5917274
-0.35370848 0.2774527 0.062550426 -0.4004128 0.39954433 0.050463647 0.21566506 0.4049145
0.6904189 -0.36405754 -0.5910817 -0.25677145 0.7605119 -0.16472057 -0.006678353 0.04418631
0.76273024 -0.53123623 -0.12087147 -0.33177745 -0.6345683 0.0972692 0.30412948 0.024591893
00000000: d618 023f ba5a 0dbf 4626 1fbe 367b f5be
00000010: dbfa 743e 2eeb 9d3e 694f d53e 727b 173f
00000020: 4719 b5be 480e 8e3e 701a 803d e802 cdbe
00000030: 1391 cc3e f8b2 4e3d 4dd7 5c3e f450 cf3e
00000040: 4bbf 303f c065 babe 2151 17bf 8c77 83be
00000050: e8b0 423f 82ac 28be 16d6 dabb b4fc 343d
00000060: 4a42 433f 19ff 07bf 768b f7bd bcde a9be
00000070: 1173 22bf 1335 c73d dcb6 9b3e f074 c93c

weight f4 [32, 32]
-0.18231174 -0.17377216 0.14912653 0.058239553 0.110477425 -0.0653222 -0.03268305 0.17796111
0.07441392 -0.021154333 0.19173148 -0.19256541 -0.32332367 -0.021113632 0.1089136 0.010789357
-0.35294816 -0.30860475 -0.18063577 -0.15205134 0.08240024 0.017695129 0.30539635 0.071524486
0.30897456 0.07968056 -0.03510233 -0.13532811 0.029229015 -0.1775971 0.24212953 0.036525637
-0.11680378 0.19948202 0.16566516 -0.18603884 -0.09545043 0.12709488 0.0492093 0.14745708
-0.10869277 -0.021244653 -0.20352781 0.050320502 -0.07779819 0.1662517 0.14078778 0.20377593
0.21797681 0.12142074 0.23855048 -0.14364603 0.008972548 0.14556688 0.2537781 0.16737176
-0.028264705 -0.103398435 -0.18476863 0.10751442 -0.028291857 -0.20416707 0.105795786 -0.0795201
-0.114830256 0.06258612 0.09043483 0.13026129 -0.070477806 -0.08085838 -0.019655505 -0.12111903
0.048234504 0.045215167 0.15280311 0.07471413 -0.21678953 -0.0698129 -0.058067087 -0.21996455
0.1635687 0.07596616 0.074219316 -0.11025917 0.123253435 -0.3346378 -0.25050443 0.048328694
0.08924121 -0.09038457 -0.26323748 0.18896201 -0.040051922 0.015812429 -0.04536463 0.16928402
-0.12865292 0.02599961 0.09146349 -0.008085965 0.15032233 -0.15056741 0.00488569 0.19456618
0.15925339 -0.20442753 0.17021261 -0.23688169 -0.1414361 0.018511873 0.09851278 0.18491839
0.03356868 -0.19512406 -0.100212544 -0.18701155 0.043575335 -0.18204667 0.071227334 -0.09091625
0.12579219 -0.054680854 -0.21970518 -0.23758738 -0.14722729 0.014520075 0.20496964 0.15839574
-0.03480196 0.08617402 -0.04782106 0.13169782 -0.17127933 0.1515258 0.12972477 0.09155676
-0.032373562 -0.032495853 -0.09996778 -0.05185516 -0.13119672 0.037388656 -0.15102524 -0.1702031
-0.09200009 0.0597528 -0.03385472 0.057597674 0.018331567 -0.06689447 0.08614322 0.034535844
-0.023497334 0.12514682 0.115925886 -0.05105783 0.14043099 -0.00016895523 -0.056832146 -0.025462788
0.09553424 -0.02120216 -0.20206705 0.05348362 0.13399251 0.12245898 0.22468536 -0.06275925
0.043913152 0.029837042 0.1663939 -0.06242421 0.13749717 0.026653469 -0.009700109 0.19519618
-0.0034629996 0.04122159 -0.00440071 0.14124696 -0.14112675 -0.07630171 0.09032685 0.076456904
-0.16828236 0.117272064 0.024808226 -0.071155205 0.109205164 0.08682983 0.0008005934 -0.1703902
-0.1685339 -0.00055230944 -0.028169189 0.036159243 -0.028433513 0.013102539 0.02630917 -0.12753156
-0.10183634 -0.10687261 -0.022074627 -0.016164908 0.1296705 0.001815033 -0.019923493 0.12770376
0.09699976 0.011565981 0.09449272 0.098339975 -0.062130615 -0.073037945 0.079101294 -0.20254424
0.17581154 -0.1941623 -0.1015306 0.06330574 0.16274185 0.18922807 -0.142607 0.12257011
-0.056889974 -0.2037711 -0.032855965 -0.00851223 0.14292185 -0.0012933738 0.16371784 0.13464725
-0.16874097 0.07362024 -0.017067889 -0.25991768 -0.25780493 -0.11646411 0.11028414 -0.004991241
-0.08576399 -0.16627017 -0.12875351 0.059458885 -0.11574867 -0.054319292 -0.030787159 0.23339474
-0.06308575 -0.06249136 -0.10051605 -0.21997873 0.09029765 0.13283063 0.13993593 -0.1266115
00000000: eeaf 3abe 54f1 31be a0b4 183e 998c 6e3d
00000010: fd41 e23d a5c7 85bd a9de 05bd 703b 363e
00000020: 5366 983d da4b adbc 4255 443e de2f 45be
00000030: ae8a a5be 7ff6 acbc 180e df3d d8c5 303c
00000040: 9fb5 b4be 7101 9ebe 95f8 38be 59b3 1bbe
00000050: 75c1 a83d 60f5 903c e95c 9c3e 6e7b 923d
00000060: ea31 9e3e 902f a33d 76c7 0fbd 7493 0abe
00000070: b071 ef3c 04dc 35be cef0 773e e89b 153d
00000080: d236 efbd 0445 4c3e 21a4 293e f780 3ebe
00000090: 847b c3bd 2925 023e b18f 493d fdfe 163e
000000a0: 519a debd 4409 aebc 9869 50be df1c 4e3d
000000b0: a854 9fbd e33d 2a3e ac2a 103e a3aa 503e
000000c0: 5035 5f3e 70ab f83d 9446 743e f217 13be
000000d0: 9801 133c 7c0f 153e 34ef 813e 8163 2b3e
000000e0: 628b e7bc 8fc2 d3bd fd33 3dbe 8530 dc3d
000000f0: 53c4 e7bc 2c11 51be 76ab d83d 6fdb a2bd
00000100: 202c ebbd 272d 803d e535 b93d 3763 053e
00000110: ab56 90bd 1499 a5bd 9504 a1bc 410d f8bd
00000120: 8b91 453d 8a33 393d 6b78 1c3e b903 993d
00000130: 13fe 5dbe 11fa 8ebd c1d7 6dbd 633e 61be
00000140: 8e7e 273e 2594 9b3d 4c00 983d 8fcf e1bd
00000150: 4c6c fc3d a555 abbe 1e42 80be 4ff4 453d
00000160: 18c4 b63d 8c1b b9bd 10c7 86be 427f 413e
00000170: 7c0d 24bd 1189 813c 43d0 39bd ca58 2d3e
00000180: 97bd 03be 22fd d43c 3651 bb3d ff7a 04bc
00000190: 19ee 193e 582e 1abe 2318 a03b 5b3c 473e
000001a0: 5213 233e 7355 51be 374c 2e3e 1d91 72be
000001b0: a0d4 10be 36a6 973c 12c1 c93d 3f5b 3d3e
000001c0: 507f 093d 9ace 47be 3c3c cdbd f57f 3fbe
000001d0: 0d7c 323d 716a 3abe a3df 913d 4d32 babd
000001e0: abcf 003e 08f9 5fbd 65fa 60be 1b4a 73be
000001f0: c0c2 16be 9ce5 6d3c 90e3 513e 7e32 223e
00000200: 808c 0ebd 017c b03d 04e0 43bd cbdb 063e
00000210: d963 2fbe 9429 1b3e 92d6 043e 1c82 bb3d
00000220: 249a 04bd 5f1a 05bd e8bb ccbd 1466 54bd
00000230: 6f58 06be d924 193d 5ca6 1abe b949 2ebe
00000240: 8b6a bcbd 5abf 743d 3fab 0abd 8aeb 6b3d
00000250: 152c 963c f8ff 88bd db6b b03d 7575 0d3d
00000260: 7b7d c0bc 7d26 003e 8d6a ed3d 0422 51bd
00000270: 24cd 0f3e 9329 31b9 d3c8 68bd 5697 d0bc
00000280: 75a7 c33d 27b0 adbc aaea 4ebe a411 5b3d
00000290: 5535 093e c6cb fa3d eb13 663e ec87 80bd
000002a0: 47de 333d d06c f43c 2a63 2a3e 87b0 7fbd
000002b0: 0fcc 0c3e 6058 da3c 35ed 1ebc 82e1 473e
000002c0: 7ef3 62bb f8d7 283d d533 90bb 0ba3 103e
000002d0: 8883 10be 1244 9cbd 49fd b83d 7095 9c3d
000002e0: 3652 2cbe 562c f03d 9f3a cb3c d2b9 91bd
000002f0: f5a6 df3d d7d3 b13d eade 513a c57a 2ebe
00000300: 2794 2cbe dcc8 10ba 12c3 e6bc b71b 143d
00000310: 66ed e8bc 08ac 563c 5486 d73c a297 02be
00000320: 928f d0bd 07e0 dabd d9d5 b4bc 456c 84bc
00000330: 58c8 043e 67e6 ed3a 9836 a3bc c6c4 023e
00000340: cfa7 c63d 3e7f 3d3c 6685 c13d 7866 c93d
00000350: ac7c 7ebd eb94 95bd dcff a13d c267 4fbe
00000360: f107 343e 7bd2 46be 46ef cfbd 71a6 813d
00000370: cda5 263e 01c5 413e 9207 12be 0a06 fb3d
00000380: 7605 69bd 5fa9 50be fa93 06bd e176 0bbc
00000390: 1b5a 123e 6c86 a9ba a6a5 273e f8e0 093e
000003a0: 6fca 2cbe 35c6 963d f5d1 8bbc ee13 85be
000003b0: 02ff 83be bc84 eebd a7dc e13d 908d a3bb
000003c0: 08a5 afbd ba42 2abe f6d7 03be 298b 733d
000003d0: a40d edbd e87d 5ebd 5a35 fcbc 08ff 6e3e
000003e0: 1a33 81bd f1f6 7fbd 5cdb cdbd 1b42 61be
000003f0: f9ed b83d c104 083e 5d4b 0f3e 72a6 01be

weight f4 [32, 32]
-0.10849784 -0.13370727 0.15696576 -0.08637062 0.12847912 0.009414916 -0.08194065 0.08738859
0.18372889 0.0026960082 -0.081863895 -0.12992103 -0.060796853 -0.048521865 -0.08552888 0.0072944853
0.14887342 0.112142965 -0.14512974 0.07078776 0.17861916 0.045617465 0.08133852 -0.1730459
0.13248889 0.12854448 0.1654545 -0.17861693 0.19285099 0.043893687 -0.19515152 -0.02473682
-0.024128444 -0.0024006336 -0.0077192932 0.15615226 0.054156724 -0.11574768 0.0681867 -0.124042146
0.12744626 -0.1637914 -0.054111972 -0.14648192 0.070034504 -0.12066785 -0.07852713 0.05918986
-0.020976854 -0.13115472 -0.0062138326 -0.03656524 -0.06189108 -0.101476036 -0.10234293 0.10594094
-0.060122583 0.15010586 0.10023531 -0.104506485 -0.00018745249 -0.17104225 0.16737115 0.02604456
0.17921685 -0.16775171 -0.08514552 -0.14426354 0.0026061242 -0.117900856 0.079021044 -0.13247032
-0.059109863 0.08032464 0.06779603 -0.015711335 -0.18326594 -0.008057257 -0.0067276577 -0.0099998675
0.056698635 -0.039061006 -0.1561258 -0.10150736 -0.063921496 0.103264704 -0.0552193 0.019737337
-0.15286976 -0.08507619 -0.07017101 -0.041990377 0.16425858 -0.027181378 0.16968961 -0.063722834
-0.13429582 0.04387156 0.017648997 0.023751142 -0.08732372 -0.082749546 0.029272022 -0.039258085
0.12874858 -0.091688484 -0.050112188 -0.13736917 -0.1314419 -0.13453434 -0.029897857 0.14237806
0.109078266 -0.04200876 -0.07172133 0.110926576 0.13717355 -0.18235382 0.11340276 -0.12699266
0.17875804 -0.17202091 -0.037108444 -0.1755696 -0.15062995 0.17579766 -0.03920967 0.12793654
-0.131664 -0.156354 0.007960182 -0.12305583 -0.12684521 0.010431271 -0.03566359 0.083538756
-0.15055424 0.08175491 0.08752826 -0.045936905 -0.0006859278 0.048279718 -0.16148937 0.13913439
0.14874671 0.08454275 0.0032053553 -0.15246868 0.045815147 -0.16695844 -0.08084707 0.0601237
-0.15694022 0.052077245 -0.036308154 0.046412267 0.006138741 -0.103611596 0.08742289 0.10695753
0.13268636 0.13376766 0.12795511 0.1533598 0.11963238 0.13661002 -0.001377471 -0.03677843
0.069857106 -0.15458551 0.06071109 -0.1413478 -0.12891746 0.06307666 -0.0744012 -0.08309911
-0.0757013 0.066042915 -0.14256297 -0.13626146 0.07690015 -0.009487879 0.13425045 0.17211172
0.17003961 0.013721172 0.019908015 0.03101162 -0.09173749 -0.059438836 -0.026728403 0.09386515
-0.0067158598 -0.14513262 0.116333224 -0.13088816 -0.019331777 -0.070052534 0.18591271 0.14053299
0.03782312 -0.13858263 0.038971007 0.061274167 -0.1606062 -0.038211975 0.06852095 -0.05564916
0.10607234 -0.066789635 0.040889096 0.15578808 0.14652756 0.0019323796 -0.12771562 0.12463187
-0.12414219 -0.09036161 0.025917193 0.113029 -0.02667476 0.14432399 0.032036193 -0.075961396
-0.10675106 0.07891981 0.02296081 0.16518322 -0.15146601 -0.09285066 -0.13681589 -0.06612285
0.099906646 -0.012496121 0.058749642 0.10380679 -0.027058506 -0.111120224 0.040040936 -0.018603845
0.051363274 0.01369764 0.08429357 -0.076451 0.054938037 0.14376937 0.1407075 -0.16493638
0.110075355 0.005854465 -0.096910276 -0.122738495 0.049865823 -0.08222997 -0.09211792 -0.082685456
00000000: 1e34 debd 8fea 08be a2bb 203e 14e3 b0bd
00000010: 0890 033e 0541 1a3c 80d0 a7bd caf8 b23d
00000020: 6d23 3c3e 83af 303b 42a8 a7bd 050a 05be
00000030: 1f06 79bd ddbe 46bd c429 afbd 9406 ef3b
00000040: 4672 183e 36ab e53d e49c 14be 2cf9 903d
00000050: f1e7 363e 61d9 3a3d cf94 a63d f232 31be
00000060: 2bab 073e 2aa1 033e e86c 293e 5be7 36be
00000070: bb7a 453e dec9 333d cdd5 47be dfa4 cabc
00000080: 04a9 c5bc f353 1dbb 20f2 fcbb 61e6 1f3e
00000090: 71d3 5d3d 1f0d edbd 78a5 8b3d cf09 febd
000000a0: 4681 023e efb8 27be 84a4 5dbd 5bff 15be
000000b0: 406e 8f3d b520 f7bd d5d2 a0bd 1171 723d
000000c0: a7d7 abbc 6c4d 06be 689d cbbb 6fc5 15bd
000000d0: 8081 7dbd abd2 cfbd 2c99 d1bd 90f7 d83d
000000e0: 1943 76bd 5ab5 193e 2c48 cd3d 7f07 d6bd
000000f0: e58e 44b9 b325 2fbe 5863 2b3e 675b d53c
00000100: 9f84 373e 1bc7 2bbe c660 aebd d2b9 13be
00000110: 82cb 2a3b 0176 f1bd c9d5 a13d 4da6 07be
00000120: 2f1d 72bd 3f81 a43d a5d8 8a3d 0fb5 80bc
00000130: 11aa 3bbe 9602 04bc af73 dcbb 7cd6 23bc
00000140: d43c 683d 6ffe 1fbd 71df 1fbe 17e3 cfbd
00000150: 46e9 82bd 727c d33d a22d 62bd 32b0 a13c
00000160: e489 1cbe 6d3c aebd d2b5 8fbd 1afe 2bbd
00000170: 6733 283e 7bab debc 1dc3 2d3e 1e81 82bd
00000180: d884 09be aab2 333d a194 903c c191 c23c
00000190: c7d6 b2bd 9878 a9bd e1cb ef3c 16cd 20bd
000001a0: abd6 033e 2cc7 bbbd 7042 4dbd 81aa 0cbe
000001b0: b598 06be 5fc3 09be 5aec f4bc 8ecb 113e
000001c0: 6d64 df3d 6111 2cbd a2e2 92bd 792d e33d
000001d0: 3977 0c3e f6ba 3abe b53f e83d 5d0a 02be
000001e0: 590c 373e 4026 30be 06ff 17bd 84c8 33be
000001f0: bd3e 1abe 4d04 343e 529a 20bd cc01 033e
00000200: edd2 06be 431b 20be 6c6b 023c b204 fcbd
00000210: b6e3 01be ece7 2a3c fc13 12bd 5e16 ab3d
00000220: e42a 1abe 1e6f a73d 0442 b33d 5628 3cbd
00000230: d6cf 33ba f4c0 453d 785d 25be 3f79 0e3e
00000240: 0f51 183e c024 ad3d f010 523b c020 1cbe
00000250: aaa8 3b3d 27f7 2abe 2693 a5bd 4544 763d
00000260: f0b4 20be f34e 553d dcb7 14bd ca1a 3e3d
00000270: 7e27 c93b 5132 d4bd c60a b33d 8d0c db3d
00000280: efde 073e 64fa 083e aa06 033e 5a0a 1d3e
00000290: d201 f53d 7fe3 0b3e 428c b4ba fba4 16bd
000002a0: 3e11 8f3d aa4b 1ebe 31ac 783d 7abd 10be
000002b0: f002 04be 562e 813d a85f 98bd de2f aabd
000002c0: 4809 9bbd 8241 873d 07fc 11be 2088 0bbe
000002d0: d37d 9d3d 0d73 1bbc f378 093e 0e3e 303e
000002e0: dd1e 2e3e c4ce 603c 2216 a33c 150c fe3c
000002f0: dde0 bbbd 2376 73bd 86f5 dabc 5f3c c03d
00000300: b710 dcbb a59d 14be 1d40 ee3d 8c07 06be
00000310: ad5d 9ebc b477 8fbd e75f 3e3e e1e7 0f3e
00000320: 6aec 1a3d 9be8 0dbe 10a0 1f3d 9ffa 7a3d
00000330: f475 24be 2984 1cbd b654 8c3d 60f0 63bd
00000340: 743c d93d 01c9 88bd 537b 273d e986 1f3e
00000350: 520b 163e e647 fd3a e2c7 02be fe3e ff3d
00000360: 433e febd 820f b9bd 4b50 d43c c07b e73d
00000370: 0785 dabc abc9 133e 6238 033d a691 9bbd
00000380: 4da0 dabd b6a0 a13d 4f18 bc3c ca25 293e
00000390: e819 1bbe 7d28 bebd 7719 0cbe 6b6b 87bd
000003a0: db9b cc3d 88bc 4cbc 77a3 703d a898 d43d
000003b0: cda9 ddbc 0093 e3bd f701 243d 1767 98bc
000003c0: 4c62 523d 116c 603c 1ba2 ac3d 5892 9cbd
000003d0: b506 613d 4738 133e a015 103e 15e5 28be
000003e0: 306f e13d d0d6 bf3b e578 c6bd 525e fbbd
000003f0: 1b40 4c3d 3068 a8bd 52a8 bcbd fe56 a9bd

bias f4 [32]
0.0015027848 0.090208724 -0.16917612 0.15917274 0.019500876 0.061283477 -0.16135074 0.042300384
0.034432128 0.1674406 0.056707263 -0.07217917 0.056993805 0.020950904 -0.12595089 -0.05232003
0.12533076 -0.08493785 -0.0435997 -0.06375848 0.047947217 -0.17000808 0.13453695 0.1202787
0.15764697 0.097877026 -0.15551874 0.006150864 0.11817967 -0.09449422 0.058174722 0.016929142
00000000: 17f9 c43a 5abf b83d 813c 2dbe 2efe 223e
00000010: 4dc0 9f3c 6204 7b3d 2139 25be 2b43 2d3d
00000020: b408 0d3d 8c75 2b3e e045 683d acd2 93bd
00000030: 5672 693d 3ba1 ab3c 45f9 00be 874d 56bd
00000040: b556 003e e5f3 adbd 9995 32bd ce93 82bd
00000050: 4d64 443d 9916 2ebe 0ec4 093e ae54 f63d
00000060: 356e 213e c073 c83d 4e40 1fbe 308d c93b
00000070: 2f08 f23d 3086 c1bd 9e48 6e3d fcae 8a3c

weight f4 [32, 2]
0.46878442 0.41937867 -0.5246609 -0.37116984 -0.18293984 -0.39746284 0.080999136 -0.3427104
-0.12860006 -0.21104217 -0.40689602 0.059019737 -0.24187204 -0.34917143 -0.45114422 -0.36398575
0.19068576 -0.6399847 -0.13831502 0.39611858 0.27301186 -0.2155492 0.39686376 0.42604676
0.18552358 -0.57323706 -0.09846126 -0.16384616 0.4106358 0.416238 -0.07101635 0.11177082
0.6494223 -0.6814662 -0.42226887 0.63989013 0.11419948 0.07308237 0.60515136 0.42801946
0.5726046 -0.0075410213 -0.5545742 -0.23385645 -0.05238589 -0.4123665 0.40981716 -0.07694392
-0.07140301 0.610807 -0.20948237 -0.37551838 0.07216342 0.40959233 -0.43510556 -0.0907039
-0.1214313 0.2707147 -0.60258347 0.288368 -0.61174387 0.28095818 -0.22652 -0.4173565
00000000: 8304 f03e cdb8 d63e 2d50 06bf f909 bebe
00000010: 9554 3bbe 4080 cbbe e0e2 a53d bd77 afbe
00000020: bcaf 03be 701b 58be ad54 d0be aebe 713d
00000030: 4ead 77be 99c6 b2be 60fc e6be 575c babe
00000040: 2143 433e 0ad6 23bf 74a2 0dbe 0ed0 ca3e
00000050: 36c8 8b3e eeb8 5cbe ba31 cb3e cd22 da3e
00000060: e5f9 3d3e aabf 12bf 0fa6 c9bd 4ac7 27be
00000070: db3e d23e 261d d53e 0571 91bd 1ae8 e43d
00000080: 8a40 263f 9274 2ebf a033 d8be d7cf 233f
00000090: 6be1 e93d 36ac 953d 33eb 1a3f 5e25 db3e
000000a0: 3796 123f ac1a f7bb 93f8 0dbf 1178 6fbe
000000b0: 9692 56bd b421 d3be 8ed3 d13e c694 9dbd
000000c0: be3b 92bd d95d 1c3f 8c82 56be f243 c0be
000000d0: 6aca 933d 16b6 d13e 28c6 debe f7c2 b9bd
000000e0: f9b0 f8bd 1e9b 8a3e e942 1abf f8a4 933e
000000f0: 3f9b 1cbf c0d9 8f3e dcf4 67be c0af d5be

weight f4 [32, 32]
0.05654212 -0.018397635 0.1042162 0.048681065 0.087620385 0.06310091 0.1540715 0.034081817
0.16326448 0.08615467 -0.1730726 0.078117 -0.16519323 -0.09826032 0.08141759 0.14234345
-0.031479523 0.11508212 -0.03135539 -0.10697986 0.18252805 0.012988659 -0.08194429 -0.043821413
-0.027235683 0.09749237 0.018464496 -0.12323099 0.078088924 0.05238205 -0.070013486 0.15321714
-0.121318646 -0.12895302 -0.07220249 0.12609991 -0.09730096 -0.09813257 0.15011819 -0.08820731
0.097955465 -0.01139802 0.162235 0.0698643 -0.17135629 0.01626226 -0.06391719 -0.14962928
-0.07436194 -0.04214999 -0.18668942 0.08513515 0.15646154 -0.026354535 -0.09962332 0.1626719
0.12098218 -0.08082926 0.14071517 0.08684441 -0.12236475 0.14065117 -0.14044616 0.028013872
-0.10308019 0.09387284 0.190659 -0.19181664 0.1451303 -0.1662537 0.16300903 0.07828837
-0.15679842 -0.008282342 -0.09766135 -0.088963754 0.0974267 0.19953783 0.058997963 0.08850078
-0.025757499 0.11929735 -0.16478083 0.01211776 -0.02082895 0.118961476 0.07811128 -0.1813379
-0.03036662 0.07925196 -0.008431612 0.031746324 0.15819742 0.041287113 -0.09189608 -0.18020034
0.048580453 0.07312194 -0.17300186 0.13770407 -0.11126781 0.07898309 -0.088012286 -0.1438543
0.1548255 0.079814196 0.0648715 -0.038343385 -0.05256188 0.080376804 0.13165765 0.065923534
0.06284974 0.0925984 0.11300445 0.06073355 0.1384072 0.16440298 0.0721975 -0.05074789
0.20786482 -0.0270946 -0.13702413 -0.20656294 -0.07926994 -0.16117626 0.0026966545 -0.09198022
-0.13601252 -0.13481319 -0.015302043 -0.086685136 -0.029680522 -0.058081623 -0.018088778 0.15153305
-0.13096544 0.054162815 0.051321916 0.018563427 -0.11056188 0.11818483 0.15369116 0.018658051
-0.123284064 -0.09735316 0.005055984 0.16050594 0.039745 0.039259344 -0.013582436 -0.08105836
0.12734535 0.16568696 -0.15565741 -0.11686673 -0.0066676526 0.1444154 -0.045028284 0.098579824
-0.13256544 -0.029452974 -0.034985516 -0.117774054 -0.17680858 -0.02014021 0.11355852 0.110408396
-0.023514371 -0.08003286 0.15812194 -0.16294892 -0.09963287 -0.01822583 -0.1213389 -0.00724663
-0.013759413 -0.034389425 -0.03683683 -0.106156416 0.12517086 0.04485385 -0.054846544 -0.115949474
0.008066972 -0.12738875 0.0035846594 0.11900525 -0.06836812 -0.17442101 0.17036963 -0.03787692
-0.17837301 -0.23973092 -0.022727475 0.17292336 0.14990054 0.03726544 -0.119207256 0.07850949
-0.103039145 -0.16662176 -0.090988815 0.10323261 -0.26330423 0.1220212 0.03734775 -0.24427788
0.026759245 0.049268227 0.11451705 -0.10727927 0.12409825 -0.00497839 -0.02363043 0.073858485
0.04593411 -0.11443956 -0.007382548 -0.05850565 -0.11977745 -0.053892814 -0.06622491 0.11960086
-0.036380872 0.05192265 0.012872627 -0.11398738 -0.0073199817 0.11117936 -0.17437778 0.1490996
-0.12930572 0.15898637 -0.14925867 -0.11801945 0.1222086 -0.15626127 -0.17074773 -0.14875643
0.05024161 0.1504249 -0.103028074 0.021379607 0.052842923 0.15436876 -0.043703485 0.17221881
-0.12666863 -0.14339025 -0.017248927 -0.056520037 0.0045130732 -0.039338563 0.08071818 -0.10239476
00000000: b698 673d a3b6 96bc 4e6f d53d cc65 473d
00000010: 5172 b33d 0d3b 813d ebc4 1d3e 6099 0b3d
00000020: ce2e 273e dc71 b03d f239 31be cefb 9f3d
00000030: 6a28 29be b53c c9bd 44be a63d 7bc2 113e
00000040: acf0 00bd 2db0 eb3d 826e 00bd 4218 dbbd
00000050: a2e8 3a3e 62ce 543c 68d2 a7bd 157e 33bd
00000060: 5e1d dfbc 14aa c73d db42 973c 8760 fcbd
00000070: 16ed 9f3d 8f8e 563d 3b63 8fbd f4e4 1c3e
00000080: e975 f8bd 430c 04be e6de 93bd 5620 013e
00000090: ba45 c7bd bbf9 c8bd 95b8 193e 09a6 b4bd
000000a0: e09c c83d c3be 3abc ef20 263e 0415 8f3d
000000b0: 0678 2fbe 6e38 853c 04e7 82bd 6b38 19be
000000c0: 134b 98bd 78a5 2cbd 832b 3fbe 565b ae3d
000000d0: 7437 203e 77e5 d7bc 5007 ccbd 7693 263e
000000e0: 81c5 f73d d089 a5bd a317 103e 7bdb b13d
000000f0: 5f9a fabd dc06 103e 1ed1 0fbe 597d e53c
00000100: b51b d3bd 6740 c03d 1d3c 433e 956b 44be
00000110: 0a9d 143e 693e 2abe d7eb 263e a755 a03d
00000120: c48f 20be a9b2 07bc ad02 c8bd a132 b6bd
00000130: a687 c73d a553 4c3e d9a7 713d e63f b53d
00000140: 6401 d3bc 2b52 f43d 4ebc 28be 9289 463c
00000150: 79a1 aabc 13a2 f33d cff8 9f3d a4b0 39be
00000160: 6bc3 f8bc da4e a23d be24 0abc 6f08 023d
00000170: 81fe 213e ad1c 293d 0334 bcbd 7086 38be
00000180: 4cfc 463d f5c0 953d 6627 31be 4c02 0d3e
00000190: 61e0 e3bd e3c1 a13d c93f b4bd 8b4e 13be
000001a0: 938a 1e3e a075 a33d 59db 843d f40d 1dbd
000001b0: 204b 57bd 989c a43d 43d1 063e eb02 873d
000001c0: 5db7 803d 3ba4 bd3d e16e e73d bec3 783d
000001d0: 9eba 0d3e 4159 283e 48dc 933d 05dd 4fbd
000001e0: 84da 543e 7ff5 ddbc 0e50 0cbe 3c85 53be
000001f0: 4758 a2bd 640b 25be 5bba 303b 2060 bcbd
00000200: de46 0bbe 780c 0abe 6cb5 7abc fa87 b1bd
00000210: 9124 f3bc ffe6 6dbd eb2e 94bc 7b2b 1b3e
00000220: ce1b 06be d4d9 5d3d ee36 523d 5412 983c
00000230: 446e e2bd e30a f23d 3761 1d3e c5d8 983c
00000240: 5b7c fcbd 1861 c7bd abac a53b ab5b 243e
00000250: a7cb 223d 68ce 203d de88 5ebc ed01 a6bd
00000260: d266 023e d8a9 293e a864 1fbe d357 efbd
00000270: 537c dabb a1e1 133e 946f 38bd 38e4 c93d
00000280: 3cbf 07be 5d47 f1bc f94c 0fbd 8633 f1bd
00000290: 4f0d 35be 15fd a4bc 5f91 e83d cc1d e23d
000002a0: 36a1 c0bc 45e8 a3bd b8ea 213e 15dc 26be
000002b0: 510c ccbd 564e 95bc 8780 f8bd 2375 edbb
000002c0: 296f 61bc eddb 0cbd 37e2 16bd 8968 d9bd
000002d0: ca2c 003e acb8 373d c5a6 60bd eb76 edbd
000002e0: 552b 043c 3272 02be 9bec 6a3b 06b9 f33d
000002f0: 9604 8cbd 6c9b 32be 6075 2e3e d424 1bbd
00000300: 6aa7 36be 067c 75be f82e babc d212 313e
00000310: 877f 193e a5a3 183d ef22 f4bd 95c9 a03d
00000320: 3006 d3bd e59e 2abe 5858 babd 9e6b d33d
00000330: d0cf 86be 40e6 f93d f4f9 183d fb23 7abe
00000340: 3436 db3c 7bcd 493d ea87 ea3d 3cb5 dbbd
00000350: 3927 fe3d c321 a3bb 9b94 c1bc 1e43 973d
00000360: 6825 3c3d 4a5f eabd 4de9 f1bb 9fa3 6fbd
00000370: e14d f5bd b6be 5cbd eda0 87bd 4cf1 f43d
00000380: 1c04 15bd d8ac 543d b6e7 523c 3772 e9bd
00000390: 75dc efbb 01b2 e33d 1790 32be 91ad 183e
000003a0: b868 04be 53cd 223e 44d7 18be 2eb4 f1bd
000003b0: 8148 fa3d f402 20be 7ed8 2ebe 9b53 18be
000003c0: 25ca 4d3d fc08 1a3e 6200 d3bd 4924 af3c
000003d0: d271 583d d812 1e3e 6d02 33bd 215a 303e
000003e0: 6cb5 01be e5d4 12be 9f4d 8dbc 8e81 67bd
000003f0: 67e2 933b 7921 21bd 934f a53d 58b4 d1bd

bias f4 [32]
-0.14362805 -0.1314493 -0.067473404 0.17479815 -0.10472538 -0.17565839 0.10442403 0.14099185
0.17206052 -0.09885302 0.17125414 -0.1564767 0.048877943 0.08981156 0.06879292 -0.07716398
0.12352368 0.12753479 -0.17076293 0.067211814 -0.076195195 -0.113631226 0.062489744 -0.14078213
0.11960845 0.1608394 -0.13073975 0.09661046 -0.12012828 -0.089457504 0.17657971 -0.06718703
00000000: 3b13 13be a59a 06be 7f2f 8abd 49fe 323e
00000010: 437a d6bd cbdf 33be 44dc d53d 2b60 103e
00000020: a230 303e 7473 cabd 3f5d 2f3e 6e3b 20be
00000030: 3d34 483d 20ef b73d 4de3 8c3d 2608 9ebd
00000040: fcf9 fc3d 7b98 023e 7adc 2ebe 59a6 893d
00000050: 3a0c 9cbd 7db7 e8bd 3ff5 7f3d 3129 10be
00000060: 46f5 f43d 15b3 243e a4e0 05be b4db c53d
00000070: d105 f6bd 7f35 b7bd 50d1 343e 5b99 89bd

weight f4 [32, 2]
-0.08593932 0.50073326 -0.1596517 -0.18741877 -0.3904852 -0.61171687 0.69856924 -0.46849403
-0.07118581 -0.39290774 0.2562286 -0.03541659 0.10401609 0.59963465 0.5075709 -0.23132913
0.02475252 0.32930404 -0.022345144 -0.6228736 0.17440633 -0.6654347 0.21308018 -0.037917428
-0.28023922 -0.24434587 0.2972844 0.55180454 0.6812407 -0.27846617 -0.58003545 0.369466
0.03458349 0.6584347 0.10747332 0.21391672 0.43129805 -0.10649055 0.17756729 0.41555014
0.54664683 -0.5327552 0.06348233 -0.20703298 -0.48323447 -0.1587363 0.46207505 -0.09564266
0.61039233 -0.2274942 0.48341873 0.48434144 -0.45294425 -0.3016779 -0.49175915 -0.056736663
0.07010893 0.31117448 0.5046673 -0.28027228 -0.43150458 0.18149166 -0.3375505 0.16763966
00000000: f400 b0bd 0e30 003f bc7b 23be b5ea 3fbe
00000010: aded c7be 7a99 1cbf 6fd5 323f 73de efbe
00000020: dec9 91bd 342b c9be 6530 833e fc10 11bd
00000030: 6306 d53d a881 193f 2bf0 013f 8be1 6cbe
00000040: ccc5 ca3c 8a9a a83e 2a0d b7bc a574 1fbf
00000050: 9397 323e ee59 2abf b131 5a3e 4e4f 1bbd
00000060: 847b 8fbe ce35 7abe a935 983e 1043 0d3f
00000070: ca65 2e3f 1e93 8ebe 347d 14bf a62a bd3e
00000080: 6ba7 0d3d 2d8f 283f f91a dc3d fc0c 5b3e
00000090: 19d3 dc3e b817 dabd 33d4 353e fdc2 d43e
000000a0: 0cf1 0b3f a562 08bf 0603 823d 7400 54be
000000b0: 826a f7be c58b 22be 1a95 ec3e 4de0 c3bd
000000c0: ac42 1c3f 3df4 68be a982 f73e 9afb f73e
000000d0: 4fe8 e7be 8775 9abe dbc7 fbbe b464 68bd
000000e0: 4595 8f3d 4352 9f3e e031 013f d97f 8fbe
000000f0: 2bee dcbe f3d8 393e 6bd3 acbe bba9 2b3e

weight f4 [32, 2]
0.12512128 0.025847457 -0.148739 0.27260754 0.020047477 -0.015278114 -0.41580594 0.63876235
-0.32826313 0.34247097 0.23499879 0.46584627 0.5080159 0.6818061 -0.22695234 -0.3099479
-0.054784115 -0.35568815 0.1845383 -0.59975034 -0.4731313 0.571593 0.32628235 -0.44529957
0.5053043 0.051457915 0.07508798 0.3863783 0.29619935 0.67275566 0.70405155 0.25082615
0.2996956 -0.44012907 -0.25280693 0.38078168 0.5291526 0.45325667 -0.5759551 -0.43156746
-0.31236443 0.5873899 0.43467742 -0.23896165 0.68492514 0.19843884 0.37557065 0.47300574
-0.0374401 -0.3261324 0.44560164 0.33958694 -0.6075755 -0.54128534 0.6742909 -0.2576214
0.6674327 -0.35738292 -0.53923947 0.35371548 -0.6683172 -0.6872002 -0.70248395 0.56668556
00000000: cb1f 003e 0cbe d33c 094f 18be 3793 8b3e
00000010: 9b3a a43c 0e51 7abc 84e4 d4be ee85 233f
00000020: 1b12 a8be 5b58 af3e 86a3 703e 6783 ee3e
00000030: 540d 023f d88a 2e3f 3266 68be 7eb1 9ebe
00000040: 4f65 60bd c21c b6be 9cf7 3c3e 3d89 19bf
00000050: 443e f2be eb53 123f 7b0e a73e 4efe e3be
00000060: 9f5b 013f 89c5 523d bac7 993d 60d3 c53e
00000070: 71a7 973e b739 2c3f b93c 343f 496c 803e
00000080: b471 993e 9958 e1be e96f 81be d1f5 c23e
00000090: 8b76 073f 4211 e83e cb71 13bf 69f6 dcbe
000000a0: 3bee 9fbe 2f5f 163f 0a8e de3e 5db2 74be
000000b0: 4157 2f3f 8d33 4b3e cc4a c03e cf2d f23e
000000c0: ca5a 19bd d3fa a6be e625 e43e 57de ad3e
000000d0: 118a 1bbf ad91 0abf 549e 2c3f f4e6 83be
000000e0: dfdc 2a3f e5fa b6be 990b 0abf 321a b53e
000000f0: d616 2bbf 5aec 2fbf fdd5 33bf 4e12 113f

bias f4 [32]
0.27944866 -0.42572114 -0.6541442 -0.45091036 -0.32999256 -0.3381396 -0.38549313 0.24214539
-0.30307445 0.36197254 0.5090392 0.06855279 -0.69188416 0.3241458 0.41911292 -0.66006607
-0.03618751 -0.144205 -0.21134533 -0.23074554 -0.16862811 0.04857633 -0.36207035 -0.51147765
-0.38055298 0.2784364 -0.41511965 -0.16846202 0.024569327 0.67547065 -0.2909841 0.6548378
00000000: e513 8f3e 1ff8 d9be ff75 27bf b9dd e6be
00000010: c9f4 a8be a220 adbe 5b5f c5be f6f4 773e
00000020: 932c 9bbe 7754 b93e 6550 023f 6865 8c3d
00000030: 521f 31bf 70f6 a53e f895 d63e 17fa 28bf
00000040: 5b39 14bd 7aaa 13be e96a 58be 8f48 6cbe
00000050: d9ac 2cbe f9f7 463d 4961 b9be 33f0 02bf
00000060: d7d7 c2be 378f 8e3e 908a d4be 4f81 2cbe
00000070: 9d45 c93c a5eb 2c3f defb 94be 73a3 273f

weight f4 [32, 32]
0.15865229 0.0022690154 -0.03355795 0.1658718 -0.17211065 -0.07043554 -0.084550776 0.16470338
0.09507828 -0.1327021 0.17171314 -0.071371876 -0.061486732 -0.06660671 -0.15165225 0.03190623
0.03494925 -0.007819854 -0.14182572 -0.06974051 -0.08939578 -0.1485138 0.07052671 -0.073196575
-0.11940089 -0.1767793 0.10571817 0.08475941 -0.09073642 0.02354788 -0.11673301 0.11160096
0.08531399 -0.085400745 0.11680927 0.11472898 -0.034990158 0.105047315 -0.0030246284 0.16260648
-0.05039419 0.016127901 0.12052952 -0.040206216 0.1097667 0.14461772 0.11724157 -0.06908394
0.023160327 0.10894687 -0.079503365 -0.07873107 -0.08798172 -0.0006012394 -0.009977595 -0.14233434
0.15990491 0.016991308 -0.13655734 -0.063920125 0.049041916 0.13742706 -0.029016756 0.09377588
0.13801435 0.059816312 -0.015479759 0.085149355 0.000534405 -0.02922463 0.10200441 -0.01051075
-0.1338561 0.10786841 -0.038186975 -0.18626651 -0.10292795 -0.10582922 0.031855438 -0.159342
0.11142356 0.12164744 -0.07337902 0.10502873 0.0018305143 -0.1774169 0.012747887 0.085361555
0.090868376 -0.06524622 -0.15985201 -0.17859387 -0.099435754 -0.0039024309 0.11439146 0.07821469
-0.119064935 -0.05147862 -0.0036878232 0.027465256 -0.06373435 0.09321153 -0.12596725 0.1727199
-0.05301827 -0.04203498 -0.017866807 -0.04558631 0.021030325 0.14294532 -0.12211514 0.10155507
-0.116611935 -0.13463838 0.061066225 -0.1831507 0.16166796 -0.045144595 -0.13663712 -0.028025886
-0.036688734 -0.102071464 -0.029809652 -0.15768933 0.044511706 0.100905575 0.12750174 -0.10573928
0.19085722 -0.0838196 0.18165039 -0.05104796 -0.052967142 -0.05100265 -0.09727808 -0.026733983
-0.16605611 -0.071272165 -0.014949753 -0.13754772 0.15458667 0.18165539 -0.102014124 -0.04212706
0.011172944 -0.08324406 -0.011860303 -0.17508784 -0.0069448133 -0.05695755 0.06509463 -0.16904275
-0.035935007 -0.0141462805 -0.11014125 -0.16531889 -0.011987976 -0.15196043 -0.14233087 0.014721463
0.14489177 0.12771411 -0.061592467 -0.019034177 0.021414781 0.0024713576 0.08694561 -0.17031278
0.020994846 0.08725562 0.121342465 0.1359539 0.077724814 -0.060156263 -0.13786307 0.0976289
0.12747395 0.018047864 -0.016142376 0.047744513 -0.18467447 0.06635747 -0.12099239 0.024964003
0.05381263 0.12292778 -0.044447333 -0.01814298 -0.10156545 0.029965801 0.15887766 -0.14607996
0.14481711 0.15266597 0.15744025 0.053472713 -0.0037149193 0.12718216 0.025746323 -0.099679686
0.1057812 0.012985095 -0.13902518 -0.07714151 -0.102325715 -0.021059826 -0.027210686 0.03653353
0.11785035 -0.017222907 0.1857929 -0.14780354 -0.12682576 0.16138595 -0.032471206 -0.17753093
0.0077714417 0.02269501 0.06927105 -0.022119017 -0.15279675 -0.005531906 0.108687766 0.102127746
0.04176292 -0.13448817 0.021543251 -0.030929105 -0.11878706 -0.09937034 -0.046341565 -0.1372616
-0.11931504 -0.117772974 -0.121462315 0.08510856 -0.15469782 -0.04703153 0.1134535 -0.10668291
0.010723699 0.08025121 0.0470599 -0.13439165 0.012618835 0.086668335 -0.164969 0.14534916
0.05032526 0.048415758 0.082016475 -0.16849649 0.07087355 0.06319166 0.016413728 -0.05383669
00000000: bf75 223e c3b3 143b 1074 09bd 4cda 293e
00000010: c63d 30be 8240 90bd f528 adbd 01a8 283e
00000020: 67b8 c23d 0fe3 07be 92d5 2f3e 6b2b 92bd
00000030: 83d9 7bbd 1969 88bd ba4a 1bbe 1bb0 023d
00000040: f226 0f3d d81e 00bc c33a 11be 1dd4 8ebd
00000050: 2215 b7bd 0014 18be 4f70 903d 16e8 95bd
00000060: 7488 f4bd a205 35be c582 d83d 5796 ad3d
00000070: 04d4 b9bd 7ce7 c03c b711 efbd 0b8f e43d
00000080: 1ab9 ae3d 96e6 aebd b339 ef3d 07f7 ea3d
00000090: d751 0fbd 0c23 d73d d838 46bb 5082 263e
000000a0: 236a 4ebd a91e 843c 2ed8 f63d 46af 24bd
000000b0: 5dcd e03d ab16 143e 591c f03d e17b 8dbd
000000c0: baba bd3c 891f df3d a9d2 a2bd c13d a1bd
000000d0: c32f b4bd 7e9c 1dba 1179 23bc 18c0 11be
000000e0: 1dbe 233e 5b31 8b3c b0d5 0bbe 8ee8 82bd
000000f0: 2de0 483d aeb9 0c3e 8cb4 edbc 920d c03d
00000100: a253 0d3e f301 753d d19e 7dbc c962 ae3d
00000110: 5017 0c3a 7e68 efbc b0e7 d03d 4835 2cbc
00000120: 9311 09be 1dea dc3d f269 1cbd a6bc 3ebe
00000130: e4cb d2bd fdbc d8bd d97a 023d 8d2a 23be
00000140: 0932 e43d 4b22 f93d bd47 96bd 4e19 d73d
00000150: deed ef3a c7ac 35be 83dc 503c 0ad2 ae3d
00000160: 3319 ba3d cf9f 85bd 3fb0 23be 50e1 36be
00000170: f9a4 cbbd edbf 7fbb 1246 ea3d 062f a03d
00000180: 51d8 f3bd 3fdb 52bd 68af 71bb d1fe e03c
00000190: 2887 82bd b0e5 be3d 8ffd 00be 7cdd 303e
000001a0: af29 59bd df2c 2cbd 695d 92bc b6b8 3abd
000001b0: ca47 ac3c 4260 123e 8117 fabd 1bfc cf3d
000001c0: 3dd2 eebd a5de 09be 9420 7a3d db8b 3bbe
000001d0: 498c 253e 8ae9 38bd 9aea 0bbe 8b96 e5bc
000001e0: ed46 16bd d80a d1bd 5f33 f4bc 5079 21be
000001f0: e851 363d 95a7 ce3d d18f 023e d68d d8bd
00000200: 1370 433e 9ca9 abbd 8f02 3a3e aa17 51bd
00000210: 13f4 58bd 28e8 50bd bb39 c7bd 3a01 dbbc
00000220: 9d0a 2abe 24f7 91bd cfef 74bc 4fd9 0cbe
00000230: f84b 1e3e df03 3a3e c8ec d0bd 6d8d 2cbd
00000240: b90e 373c dd7b aabd b751 42bc 3a4a 33be
00000250: 5191 e3bb 524c 69bd 5550 853d 8b19 2dbe
00000260: 9630 13bd cdc5 67bc bc91 e1bd 5b49 29be
00000270: 3769 44bc 849b 1bbe 2fbf 11be 4b32 713c
00000280: 825e 143e 7dc7 023e 6248 7cbd 90ed 9bbc
00000290: 0d6e af3c 80f6 213b 8a10 b23d 7966 2ebe
000002a0: 62fd ab3c 13b3 b23d 6682 f83d 8037 0b3e
000002b0: 302e 9f3d 6a66 76bd fa2b 0dbe a9f1 c73d
000002c0: 8888 023e 1dd9 933c 043d 84bc c08f 433d
000002d0: 4e1b 3dbe 6de6 873d dcca f7bd 4f81 cc3c
000002e0: a26a 5c3d 8fc1 fb3d 680e 36bd 96a0 94bc
000002f0: 8c01 d0bd d77a f53c d3b0 223e fc95 15be
00000300: f04a 143e 7854 1c3e 0438 213e 3406 5b3d
00000310: 0176 73bb 0a3c 023e f4e9 d23c dd24 ccbd
00000320: d0a3 d83d 70bf 543c 9e5c 0ebe 5efc 9dbd
00000330: 2590 d1bd a885 acbc f2e8 debc 2fa4 153d
00000340: 865b f13d 0e17 8dbc 7e40 3e3e d059 17be
00000350: 9dde 01be 5c42 253e 8700 05bd abca 35be
00000360: 94a7 fe3b e3ea b93c fbdd 8d3d f132 b5bc
00000370: c076 1cbe fe44 b5bb b197 de3d 5a28 d13d
00000380: 980f 2b3d 44b7 09be 797b b03c 095f fdbc
00000390: a146 f3bd ad82 cbbd a7d0 3dbd 4e8e 0cbe
000003a0: 725b f4bd f532 f1bd 3cc1 f8bd 664d ae3d
000003b0: 1b69 1ebe 22a4 40bd 4f5a e83d 927c dabd
000003c0: 74b2 2f3c bf5a a43d e2c1 403d f79d 09be
000003d0: 3bbf 4e3c 2b7f b13d a2ed 28be 69d6 143e
000003e0: dc21 4e3d 9a4f 463d 41f8 a73d 588a 2cbe
000003f0: 2726 913d a16a 813d 1576 863c dc83 5cbd

weight f4 [32, 32]
0.21773484 0.14284647 -0.115615696 -0.09861597 -0.0761063 -0.20754056 -0.10475958 0.12348256
-0.17463525 -0.17655092 -0.07554604 0.1572508 0.1353175 0.06964807 -0.015900012 0.14488532
-0.23132516 -0.04576797 -0.06318352 0.10995094 -0.048530787 0.23962803 0.0507463 -0.07985967
0.075643644 0.045561932 0.027521826 0.09350271 0.18165132 -0.2372505 0.11177109 -0.19067307
0.0047877803 0.1499619 -0.006632905 -0.17452484 -0.07576562 0.124677934 0.07149694 0.21126062
-0.116153456 -0.088753015 -0.10237371 -0.070050396 0.11813409 -0.18468949 0.18511617 -0.2244568
0.070040986 0.0668783 0.226551 -0.17027643 -0.1781828 -0.25052282 -0.27366877 0.18411149
-0.016063435 -0.022062493 0.11579449 0.011799189 0.098529465 0.23326614 0.22289054 0.06512452
-0.15408643 0.01514635 0.13422467 0.12266357 0.013313506 -0.1607505 0.14297606 0.13485157
-0.10780204 0.09198908 -0.12558483 -0.05980537 -0.053388786 0.13223538 -0.0369069 0.09141791
-0.01549825 -0.084804796 -0.020431444 -0.034384977 -0.15599062 -0.03712925 0.14363487 0.14617978
0.040884193 -0.14733124 0.1420535 0.107498005 0.05370194 -0.03257488 0.118982725 -0.15923005
0.12459921 -0.13849425 -0.036723748 0.13402626 -0.13094701 -0.15505956 -0.059652414 -0.05203267
-0.20559597 -0.12621342 0.17083201 -0.042341392 -0.11065693 0.16645056 -0.23650336 -0.020947287
0.1665105 -0.13953328 0.28232148 -0.13782755 0.16939886 -0.12334583 -0.06929403 -0.02459891
0.040881697 -0.1677253 -0.08412007 -0.10876218 0.014473114 -0.03846942 -0.08367786 -0.087433256
0.12372032 -0.023196917 -0.004661047 -0.01366369 -0.10709017 -0.022414995 -0.0816525 0.0984249
-0.0936828 -0.104454815 0.091681644 0.08269738 -0.013306009 -0.13384584 0.0118355 -0.0073721046
-0.08648841 0.024888514 -0.0009189867 -0.14827271 -0.09148712 0.06533531 0.09805373 -0.07075391
-0.0907824 0.008041254 0.087634765 0.09501735 -0.06453819 -0.10592979 0.07976051 0.0068268925
-0.058888875 -0.08707828 0.024074405 -0.20364448 -0.13302387 -0.032258548 0.09369037 0.10559287
-0.017198049 -0.10169734 0.028753554 0.15208773 0.12839302 -0.143343 0.061860193 0.07267277
-0.14101131 -0.07930134 -0.05857753 0.0062111686 0.11104118 0.22603433 0.088169664 0.097971536
0.073490135 -0.012056797 0.13886623 -0.15814178 0.08509254 0.06583153 -0.059063587 -0.25205502
0.038167298 0.15199302 -0.06436199 0.19147949 -0.17487304 0.11322777 0.08427896 -0.030952469
0.14692366 -0.005454199 -0.0309987 -0.16479479 -0.23012199 0.04690072 -0.16378832 -0.012615997
0.10689431 -0.09794234 0.18158814 0.033116322 -0.06577414 -0.22818938 -0.30610374 -0.19716099
0.22780249 -0.16336009 -0.21601927 0.15902694 -0.22959217 -0.0450263 0.20409001 0.26287186
-0.010793574 0.096409276 -0.11971656 -0.12345611 -0.081789434 0.05614103 -0.11161456 0.078520335
0.06972509 0.089171074 -0.0025482597 0.09946557 -0.021656461 0.121941045 -0.06497755 0.18410823
0.0056152605 -0.1751824 -0.007500045 -0.057376392 0.037218932 0.21203008 -0.06673222 0.1571795
-0.038978294 0.12840949 0.10981966 0.10458209 0.024137763 0.05422199 -0.17521831 0.04930608
00000000: e2f5 5e3e 5846 123e ecc7 ecbd 2bf7 c9bd
00000010: 9fdd 9bbd 8385 54be 318c d6bd 6de4 fc3d
00000020: 95d3 32be c4c9 34be e2b7 9abd 5b06 213e
00000030: ac90 0a3e a6a3 8e3d be40 82bc d15c 143e
00000040: 81e0 6cbe 3277 3bbd 5d66 81bd f52d e13d
00000050: 38c8 46bd 0d61 753e 5adb 4f3d 778d a3bd
00000060: 0eeb 9a3d 269f 3a3d 7475 e13c 597e bf3d
00000070: ce02 3a3e ccf1 72be 3ee8 e43d cd3f 43be
00000080: d0e2 9c3b 9d8f 193e d758 d9bb a4b6 32be
00000090: 012b 9bbd 2557 ff3d fd6c 923d b454 583e
000000a0: dde1 edbd 24c4 b5bd 4fa9 d1bd 9576 8fbd
000000b0: 49f0 f13d 3e1f 3dbe 188f 3d3e 01d8 65be
000000c0: a671 8f3d 7df7 883d fcfc 673e f25c 2ebe
000000d0: 8d75 36be 8744 80be 501e 8cbe b987 3c3e
000000e0: 7797 83bc 67bc b4bc a925 ed3d 6351 413c
000000f0: d1c9 c93d 52dd 6e3e 6b3d 643e 0160 853d
00000100: d5c8 1dbe 6528 783c 3172 093e 0a37 fb3d
00000110: e420 5a3c c79b 24be 5168 123e 8816 0a3e
00000120: 51c7 dcbd c564 bc3d 4f99 00be 7af6 74bd
00000130: 33ae 5abd b668 073e b12b 17bd 5039 bb3d
00000140: 5fec 7dbc 23ae adbd d85f a7bc 43d7 0cbd
00000150: 01bc 1fbe d714 18bd 0515 133e 27b0 153e
00000160: 2f76 273d 00de 16be 7976 113e ea27 dc3d
00000170: 91f6 5b3d 3d6d 05bd 37ad f33d 340d 23be
00000180: df2d ff3d 70d1 0dbe a46b 16bd 2e3e 093e
00000190: f916 06be efc7 1ebe 1756 74bd 3520 55bd
000001a0: c087 52be 173e 01be 96ee 2e3e 2b6e 2dbd
000001b0: 1aa0 e2bd 0472 2a3e f02d 72be a599 abbc
000001c0: ba81 2a3e d0e1 0ebe 718c 903e aa22 0dbe
000001d0: e576 2d3e bd9c fcbd 07ea 8dbd a783 c9bc
000001e0: 9173 273d 2ec0 2bbe 2547 acbd b5be debd
000001f0: a420 6d3c 1c92 1dbd 4c5f abbd 3510 b3bd
00000200: 1461 fd3d 7607 bebc b2bb 98bb abdd 5fbc
00000210: 1752 dbbd a79f b7bc 6d39 a7bd fe92 c93d
00000220: c5dc bfbd 68ec d5bd 96c3 bb3d 3e5d a93d
00000230: 7201 5abc e20e 09be afe9 413c b291 f1bb
00000240: d620 b1bd ffe2 cb3c 27e8 70ba cdd4 17be
00000250: 995d bbbd 85ce 853d 65d0 c83d 6de7 90bd
00000260: 1fec b9bd 77bf 033c db79 b33d 7598 c23d
00000270: 992c 84bd b8f1 d8bd 7a59 a33d 20b4 df3b
00000280: 7635 71bd 1956 b2bd b037 c53c 2e88 50be
00000290: 6937 08be 8a21 04bd bde0 bf3d 1341 d83d
000002a0: ece2 8cbc b246 d0bd 938c eb3c e3bc 1b3e
000002b0: 7679 033e 82c8 12be 1d61 7d3d 76d5 943d
000002c0: 4565 10be be68 a2bd feee 6fbd 0f87 cb3b
000002d0: 8f69 e33d 8b75 673e 4c92 b43d 4da5 c83d
000002e0: ff81 963d df89 45bc f332 0e3e ebef 21be
000002f0: ff44 ae3d aed2 863d a9ec 71bd 5b0d 81be
00000300: 5055 1c3d 0fa4 1b3e 38d0 83bd 3313 443e
00000310: eb11 33be f6e3 e73d 739a ac3d 0890 fdbc
00000320: 2873 163e 23b9 b2bb fcf0 fdbc f7bf 28be
00000330: 19a5 6bbe f81a 403d 20b8 27be 54b3 4ebc
00000340: 67eb da3d fe95 c8bd 3ef2 393e fba4 073d
00000350: 98b4 86bd 7aaa 69be a1b9 9cbe 92e4 49be
00000360: 0e45 693e de47 27be 2834 5dbe f5d7 223e
00000370: 361a 6bbe 7f6d 38bd f9fc 503e 2497 863e
00000380: 88d7 30bc 3a72 c53d f52d f5bd 8fd6 fcbd
00000390: 3881 a7bd 23f4 653d 2d96 e4bd 45cf a03d
000003a0: 07cc 8e3d 539f b63d b400 27bb 9bb4 cb3d
000003b0: e468 b1bc 3abc f93d f312 85bd de86 3c3e
000003c0: 3800 b83b 0463 33be f0c2 f5bb 8203 6bbd
000003d0: e172 183d 6a1e 593e e7aa 88bd aaf3 203e
000003e0: b4a7 1fbd c77d 033e 21e9 e03d 232f d63d
000003f0: 8fbc c53c e117 5e3d 6e6c 33be 2cf5 493d

bias f4 [32]
0.06651742 -0.12700996 0.01688983 -0.04402976 -0.008948921 0.02512259 0.08775365 -0.17013319
0.11992649 0.06497797 0.035563543 -0.11890907 0.101236664 0.11497952 -0.092818126 -0.04910576
0.13085203 -0.100055866 -0.07024728 0.1499091 0.14556633 -0.08964065 -0.05473412 0.16287346
0.18558414 0.025201544 0.083026364 0.077491574 -0.09863486 0.15166779 -0.069010824 0.09195662
00000000: 493a 883d e60e 02be 8a5c 8a3c 8d58 34bd
00000010: 7f9e 12bc e4cd cd3c 30b8 b33d 6537 2ebe
00000020: 059c f53d 2c13 853d 14ab 113d 9986 f3bd
00000030: 2b55 cf3d 627a eb3d 6e17 bebd 1f23 49bd
00000040: 13fe 053e 17ea ccbd cedd 8fbd c581 193e
00000050: 570f 153e 8495 b7bd e230 60bd 4dc8 263e
00000060: c509 3e3e 7873 ce3c ba09 aa3d e7b3 9e3d
00000070: 1301 cabd cd4e 1b3e 8c55 8dbd c153 bc3d
