anp_models/anp_link_prediction_next_topic_fixed_overfit_2024_10_17_14_16_38/model.pt (torch, 216668 bytes, 70 tensors)

att_src f4 [1, 4, 32]
000000 42 c6 1f be 76 b9 6d 3e d4 1a 4e be 50 32 61 3e
       -0.15602973 0.23215279 -0.20127422 0.21991849
000010 73 49 9a be 2b 8c b9 3e fe 84 be 3d 39 07 9b be
       -0.30134162 0.36239752 0.0930271 -0.30278948
000020 4d 0c a4 bd d4 c6 89 3e fe 82 41 bd a0 f0 b1 bd
       -0.08010159 0.26909506 -0.047244065 -0.08688474
000030 fb cd a0 be ff 93 89 3e a2 32 90 be cc e3 99 3e
       -0.3140715 0.26870725 -0.2816363 0.30056608
000040 c8 cf fc bd 02 d2 28 3e 9c b0 91 be 4f 14 9e be
       -0.12344319 0.16486362 -0.28455055 -0.3087487
000050 4a b4 91 be f6 e3 b4 3d 28 9f 5e be a7 c4 35 3e
       -0.28457862 0.088325426 -0.21740401 0.17750798
000060 f8 01 27 be c1 f1 90 3e 91 d9 5d bd 00 4f c1 be
       -0.16309345 0.28309444 -0.054162566 -0.37755585
000070 e6 de c8 3e 5c 9c 9d be 64 6c 04 3e cc da d1 bd
       0.39232558 -0.30783355 0.12931973 -0.1024681
000080 8c 88 df bd 82 11 6c 3e 99 c4 c9 3c 27 65 93 be
       -0.10914716 0.23053554 0.024629878 -0.2878811
000090 0a a9 9b 3d bb 5f 26 be 71 71 ff bd 85 be 78 bd
       0.07600601 -0.16247456 -0.12472809 -0.06072857
0000a0 4d 22 bb 3e af 4f d2 3d bd ad 31 3e cc ea a6 3e
       0.36549607 0.10269105 0.17351432 0.3260101
0000b0 ed ab c6 3e 21 32 f0 3d ba 22 f7 3d 07 ed ca 3e
       0.38803044 0.11728311 0.120671704 0.39633963
0000c0 e2 40 a8 be 6b 06 b1 3c 47 c9 73 bd 79 2c a9 be
       -0.32862002 0.021609506 -0.059518125 -0.33041742
0000d0 0e 97 a5 be 38 a6 f3 bd 62 40 41 3e 60 40 5b 3e
       -0.32341808 -0.11896938 0.18872216 0.21411276
0000e0 c9 43 c7 3e ac 94 d0 3e b8 4e 1e 3e c8 bd ae bd
       0.38918903 0.40738428 0.15459716 -0.08532292
0000f0 e6 40 8e be 9e 35 86 3e 6f 0c 7d 3d c6 ae 89 3e
       -0.2778389 0.26212782 0.061779436 0.26891154
000100 22 03 82 3d b6 f4 80 be ca ef a6 3d 12 07 c5 be
       0.06348254 -0.251867 0.08151205 -0.38481957
000110 83 e3 0c 3d c2 7d cc be ba de ab be fd 57 3c 3e
       0.03439666 -0.39939696 -0.33568364 0.1839294
000120 67 38 cf 3e 10 1f aa 3d 4a 4b c7 be bd d8 4f be
       0.4047272 0.08306706 -0.38924628 -0.20297523
000130 b5 61 94 be f9 b9 08 be 81 d9 0e bd 5c 0d 93 3e
       -0.28980795 -0.13352193 -0.034875397 0.2872113
000140 e4 b7 56 be 40 bb 4b bd 19 a8 6c 3e 1d 32 2d bd
       -0.20968586 -0.049739122 0.23110999 -0.04228412
000150 fd f1 2d 3d 09 49 2f 3e c3 cf b1 be ee 07 b8 3d
       0.042467106 0.17117704 -0.34728822 0.089858875
000160 61 2d 5f 3e 2e 19 18 3e bf 54 4f 3e 31 16 82 be
       0.21794654 0.14853355 0.20247172 -0.25407556
000170 6e a8 6d 3b 39 38 6e be b3 6a c0 3e 1b 4d 3c 3e
       0.0036263722 -0.23263635 0.37581405 0.18388788
000180 8b 4b b9 bd ae e8 b5 bc 70 43 bb 3e e4 ac b8 bc
       -0.09047612 -0.022205677 0.36574888 -0.022543378
000190 14 c3 84 bd a1 ee eb 3d 9f dc b1 3e 20 63 6e 3e
       -0.06482521 0.11520124 0.34738633 0.2328
0001a0 fc 2e a1 3c 62 2e 9c 3e 1a 79 d9 bd af d8 99 bd
       0.019675724 0.30504137 -0.106188014 -0.07512032
0001b0 f9 22 a7 bd 8a 81 a1 3e 8a a2 ce 3e 35 15 d0 3e
       -0.081609674 0.31544143 0.40358382 0.4064118
0001c0 d2 28 38 3e d0 2b 81 3e cc 04 3f bc 28 d0 a9 be
       0.17984322 0.2522874 -0.0116588585 -0.33166623
0001d0 1c 7d 98 bc 8f ef c4 be f6 60 43 3e 76 c3 a9 bc
       -0.018614344 -0.3846402 0.19079956 -0.020723086
0001e0 2d 4a c5 3e da f1 67 be 1e 4f bf be 80 0f cd bd
       0.38533154 -0.22650853 -0.3736505 -0.10012722
0001f0 70 17 b2 bc cb b2 5d 3e 10 7f ad 3e 27 6a f4 3d
       -0.021739691 0.21650235 0.33886003 0.119343095

att_dst f4 [1, 4, 32]
000000 49 c3 8b be 99 77 06 be b0 df 92 3e fc 3c fe bc
       -0.27297428 -0.1313156 0.28686285 -0.031034939
000010 29 24 ab bd 60 3e b8 3e 13 2e cb be 7e ff 55 be
       -0.083565064 0.35985088 -0.3968359 -0.20898244
000020 1c de af be 0f e4 b4 3e 65 32 e4 3c e4 62 4b 3e
       -0.34349144 0.35330245 0.027856061 0.19861943
000030 28 27 f1 bd 0c 1c 59 3d 48 31 cb be 28 c1 35 be
       -0.117750466 0.053005263 -0.39686036 -0.17749465
000040 9b ca 29 bd ec d2 d7 bd 12 34 b5 3e 61 7b 1c be
       -0.041452985 -0.10538277 0.3539129 -0.1528144
000050 0c 7d 14 be 9e 4b 86 3e e4 83 bb 3e db 1a a8 bd
       -0.14500827 0.26229566 0.36624062 -0.08208247
000060 3e 1f b5 3e 94 8d 07 be bf bf 40 bc 91 0d c3 be
       0.35375398 -0.13237602 -0.011764466 -0.38096288
000070 d4 b7 cf 3e 6f 60 21 3e 96 ff 8f 3e 04 18 1d be
       0.40569937 0.15759443 0.28124684 -0.15341192
000080 b6 20 cb 3e b2 33 cd 3e 15 7c 89 3e 62 7e d0 ba
       0.39673394 0.40078503 0.2685248 -0.0015906806
000090 f7 f1 cf 3e 45 c8 80 be 57 00 8f 3d 83 99 9e 3e
       0.40614292 -0.25152794 0.06982487 0.30976495
0000a0 2a 9c 2e 3e 7e e4 c8 bd 39 76 6f 3e 03 0e a5 be
       0.1705176 -0.098092064 0.23384942 -0.32237253
0000b0 93 00 a9 3d 20 f1 be be e6 ad 97 3d 80 5e 3a bd
       0.08252063 -0.3729334 0.07406215 -0.04550028
0000c0 86 a2 1f be e8 2b 9d bd 53 8b c3 3e 1d d2 15 3e
       -0.15589342 -0.0767439 0.38192233 0.14630933
0000d0 3d 96 47 3e fb ef 8d be 37 09 9a 3c d4 db 60 be
       0.19490905 -0.27722153 0.018803222 -0.21958858
0000e0 14 97 a4 be 7b 4e c6 3e d8 fd a6 be f5 84 54 be
       -0.32146513 0.3873175 -0.32615542 -0.20753844
0000f0 09 a7 c5 be 3a f9 1f bc db 6f 1d bd 80 53 8d be
       -0.38604 -0.00976401 -0.03843675 -0.27602768
000100 8e 32 a4 be b3 3f 97 be 44 74 85 3e bd 3d 9f bc
       -0.3206982 -0.29540786 0.26065266 -0.019438619
000110 dd ae c2 3e 62 aa 71 be 8d b9 cc 3e 2b 66 07 bd
       0.38024035 -0.23600152 0.39985314 -0.03305642
000120 de 29 b8 3d 32 60 c1 3e 1c c5 f6 3d f3 fc ba 3d
       0.089923605 0.37768704 0.120493144 0.091302775
000130 f3 ff 28 be f0 ca c4 be 81 5a 20 be f5 9a 2d be
       -0.16503887 -0.3843608 -0.15659525 -0.16953643
000140 e9 17 9a 3c 23 24 98 be 18 61 0f 3e db bf 07 3e
       0.01881023 -0.2971507 0.14001882 0.13256781
000150 cf f1 b7 3e 2d 96 a3 3e 40 7b f3 bd 0d 70 c4 be
       0.35926673 0.31950513 -0.118887424 -0.38366738
000160 49 85 1a 3e 75 5a 91 bd a9 4f c9 be ca d4 0d be
       0.15089907 -0.070973314 -0.39318588 -0.13850704
000170 b9 64 c4 bd ea 0f 82 3c 9d 84 88 be c3 0c b3 be
       -0.09589524 0.015876729 -0.26663676 -0.34970674
000180 c5 24 db bc db e1 cb 3e b6 73 97 3e df 20 bf be
       -0.026750932 0.39820752 0.29580468 -0.37329766
000190 60 bc d0 3e 8e cc b8 3e 2a 42 bd be 15 78 87 3e
       0.4076872 0.36093563 -0.36964542 0.26458803
0001a0 28 ef b4 be de 3f 9a be 82 14 9d 3d 3e 5c c5 3e
       -0.35338712 -0.30126852 0.07669927 0.38546938
0001b0 23 42 ad bd 83 1a bf bd 1c 84 a5 3e 85 fe a4 be
       -0.0845988 -0.093312286 0.32327354 -0.32225433
0001c0 a6 d7 31 bd 9d 76 4b 3d b4 de 1e be 58 f6 9e be
       -0.04341855 0.049673665 -0.15514642 -0.3104732
0001d0 d2 15 22 3e 3b 50 61 3d d8 c5 6e bd 18 67 37 3e
       0.15828636 0.055008154 -0.058294147 0.17910421
0001e0 73 d4 14 be 98 e2 47 be 3e ec 46 3e dc 32 06 bd
       -0.14534168 -0.19520032 0.19426057 -0.032763347
0001f0 c9 61 95 be e8 99 4e 3e 41 0f 38 bd 7f eb 86 be
       -0.29176167 0.20175898 -0.044936422 -0.26351544

bias f4 [128]
000000 00 00 00 00 00 00 00 00 00 00 00 00 00 00 00 00
       0.0 0.0 0.0 0.0
000010 00 00 00 00 00 00 00 00 00 00 00 00 00 00 00 00
       0.0 0.0 0.0 0.0
000020 00 00 00 00 00 00 00 00 00 00 00 00 00 00 00 00
       0.0 0.0 0.0 0.0
000030 00 00 00 00 00 00 00 00 00 00 00 00 00 00 00 00
       0.0 0.0 0.0 0.0
000040 00 00 00 00 00 00 00 00 00 00 00 00 00 00 00 00
       0.0 0.0 0.0 0.0
000050 00 00 00 00 00 00 00 00 00 00 00 00 00 00 00 00
       0.0 0.0 0.0 0.0
000060 00 00 00 00 00 00 00 00 00 00 00 00 00 00 00 00
       0.0 0.0 0.0 0.0
000070 00 00 00 00 00 00 00 00 00 00 00 00 00 00 00 00
       0.0 0.0 0.0 0.0
000080 00 00 00 00 00 00 00 00 00 00 00 00 00 00 00 00
       0.0 0.0 0.0 0.0
000090 00 00 00 00 00 00 00 00 00 00 00 00 00 00 00 00
       0.0 0.0 0.0 0.0
0000a0 00 00 00 00 00 00 00 00 00 00 00 00 00 00 00 00
       0.0 0.0 0.0 0.0
0000b0 00 00 00 00 00 00 00 00 00 00 00 00 00 00 00 00
       0.0 0.0 0.0 0.0
0000c0 00 00 00 00 00 00 00 00 00 00 00 00 00 00 00 00
       0.0 0.0 0.0 0.0
0000d0 00 00 00 00 00 00 00 00 00 00 00 00 00 00 00 00
       0.0 0.0 0.0 0.0
0000e0 00 00 00 00 00 00 00 00 00 00 00 00 00 00 00 00
       0.0 0.0 0.0 0.0
0000f0 00 00 00 00 00 00 00 00 00 00 00 00 00 00 00 00
       0.0 0.0 0.0 0.0
000100 00 00 00 00 00 00 00 00 00 00 00 00 00 00 00 00
       0.0 0.0 0.0 0.0
000110 00 00 00 00 00 00 00 00 00 00 00 00 00 00 00 00
       0.0 0.0 0.0 0.0
000120 00 00 00 00 00 00 00 00 00 00 00 00 00 00 00 00
       0.0 0.0 0.0 0.0
000130 00 00 00 00 00 00 00 00 00 00 00 00 00 00 00 00
       0.0 0.0 0.0 0.0
000140 00 00 00 00 00 00 00 00 00 00 00 00 00 00 00 00
       0.0 0.0 0.0 0.0
000150 00 00 00 00 00 00 00 00 00 00 00 00 00 00 00 00
       0.0 0.0 0.0 0.0
000160 00 00 00 00 00 00 00 00 00 00 00 00 00 00 00 00
       0.0 0.0 0.0 0.0
000170 00 00 00 00 00 00 00 00 00 00 00 00 00 00 00 00
       0.0 0.0 0.0 0.0
000180 00 00 00 00 00 00 00 00 00 00 00 00 00 00 00 00
       0.0 0.0 0.0 0.0
000190 00 00 00 00 00 00 00 00 00 00 00 00 00 00 00 00
       0.0 0.0 0.0 0.0
0001a0 00 00 00 00 00 00 00 00 00 00 00 00 00 00 00 00
       0.0 0.0 0.0 0.0
0001b0 00 00 00 00 00 00 00 00 00 00 00 00 00 00 00 00
       0.0 0.0 0.0 0.0
0001c0 00 00 00 00 00 00 00 00 00 00 00 00 00 00 00 00
       0.0 0.0 0.0 0.0
0001d0 00 00 00 00 00 00 00 00 00 00 00 00 00 00 00 00
       0.0 0.0 0.0 0.0
0001e0 00 00 00 00 00 00 00 00 00 00 00 00 00 00 00 00
       0.0 0.0 0.0 0.0
0001f0 00 00 00 00 00 00 00 00 00 00 00 00 00 00 00 00
       0.0 0.0 0.0 0.0

weight f4 [128, 2]
000000 ae c5 81 3c 8d c5 c3 bc b3 34 d6 bd e6 e9 c0 bd
       0.015841331 -0.02389791 -0.1045927 -0.094196126
000010 0b a3 4e be 7c 7d bb 3d e1 17 5a bd 81 c7 fb bd
       -0.20179383 0.091547936 -0.05324543 -0.12293912
000020 bc 0d ff bd 6c bd 85 bd 4c 7c 25 be ec 13 44 be
       -0.124537915 -0.0653027 -0.16160697 -0.19148225
000030 95 e6 96 bd 50 fb fb bd d1 e7 2c 3e 6f 58 44 be
       -0.07368199 -0.123037934 0.16885306 -0.1917436
000040 2c 2d 53 3e 4a 46 8a bd 6c 6a e3 39 4e 52 8a 3b
       0.206227 -0.06751688 0.00043376104 0.0042212373
000050 d4 74 07 3e b5 c5 a7 bb 69 07 22 be 44 fc 10 3e
       0.1322816 -0.005120004 -0.15823139 0.14158732
000060 a0 6c f0 3c b2 f5 dc bd c1 a3 26 3e 27 04 ac bd
       0.029348671 -0.1078905 0.16273405 -0.083992295
000070 6b 2d 2e 3e cb fa b1 3d 32 e3 29 bd 72 63 ff 3d
       0.17009513 0.08690413 -0.041476436 0.124701396
000080 dc fb b5 3d e7 e6 45 3e ec 7d 29 be 79 bc a9 3c
       0.08885929 0.19326364 -0.16551942 0.020719754
000090 af da 10 3d cc f5 fc bc 4b 2f 5b 3e 74 18 df 3a
       0.035364803 -0.030878924 0.2140476 0.0017020837
0000a0 da 39 35 3e 32 75 2d bd db cf b2 3b 2e 95 35 be
       0.1769785 -0.042348094 0.005456907 -0.17732689
0000b0 e3 f1 43 be c0 b2 e8 3c 56 c0 33 3e 93 ed 48 3e
       -0.19135241 0.028405547 0.17553839 0.19621877
0000c0 48 36 f4 3c b7 59 a9 3d f9 12 1f be b7 ae ac 3d
       0.02981104 0.08269065 -0.15534581 0.08431762
0000d0 00 bd 8b 3d d1 76 5d 3b be 94 f6 bd 98 58 af bd
       0.06823158 0.0033792744 -0.12040089 -0.0856182
0000e0 7a 32 99 3d 04 16 2c 3e eb e6 30 3e 57 b4 37 3d
       0.07480331 0.16805273 0.17275588 0.04484972
0000f0 cd a1 6b bd ae ce db bc 1c 8c d0 3d 3c d4 1e 3e
       -0.057527352 -0.026831951 0.10182974 0.15510648
000100 d6 d5 bb 3d a1 4b 47 be 5c e3 00 be 88 74 b7 3d
       0.09171645 -0.19462444 -0.1258673 0.089577734
000110 5f ca 27 3e 57 01 5a be 69 1d 1e be 56 3d a4 3d
       0.16385792 -0.21289574 -0.15440907 0.080195114
000120 5f 98 0f 3e 16 8f 48 be c1 97 20 be 32 7b 51 3c
       0.14022969 -0.19585833 -0.1568289 0.01278572
000130 54 d6 e5 3d 1a d0 53 be 11 60 a5 bd cf 1b 2c 3e
       0.112225205 -0.20684853 -0.08074964 0.16807483
000140 b8 6c 2b bd f1 38 37 bd ad 1d 8d 3d af 78 a5 3d
       -0.04185173 -0.044732038 0.06890426 0.08079659
000150 2a 6e 30 be 31 7b 10 bb 6f a4 cd bd 3b 89 46 be
       -0.17229524 -0.0022046084 -0.10041129 -0.19388287
000160 07 eb 0b 3d 71 40 d6 bd 8b 14 f0 3c 8a 3c 4c 3e
       0.034159686 -0.1046151 0.02930667 0.19944969
000170 cc a2 0f bd d3 bc 4a 3e b8 df 0a bc 84 4d 55 3e
       -0.035067365 0.19798593 -0.00847619 0.20830351
000180 13 1f 24 3e 5d d6 40 3e 84 c8 1b bd d1 3d 37 3e
       0.16027479 0.18831773 -0.038033023 0.17894675
000190 11 cb ea bd 1f e3 44 3d 94 85 0d 3c 12 e8 2c 3e
       -0.11464513 0.048068162 0.008637805 0.16885403
0001a0 6d a2 e2 3d 99 7a 0e 3e 90 57 a3 bd d2 47 76 3d
       0.110661365 0.13913955 -0.079756856 0.060127087
0001b0 08 24 23 be bb c7 df 3d 80 4a 05 3e c6 82 e0 bb
       -0.15931714 0.109267674 0.130167 -0.006851527
0001c0 a8 48 f7 3d 53 ac ca bc 3c 2f fd bb eb a1 45 3d
       0.12074405 -0.024740374 -0.007726578 0.04825012
0001d0 e4 83 05 be 86 10 e2 3d 78 be 93 bd 66 7e 3b be
       -0.13038594 0.11038308 -0.072140634 -0.18309936
0001e0 fb 86 24 3e c6 38 06 3e 52 46 06 bd bb c6 03 be
       0.16067116 0.13107595 -0.032781906 -0.12868778
0001f0 77 48 f6 3d f4 a6 1b be 5a 69 58 3e 1a 78 a8 3d
       0.1202554 -0.15200406 0.21133938 0.082260326
000200 7d 1a 23 bd 35 4d 43 be 62 31 54 be 80 29 50 3e
       -0.039820183 -0.19072421 -0.20721963 0.20328331
000210 91 14 92 bd 65 4f 4d 3e d4 ca d6 3c e8 67 94 3d
       -0.07132829 0.20049818 0.026219763 0.07246381
000220 e9 89 6a 3d 63 1c 5e bd 5c aa 89 bc cd f2 3f 3e
       0.057260428 -0.05422629 -0.016804866 0.18744965
000230 5f 13 3a be 20 d0 8e bd 1b a6 b6 3d 15 5c 41 3e
       -0.18171452 -0.069732904 0.08918401 0.18882783
000240 34 67 2b be 0c ad 2d 3e e4 b0 df 3d d6 ea a2 3c
       -0.16738588 0.16960543 0.10922411 0.01988737
000250 06 32 15 be 04 1c ae 3d dd 8a fd 3d 25 60 3a 3e
       -0.14569864 0.08501437 0.12380002 0.18200739
000260 bc b6 23 3e cb d5 47 bd 2b 0a 14 bd 35 08 5f bd
       0.15987676 -0.048787873 -0.03614251 -0.054451186
000270 c4 9d ad bd 27 0d b2 bd 01 f2 27 3e e1 c5 78 bd
       -0.08477357 -0.08693915 0.16400911 -0.060735587
000280 d1 7c 31 3e a2 1a 22 3d 54 4c 35 3d cd ce 35 bd
       0.1733277 0.03957618 0.044262245 -0.044386674
000290 13 2d 36 be 16 f2 ee 3c a7 00 02 3d da ca 22 3d
       -0.17790632 0.02916817 0.031738903 0.039744236
0002a0 8f 17 4f be 35 f3 12 3d c5 dd 35 3d 87 2f 74 bd
       -0.2022383 0.03587647 0.04440095 -0.059615638
0002b0 76 74 c7 3d af 56 58 be b4 18 d5 3c a0 95 5a 3e
       0.0973901 -0.21126817 0.026012756 0.2134614
0002c0 ef ee 96 3d 40 6e 2a 3e 30 82 d0 bd 1f b8 58 3e
       0.07369792 0.1664362 -0.10181081 0.21163987
0002d0 89 03 3d 3e 1d 78 6e bc 58 13 82 3d 28 c7 08 3e
       0.1845838 -0.014555004 0.06351346 0.13357222
0002e0 72 05 39 be 96 38 1b be 9c cd 51 bd d4 4d 2a 3e
       -0.18068483 -0.15158305 -0.051221475 0.16631252
0002f0 30 39 95 bd 10 4b 27 3d 6d f4 11 be 62 13 fa 3d
       -0.07286298 0.04084307 -0.14253397 0.12210728
000300 f0 9d 28 bd 0a db a0 ba 32 b5 52 be a4 30 02 bd
       -0.041166246 -0.001227231 -0.20576933 -0.03178467
000310 a6 d8 40 be 5b eb f3 3d eb 09 42 3c c5 8e 1e bd
       -0.18832645 0.11910125 0.011843185 -0.038710374
000320 fc a7 55 3e 29 d9 b2 3d 12 34 24 3e 4c 2b c2 3d
       0.20864862 0.08732826 0.16035488 0.094809145
000330 33 19 93 bd c1 a0 11 3e 47 87 0b 3e 1a d2 d7 bd
       -0.07182541 0.14221479 0.13625823 -0.105381206
000340 37 59 c1 bc 40 79 c0 3d 8d 7c 71 3c ea 58 0b 3d
       -0.023602111 0.093981266 0.014739168 0.034020342
000350 fc 90 c9 bb 62 ee 5d bd 3f 39 79 3d 91 73 1a 3e
       -0.0061513167 -0.054182418 0.06084561 0.15083148
000360 07 5a f5 bd 3a ae 83 3d 60 d7 33 3e 77 81 20 be
       -0.11980062 0.064297155 0.17562628 -0.15674387
000370 44 8f 5b be c1 ce f8 bd 35 d1 da bd 48 a5 ed 3d
       -0.2144137 -0.1214881 -0.10684434 0.116037905
000380 62 71 a6 bd c3 72 8b bd df 15 37 3d da 43 4f be
       -0.08127095 -0.068089984 0.044698592 -0.20240727
000390 17 00 35 3d d2 18 82 bd e4 4c 48 be 62 3a 9c bd
       0.04418954 -0.0635239 -0.19560581 -0.07628323
0003a0 15 9c a1 3d bf 00 c8 bd 35 ff a7 bd af 79 4e 3d
       0.078910984 -0.09765767 -0.08202974 0.050409015
0003b0 e5 45 9a bd 25 37 2a be e3 d5 17 be 82 00 51 be
       -0.075328626 -0.16622598 -0.14827685 -0.2041035
0003c0 9f 9e d3 3d 72 d2 42 3e b4 46 00 3e cf c7 05 be
       0.10332989 0.19025591 0.12526971 -0.13064502
0003d0 17 72 05 3d 32 19 0e be d0 c1 ec bd c7 e7 17 3d
       0.032579508 -0.13876799 -0.11560404 0.037086274
0003e0 8c 10 cc 3d 08 00 0e 3c 2f 78 03 3c 91 0d 98 bd
       0.099640936 0.008667 0.0080242595 -0.074244626
0003f0 25 aa c9 bc 4f f9 4a 3e 02 59 84 bd 5d c5 0a be
       -0.024617264 0.19821666 -0.064622894 -0.1355185

weight f4 [128, 2]
000000 0d d8 fb 3d e6 2a 34 3e 65 35 93 bd c7 8c a5 bd
       0.12297068 0.1759449 -0.071879186 -0.08083492
000010 d8 fa 0b 3d ec f4 15 be 29 02 1a 3e 34 bd 18 bd
       0.03417477 -0.14644212 0.15039887 -0.037289813
000020 bd 33 f9 bb 84 4c 47 bd f4 49 26 3e b2 d4 0a be
       -0.0076050446 -0.048656955 0.16239148 -0.135577
000030 c9 1b b7 bd a4 e9 03 bd c1 85 07 be 06 ff de 3d
       -0.089408465 -0.03220524 -0.13234617 0.108884856
000040 27 c7 0b 3d 0d 07 51 3e 0e 00 23 be 2b 9e c9 bd
       0.034125473 0.20412846 -0.1591799 -0.09844621
000050 fd 64 21 be be 1a ee bc c7 a3 95 3c e8 06 80 3d
       -0.1576118 -0.029065486 0.018266572 0.06251317
000060 14 84 03 3d f5 39 44 3e ca 64 e7 3c 98 6e 3c be
       0.03210838 0.19162734 0.028246302 -0.18401563
000070 c2 62 16 be d3 3c 91 bd 71 17 32 be c9 8b 36 3e
       -0.1468611 -0.070916794 -0.17391755 0.17826761
000080 fc d1 ea bd f7 06 19 3e 1c 69 19 3e 4b 4a 3e be
       -0.114658326 0.14944063 0.14981502 -0.18583028
000090 c9 57 2e 3e 82 00 56 ba d0 8a 4b 3d db 43 48 3e
       0.17025675 -0.0008163528 0.04969293 0.19557135
0000a0 74 71 3a be f0 01 1a be fe eb 25 be 30 0c 55 bc
       -0.18207341 -0.15039802 -0.16203305 -0.013003394
0000b0 1d 82 3f 3d 0d f8 7c bd 0b 25 f6 3c 80 da 12 3e
       0.046754945 -0.061759997 0.03004696 0.14341164
0000c0 11 98 5b be c1 20 01 3e c3 73 54 be f7 99 3b 3e
       -0.21444727 0.12610151 -0.20747285 0.18320452
0000d0 4c 61 89 bd 13 39 26 be 95 e1 79 bd 4d cc 67 bd
       -0.06708011 -0.1623271 -0.061006147 -0.05659132
0000e0 a4 64 56 be 75 df d2 3d a8 fb 9a bd 79 d0 33 be
       -0.20936829 0.10296527 -0.07567531 -0.17559995
0000f0 9e bd d0 bd e5 d9 37 3e dd f5 ea 3d 0a e5 07 3e
       -0.101924166 0.17954214 0.11472676 0.13270965
000100 3e 8e a3 bd b0 52 84 bd 06 83 58 3d 0f 38 48 3e
       -0.07986115 -0.06461084 0.05285933 0.19552635
000110 99 b9 ac bd 86 ca b9 bc 19 e0 08 be 06 9e 77 bc
       -0.084338374 -0.022679579 -0.13366736 -0.015113359
000120 15 c4 51 3e 8a d6 fd 3c 34 c6 40 3e ff 58 34 3e
       0.20484956 0.03098609 0.18825608 0.17612074
000130 0c 9c 6f bd 01 db 1c 3e 26 fb 30 be 62 53 24 3d
       -0.058498427 0.15317918 -0.17283306 0.040118583
000140 9d 59 b1 bb 37 51 2f be cb 21 d0 3d be 91 3b be
       -0.005412294 -0.17120825 0.101626955 -0.18317315
000150 4e 0d e9 3d 28 92 b5 bd 0c 59 53 3e 86 36 5b 3d
       0.11379491 -0.08865768 0.20639437 0.053518794
000160 21 32 28 3e cb d8 4d be 92 30 60 bd af 7e d7 bd
       0.16425373 -0.20102231 -0.05473382 -0.1052221
000170 e5 01 1f 3e 1f 57 0e 3d 2e a0 88 bc 55 4b 82 bc
       0.15528066 0.034751054 -0.016677942 -0.015905062
000180 93 f7 46 bd 28 d6 23 be a1 30 2f be 97 c4 f5 bd
       -0.04857595 -0.15999663 -0.17108394 -0.12000387
000190 ca 82 3e 3e 3f de 9e bd 33 4e 4a be df 08 36 3d
       0.1860458 -0.07757234 -0.19756393 0.044442054
0001a0 9b fd 45 be 9b e6 04 be 09 00 17 be 83 25 aa bd
       -0.19335024 -0.12978594 -0.14746107 -0.08307936
0001b0 3b 8c bd 3a fd d3 3d be 37 8d 9f 3d 1f 52 5b 3e
       0.0014461348 -0.18537898 0.077906065 0.21418045
0001c0 7b 53 24 3e bf e9 35 3d 1e d5 cc bc 45 50 e2 bd
       0.1604747 0.04441237 -0.025003966 -0.110504664
0001d0 2e d0 10 be 5f d9 40 be 56 4d 1c bd 5f 2a 43 be
       -0.14141914 -0.1883292 -0.03815969 -0.19059132
0001e0 05 db 2d 3e 04 24 06 be 24 a2 06 be 1b 47 d2 bd
       0.1697808 -0.13099676 -0.13147789 -0.102674685
0001f0 48 bd 43 3e ec e6 28 3e 29 0b 00 be 0a dc af 3d
       0.19115174 0.1649434 -0.12504257 0.08586891
000200 eb 20 a9 bd 3d bc b3 3d e4 eb 22 3e c1 5d ba 3d
       -0.08258232 0.08776138 0.15910298 0.090999134
000210 2f 1a b7 bd c1 3b e6 bd 1a d8 8e 3c 78 0a 24 be
       -0.08940541 -0.11241866 0.01743703 -0.16019619
000220 78 60 c8 3d f7 cc 15 be a3 dd 88 bd 21 3e 05 3e
       0.09784025 -0.14628969 -0.06682899 0.13011982
000230 f4 d3 54 3c 81 0b 2b be a9 ee 41 bd 44 46 a5 3d
       0.012989987 -0.16703607 -0.047346745 0.08070043
000240 6c fe 24 3e 75 5b 40 be 7a 9b 59 3e 4f fb e1 bd
       0.16112679 -0.18784888 0.21250716 -0.110342614
000250 d4 c2 3e be ff fb 15 3d 10 a9 e5 3d 68 a4 b4 bc
       -0.18629009 0.036617275 0.11213887 -0.022051051
000260 7f b6 1c 3e 2b d1 5a 3e 91 a1 7c bd d7 d0 21 be
       0.15303992 0.21368854 -0.06167752 -0.15802322
000270 f2 59 52 3e 5f bc ac 3d d9 cf 20 3e 14 f1 e7 3c
       0.20542124 0.084343664 0.15704288 0.028313197
000280 d1 75 1f be a1 5e 29 be 98 f5 49 bd d2 d2 b1 3d
       -0.15572287 -0.16540004 -0.049306482 0.08682789
000290 84 c9 1c be 89 b6 eb bd a9 e6 ef 3d e7 e8 41 3e
       -0.15311247 -0.11509425 0.11713917 0.18936501
0002a0 65 c6 10 bd 38 5f 5b 3e 5f 4b ba 3d 58 63 83 3a
       -0.035345454 0.21423042 0.09096407 0.0010024114
0002b0 18 82 8b bd f2 09 c3 3d 13 e0 c6 bd c7 bb 1d 3d
       -0.06811923 0.09523381 -0.097107075 0.038509157
0002c0 26 c9 83 bd 06 87 b4 bd f2 19 1d 3e ab 80 e9 bc
       -0.064348504 -0.08814816 0.15341929 -0.028503736
0002d0 46 98 37 be b6 4d 96 3b dc 48 3c be 91 ef 4c be
       -0.17929181 0.0045869006 -0.18387169 -0.20013262
0002e0 39 46 05 3e 51 48 8a bd 39 7e 35 3d bf 38 22 be
       0.13015069 -0.067520745 0.04430983 -0.1584196
0002f0 69 38 3d be c3 95 16 be 1f 0d 56 3e b5 13 9c 3d
       -0.1847855 -0.14705567 0.20903443 0.07620946
000300 c6 6c 92 bc f6 5c ff bd 3f 11 c1 bd cb 3d f2 3d
       -0.017874133 -0.12468903 -0.094271176 0.11828192
000310 84 26 51 3e 4e fc 2d be 14 16 e6 bd 38 13 48 be
       0.20424849 -0.16990778 -0.1123468 -0.19538581
000320 e1 72 fc 3c ef 72 1e be 45 91 71 bd 9b 62 0a 3d
       0.030816497 -0.15473531 -0.05897643 0.033785444
000330 d8 24 d1 3d 10 de 65 3d eb 71 90 bd 27 92 a3 3d
       0.102121055 0.05611998 -0.07052978 0.07986861
000340 ed 94 44 be 1d db 4e 3e b1 6b 8a bd 39 87 50 3e
       -0.19197436 0.20200773 -0.06758822 0.20364083
000350 4e f1 fa 3c 32 e7 88 3d c2 2d 40 3e b9 be 56 3e
       0.030632641 0.06684722 0.18767455 0.20971192
000360 4d 76 0c be c8 ca 0e 3d 7e 73 3a be 43 86 09 be
       -0.13717003 0.034861356 -0.1820812 -0.13430123
000370 ed 8c 22 bd 24 78 26 3e e9 ee 3e bd ec dd 8e bd
       -0.03968518 0.16256768 -0.04661456 -0.06975922
000380 7a fa 13 be ab 60 8b bd 2f df f0 3d 04 3e 1f 3e
       -0.14451018 -0.06805547 0.11761319 0.15551001
000390 e0 07 f3 3d c9 42 49 3e 5e 66 c9 bd ab d8 35 3e
       0.118667364 0.19654383 -0.09833978 0.17758434
0003a0 e5 01 df 3c f9 03 ca bd 87 20 4b be ed b8 01 3d
       0.027222583 -0.09864039 -0.19836627 0.0316705
0003b0 6b 63 d8 3d b6 d4 8e bd 29 50 f1 3d 73 86 2c be
       0.105658375 -0.06974165 0.117828675 -0.16848163
0003c0 c6 df 3c be 28 e1 1f 3e 95 e0 d7 bc 5a 0c 04 bd
       -0.18444738 0.15613234 -0.026352206 -0.032238342
0003d0 52 8a 0e 3e 63 80 3e be 32 03 8c bb 80 e6 75 3d
       0.13919953 -0.18603663 -0.004272842 0.060034275
0003e0 66 4a 42 be 88 16 26 be fb 12 16 3d eb 02 f8 bc
       -0.18973693 -0.16219532 0.036639195 -0.030274829
0003f0 6d 9e ae bd f9 f6 e7 3d b0 6a 62 3d 87 b2 4b be
       -0.08526311 0.11326403 0.055277526 -0.19892322

att_src f4 [1, 4, 32]
000000 c4 da 38 3c 07 22 d1 bc 59 16 86 3b 08 e1 bb 3b
       0.011282627 -0.02552892 0.0040920195 0.005733613
000010 dd 10 44 3b 05 7d 2a bd 6a ff 70 3b db 1f 57 bb
       0.0029917278 -0.041623134 0.0036773332 -0.0032825384
000020 67 a1 7e 3b 0c 9f e0 3c 50 bb 0d bd d5 c1 d3 3a
       0.0038853528 0.02741959 -0.034602463 0.0016155789
000030 ae ed 76 3b 05 6e d1 bc 4f f3 cd 3b 40 32 22 3c
       0.003767829 -0.025565157 0.006285108 0.009899676
000040 57 5e cb 3b 0e 5f 53 3b 9f eb 58 3c 12 5c 4b 3b
       0.0062063145 0.0032252702 0.01323977 0.003103022
000050 e3 9a c3 3b b2 85 03 bd fb 2a ea 3a 0e f6 a8 3b
       0.0059693917 -0.032109924 0.0017865592 0.005156285
000060 79 9a 7a 3b 0a eb ad bc 0b 5b 9a bc 9d eb 9a bc
       0.0038239046 -0.02123024 -0.01884224 -0.018911177
000070 88 b5 02 bd c7 72 92 3b 13 59 17 bd 23 3b f5 bb
       -0.031911403 0.004469249 -0.036950182 -0.0074838563
000080 c0 0c 9e bb df 5d ec ba 4c 81 62 3b 48 7f f4 bb
       -0.0048232973 -0.0018033347 0.003456193 -0.007461462
000090 6d 4c 08 bb f8 5e fc bb 5f fc ad bb ef 78 a1 30
       -0.0020797506 -0.007701751 -0.005309626 1.1748663e-09
0000a0 bb 7a 33 bc ba fd bd b7 3b c2 3b 3b 61 c9 91 ba
       -0.010954554 -2.2648706e-05 0.0028649706 -0.0011122638
0000b0 db fc eb bb 8e 4e af ba 95 a7 4b bb be 2c 29 b9
       -0.0072017736 -0.0013374852 -0.0031075228 -0.00016133764
0000c0 64 90 3a 3b bc 71 92 bb f6 e0 62 ba 2a 80 35 3b
       0.0028467411 -0.0044691246 -0.00086547376 0.00276948
0000d0 36 08 08 b9 2d 68 4e 3b 55 c9 51 3b 2b c2 d3 ba
       -0.0001297303 0.00314952 0.0032010872 -0.0016155889
0000e0 26 93 01 ba e3 97 e0 ba 02 2a ec bb 15 46 05 b9
       -0.00049428863 -0.001713511 -0.007207156 -0.00012709976
0000f0 c9 2b a4 ba f3 ab 17 ba 38 7d 1c b9 fd 88 88 3b
       -0.0012525256 -0.00057858153 -0.00014923967 0.004166721
000100 bb 4d 16 bb cb bc cd ba a2 43 64 a8 84 62 97 ba
       -0.0022934515 -0.0015696523 -1.2671208e-14 -0.0011549746
000110 ee a2 9b bc 99 30 8f ba 98 93 16 ba 90 0e 1b bb
       -0.01899859 -0.0010924517 -0.0005744039 -0.0023659803
000120 5c 7f 36 bb 32 dc 63 ba ea 37 f1 bb 15 90 5d 3c
       -0.0027846908 -0.00086921745 -0.007361402 0.013523121
000130 5a 47 12 b8 37 4b 0a ba 6c ee db 3c a2 23 98 bb
       -3.4875564e-05 -0.000527549 0.026847087 -0.0046429196
000140 91 b2 b1 bc c4 3f 63 bc f5 c9 eb ba 6d 8c 1b bb
       -0.021691592 -0.013870183 -0.0017989265 -0.0023734823
000150 5f 5b 2f bc c4 57 b7 ba 13 b3 c6 b9 2b c6 3c bc
       -0.010702937 -0.0013987948 -0.00037898924 -0.011521856
000160 d2 11 78 bb eb f2 79 bc ae 10 57 bc 9b e1 c7 ba
       -0.0037852419 -0.01525567 -0.013126535 -0.0015249731
000170 79 73 1f bc 95 e2 b5 bb a4 10 17 bd 8f 0c 12 bb
       -0.009732121 -0.0055506923 -0.036881104 -0.0022285318
000180 ea ab 36 bb aa 2b ac b9 59 31 8e b9 4c d0 a4 3c
       -0.0027873465 -0.0003283893 -0.00027121117 0.020118855
000190 c3 d9 95 3a 97 e0 6e ba 02 61 43 39 78 ea 1d ba
       0.0011432696 -0.0009112446 0.00018632787 -0.0006024013
0001a0 fb 36 e9 b9 54 ed 9f b9 39 67 02 3d e4 bc 91 3b
       -0.00044482187 -0.00030503666 0.031836722 0.0044475663
0001b0 c7 a7 83 bb 71 10 5c 3d be 4b 28 38 4b 3a ba b9
       -0.0040178034 0.053726617 4.012486e-05 -0.00035520116
0001c0 ad 47 87 ba 9c a7 4d 3d 9b 00 b4 b9 e3 e1 8e 3b
       -0.0010321044 0.050208673 -0.00034332726 0.004360424
0001d0 08 52 6f 3b 83 b5 d9 b9 d2 54 d5 ba f1 46 bf bb
       0.00365174 -0.00041524702 -0.0016275889 -0.0058373143
0001e0 11 37 1f ba 45 85 c3 bb 8c 83 98 bc 37 31 29 bd
       -0.0006073574 -0.0059668147 -0.018617414 -0.0413067
0001f0 82 e7 02 ba ad 5d e0 3c eb 7d 3e 25 77 e8 b0 bc
       -0.0004993604 0.027388418 1.6522536e-16 -0.021595223

att_dst f4 [1, 4, 32]
000000 b0 01 00 00 5f 01 00 80 b3 01 00 80 9b 01 00 80
       6.05e-43 -4.92e-43 -6.1e-43 -5.76e-43
000010 25 01 00 80 87 01 00 00 83 01 00 80 64 01 00 00
       -4.1e-43 5.48e-43 -5.42e-43 4.99e-43
000020 65 01 00 80 a6 01 00 80 3f 01 00 80 81 01 00 00
       -5e-43 -5.91e-43 -4.47e-43 5.4e-43
000030 68 01 00 00 6a 01 00 80 24 03 00 80 aa 01 00 80
       5.04e-43 -5.07e-43 -1.127e-42 -5.97e-43
000040 5f 01 00 00 2c 01 00 00 66 01 00 00 cc 00 00 80
       4.92e-43 4.2e-43 5.02e-43 -2.86e-43
000050 60 03 00 80 91 01 00 80 70 01 00 00 64 01 00 00
       -1.211e-42 -5.62e-43 5.16e-43 4.99e-43
000060 66 01 00 80 8a 01 00 80 5a 01 00 00 6d 01 00 00
       -5.02e-43 -5.52e-43 4.85e-43 5.11e-43
000070 36 01 00 80 d6 03 00 80 84 01 00 80 c1 01 00 80
       -4.34e-43 -1.376e-42 -5.44e-43 -6.29e-43
000080 7e 01 00 80 2a 01 00 00 6a 01 00 80 69 01 00 80
       -5.35e-43 4.18e-43 -5.07e-43 -5.06e-43
000090 71 01 00 80 82 01 00 80 6e 04 00 00 b9 02 00 80
       -5.17e-43 -5.41e-43 1.589e-42 -9.77e-43
0000a0 7e 01 00 00 85 01 00 80 9c 01 00 80 b7 01 00 80
       5.35e-43 -5.45e-43 -5.77e-43 -6.15e-43
0000b0 86 01 00 00 a5 01 00 00 72 01 00 80 ab 01 00 00
       5.47e-43 5.9e-43 -5.18e-43 5.98e-43
0000c0 b5 01 00 80 de 04 00 80 98 01 00 80 ae 01 00 00
       -6.12e-43 -1.746e-42 -5.72e-43 6.03e-43
0000d0 0e 01 00 00 8e 01 00 80 61 01 00 80 8e 01 00 80
       3.78e-43 -5.58e-43 -4.95e-43 -5.58e-43
0000e0 bb 01 00 80 9c 01 00 00 85 04 00 00 b5 01 00 80
       -6.21e-43 5.77e-43 1.621e-42 -6.12e-43
0000f0 b9 01 00 00 7e 01 00 00 85 01 00 80 a8 01 00 80
       6.18e-43 5.35e-43 -5.45e-43 -5.94e-43
000100 62 01 00 00 f3 00 00 00 6a 01 00 00 90 01 00 00
       4.96e-43 3.4e-43 5.07e-43 5.6e-43
000110 62 01 00 80 49 00 00 80 60 01 00 80 14 01 00 80
       -4.96e-43 -1.02e-43 -4.93e-43 -3.87e-43
000120 65 03 00 80 fe 00 00 80 26 04 00 00 20 01 00 80
       -1.218e-42 -3.56e-43 1.488e-42 -4.04e-43
000130 1e 01 00 00 61 01 00 00 a0 01 00 00 61 01 00 80
       4.01e-43 4.95e-43 5.83e-43 -4.95e-43
000140 a5 01 00 80 60 01 00 80 67 01 00 80 be 01 00 80
       -5.9e-43 -4.93e-43 -5.03e-43 -6.25e-43
000150 61 01 00 80 69 01 00 00 5f 01 00 80 62 01 00 80
       -4.95e-43 5.06e-43 -4.92e-43 -4.96e-43
000160 33 04 00 00 60 01 00 80 92 01 00 80 71 01 00 00
       1.506e-42 -4.93e-43 -5.63e-43 5.17e-43
000170 61 01 00 80 f6 00 00 80 65 01 00 00 6c 01 00 80
       -4.95e-43 -3.45e-43 5e-43 -5.1e-43
000180 62 01 00 00 5f 01 00 00 a3 01 00 00 68 01 00 80
       4.96e-43 4.92e-43 5.87e-43 -5.04e-43
000190 60 01 00 80 62 01 00 00 5f 01 00 00 f8 03 00 00
       -4.93e-43 4.96e-43 4.92e-43 1.424e-42
0001a0 62 01 00 00 9a 07 00 80 60 01 00 80 62 01 00 80
       4.96e-43 -2.727e-42 -4.93e-43 -4.96e-43
0001b0 5f 01 00 00 5f 01 00 00 62 01 00 80 60 01 00 00
       4.92e-43 4.92e-43 -4.96e-43 4.93e-43
0001c0 c9 00 00 80 67 01 00 00 60 01 00 80 fb 06 00 00
       -2.82e-43 5.03e-43 -4.93e-43 2.504e-42
0001d0 34 04 00 00 61 01 00 80 60 01 00 80 5f 01 00 00
       1.508e-42 -4.95e-43 -4.93e-43 4.92e-43
0001e0 61 01 00 00 43 07 00 80 bb 04 00 80 61 01 00 00
       4.95e-43 -2.605e-42 -1.697e-42 4.95e-43
0001f0 60 01 00 00 49 04 00 80 5f 01 00 80 6f 0b 00 80
       4.93e-43 -1.537e-42 -4.92e-43 -4.102e-42

bias f4 [128]
000000 1b f5 ce 35 7e d9 a8 3b 65 3e 9f 37 4c 41 b2 32
       1.5419531e-06 0.00515288 1.8983332e-05 2.075162e-08
000010 47 36 81 3c cf 39 26 3d a8 24 52 38 c4 d4 cb 9d
       0.015772952 0.040582474 5.010204e-05 -5.3953647e-21
000020 42 00 00 00 dd 33 84 3c fd 8b 81 3d 94 bb 52 36
       9.2e-44 0.016138012 0.06325529 3.1401623e-06
000030 a1 17 3e 38 ba db 8f 3b fb 96 dd 34 36 02 c7 35
       4.5321536e-05 0.004390207 4.127431e-07 1.4827299e-06
000040 bc 1a 31 38 d2 3b b1 32 51 01 00 80 c5 94 82 3c
       4.2224987e-05 2.0632715e-08 -4.72e-43 0.01594008
000050 b3 81 33 37 a0 92 9b 3d db 9f 76 3c 29 2c fc 37
       1.0699429e-05 0.07596326 0.015052761 3.0061305e-05
000060 3a 23 0c 36 10 8b 5b 3b 2c 22 1b 3b ff a6 ee 3c
       2.088213e-06 0.0033499636 0.002367149 0.029132364
000070 be d1 5e 3d 26 40 18 b3 af 04 48 3d 92 ec 4b 37
       0.054399244 -3.54486e-08 0.04883259 1.2154824e-05
000080 28 a2 cd 3a 69 98 17 3d 9d b2 82 3c 06 1d 1e 3b
       0.0015688585 0.037010584 0.01595431 0.0024126186
000090 5e b6 f6 3c 46 83 80 3b 6e 43 a6 39 c1 01 00 80
       0.030116256 0.003921899 0.00031712226 -6.29e-43
0000a0 1a fd 6a 3c b7 54 52 2d 67 a2 7e 3c d6 3b f5 3b
       0.014342571 1.19559284e-11 0.015541649 0.0074839396
0000b0 34 58 7b 3b 4e 24 1d 3c 62 e7 8c 3c ec dd 01 a1
       0.0038352134 0.009591175 0.017200176 -4.400061e-19
0000c0 a0 0d 74 3c 7c 1b d0 38 79 ba cd b7 cb b8 3a b6
       0.014895827 9.923332e-05 -2.4524737e-05 -2.7823723e-06
0000d0 ba ac 09 aa 07 43 89 3c f3 da 81 3c bf 6c 22 3c
       -1.2227971e-13 0.016755594 0.015851473 0.009913622
0000e0 1d df 26 3c 2f e1 a2 3c 05 b1 05 3b 8d ac 49 9c
       0.01018503 0.019882767 0.0020399701 -6.672834e-22
0000f0 a1 b9 10 3c 16 24 31 b6 9f 34 92 a4 19 15 3f b8
       0.00883332 -2.639606e-06 -6.340655e-17 -4.5557597e-05
000100 c9 61 92 3b 80 bb 72 3d 60 9e 9a 1d bf a5 8b 3d
       0.0044672233 0.059260845 4.0927216e-21 0.06818723
000110 21 fa 2c 3d 5d 53 8d 3d 0d 72 52 3c e3 c7 1c ba
       0.04223073 0.06900666 0.012844575 -0.0005980713
000120 e2 01 00 80 f7 a7 e0 af 3c 15 14 3c e2 f5 ba 35
       -6.75e-43 -4.086471e-10 0.009038266 1.3929641e-06
000130 0b 58 81 3c 27 3e 73 3c a0 15 9e 36 3f af 89 b7
       0.015789052 0.014846361 4.7112844e-06 -1.6413278e-05
000140 43 13 98 a5 2b e6 68 3c 8a 4f f3 b0 45 5c ed b8
       -2.638085e-16 0.014215033 -1.7703183e-09 -0.00011318227
000150 9f 01 91 aa d4 f6 7c 3d ad 57 1d 2d c6 aa 26 b1
       -2.57583e-13 0.06175883 8.943885e-12 -2.4253253e-09
000160 87 19 40 3c 62 63 5c 3c 34 3b 6a 3c ae d2 40 3d
       0.011724836 0.013451429 0.014296342 0.04707592
000170 ee 12 89 3c f8 10 76 3c 21 c1 37 36 89 79 8a 3d
       0.01673266 0.015018694 2.738154e-06 0.06761462
000180 9b 75 8b 3c f1 dd 81 3c f6 71 80 3c 11 b2 ce b7
       0.017023852 0.0158529 0.01567934 -2.4640032e-05
000190 6f 59 87 b8 b5 00 00 80 8e df 0b 39 69 cd 82 3c
       -6.45396e-05 -2.54e-43 0.00013339354 0.015967088
0001a0 27 4c 65 3c 57 31 6a 88 31 6c 2c b7 0e e7 c8 39
       0.013995207 -7.0474812e-34 -1.0277189e-05 0.00038319122
0001b0 d8 d7 1d 3d 61 f0 c6 b7 43 b5 25 37 af 59 7f 3c
       0.038535923 -2.3715374e-05 9.87697e-06 0.015585347
0001c0 8e 1c 12 3c 82 d2 f2 b7 7e e6 7f 3c 38 8d 97 39
       0.008917941 -2.8946673e-05 0.015618918 0.0002890618
0001d0 b4 13 d0 37 8a 01 00 80 3f e1 58 3c f9 1f 7d 3b
       2.4804707e-05 -5.52e-43 0.013237297 0.0038623794
0001e0 e7 5b b1 3b fb e4 5c 3b 61 01 00 00 ed 5f 8a ba
       0.005412567 0.003370582 4.95e-43 -0.0010557153
0001f0 c2 0d 83 3c bf 32 ca 37 1f 71 00 00 9b e1 03 bb
       0.015997771 2.4103907e-05 4.058e-41 -0.0020123485

weight f4 [128, 2]
000000 0e b0 12 3b f9 78 40 bc ba b1 93 38 99 4c e4 3c
       0.0022382769 -0.011747592 7.0426104e-05 0.027868556
000010 0b a4 c3 3a 0a 48 9f bb 95 bc ac 3a 5f ca cd bb
       0.0014926208 -0.0048608826 0.001317876 -0.006280228
000020 9c de 19 ba be bb 40 bb 9a 5d 7d b7 18 81 18 3d
       -0.0005869658 -0.0029408778 -1.5101768e-05 0.03723249
000030 ae 41 07 3b a4 a0 90 bb b3 a7 24 3a 32 e2 53 3b
       0.0020638513 -0.004413681 0.00062810926 0.0032330868
000040 3d f5 3d ba 53 ed 7a bb c1 89 81 bb 9b 70 de bc
       -0.0007246321 -0.003828843 -0.003953189 -0.027153304
000050 0d a4 62 bc 9b 7c 01 3d 1a 34 e9 3a d5 0e 1d bb
       -0.013833058 0.031612974 0.0017792017 -0.002396514
000060 e5 fe ef 3a a6 1e 99 bb df ef 7d b7 34 37 eb 3c
       0.0018310217 -0.004672843 -1.51358245e-05 0.028712846
000070 70 00 7f 3a c0 30 e7 bb 50 a0 b0 3a 01 56 2b bc
       0.0009727543 -0.007055372 0.0013475511 -0.010457517
000080 e6 3b fd 39 ea bc e4 bb 0e 22 0d 3b 56 88 7c bb
       0.00048300548 -0.006980528 0.002153519 -0.003853341
000090 ce a8 12 bb df a9 55 bc bc de c5 b9 83 a2 48 bb
       -0.0022378447 -0.013040989 -0.00037740718 -0.0030614443
0000a0 e3 55 11 3b 32 1b dd bb 35 87 52 b8 b5 cd e6 3c
       0.0022176437 -0.0067476267 -5.0193823e-05 0.02817426
0000b0 67 80 9b b9 ec 96 e7 ba 71 d9 e6 3a 87 3c c3 bb
       -0.0002965957 -0.001766888 0.001761241 -0.005958143
0000c0 3f 96 0a 3b 68 b2 96 bb 2a dd 0d 3c 51 ca ca 3c
       0.0021146683 -0.0045989044 0.008658687 0.024754675
0000d0 f7 2f 52 3c 50 e9 af 3c 2a ce e2 bb 02 87 98 3c
       0.0128288185 0.021473557 -0.0069215493 0.018619064
0000e0 46 0c f3 38 a0 1f fe 3c b3 e3 25 3b 12 ef aa bb
       0.00011589429 0.03102094 0.0025312721 -0.0052164877
0000f0 17 f2 44 bd 4e 69 18 3d d9 27 3a 3b 47 07 e3 3b
       -0.048082437 0.0372098 0.0028405099 0.0069283578
000100 2c 84 06 39 c4 f8 06 3c 25 9f 3c ba e7 8d 11 3b
       0.00012828474 0.008238021 -0.0007195345 0.0022209825
000110 cc ed 6c b9 de 19 65 bb b0 b9 95 3a b6 4e 69 3c
       -0.000225953 -0.0034958045 0.0011423137 0.014239958
000120 7f 3f 15 ba 95 94 50 3b b3 f8 4a 3a 10 f4 6e 3c
       -0.00056933606 0.0031826843 0.00077427475 0.014584556
000130 70 36 72 39 e5 8c 0b 3c 2b 54 df 2e cc b0 a2 b0
       0.00023099198 0.008517479 1.0155817e-10 -1.18373e-09
000140 1f 44 ef bd 98 9f b2 bb 2d b4 79 b7 ae 84 be 37
       -0.11682915 -0.005451154 -1.4883507e-05 2.2711549e-05
000150 dd 52 aa b9 b7 8c 3c bb 1e 5b 64 ba 6c f0 98 3a
       -0.00032486665 -0.0028770396 -0.0008711087 0.0011668331
000160 df 58 4c 3a 9f e6 5f 3c 94 7c 72 ba b4 90 b7 3a
       0.0007795225 0.013665824 -0.0009250131 0.0014004917
000170 30 d5 ee b9 85 2b 90 3b 7e ca 7a b9 c4 a5 17 39
       -0.00045553735 0.004399719 -0.00023917292 0.00014462235
000180 ae cb 05 b9 22 64 3f bb 42 4c f2 38 ee c1 97 3b
       -0.00012759745 -0.002920397 0.00011553663 0.0046312725
000190 0f 9f 49 ba a8 ef 61 3a 41 3c ec 3a bb 5b 17 bb
       -0.0007691243 0.00086187804 0.0018023328 -0.0023095447
0001a0 d8 16 8b b9 de 7e da 38 17 36 6e b9 dd 8f 4f bb
       -0.00026529166 0.00010418681 -0.00022717599 -0.0031671443
0001b0 b6 fa ea b8 40 c6 56 bb cc 66 73 ba 6b 4a 0c 3b
       -0.00011204688 -0.0032771975 -0.0009285032 0.0021406661
0001c0 2e 22 30 ba 1a f4 df 39 32 fd 8e b9 ce 72 57 3b
       -0.00067189604 0.00042715744 -0.00027272996 0.0032874825
0001d0 ad ac 2a 3a b4 fe 49 3c 83 68 2f b9 02 eb e2 38
       0.0006510716 0.012328792 -0.00016728234 0.000108202934
0001e0 63 44 7f ba 2c e1 ca 3a 84 8b 31 ba 9f 43 06 3a
       -0.00097376684 0.0015478483 -0.00067728036 0.00051217707
0001f0 2a 44 75 b9 8d 6e 01 39 51 dd 96 3c 34 a4 02 bb
       -0.00023390414 0.00012343582 0.018416079 -0.0019934298
000200 7b 55 68 bb 08 92 9e 3a f3 34 89 b9 7e 76 ed 3a
       -0.003545134 0.0012097964 -0.00026170127 0.0018116978
000210 db 40 a2 a8 c3 be 73 28 dc 70 7d b9 77 06 ae 3a
       -1.801374e-14 1.3530575e-14 -0.00024170004 0.0013277073
000220 89 03 3a bd 98 5a 69 ba 35 8a 77 b9 18 58 9b 3a
       -0.045413528 -0.0008901744 -0.00023607242 0.0011851816
000230 98 1b 40 ba 5c 20 c6 39 e9 c6 1c ba 0a b4 2f 3b
       -0.00073283305 0.00037789613 -0.00059805677 0.0026810193
000240 9f 18 9f ba 11 ee 22 3b 5b 8c 75 ba 99 8b 26 3a
       -0.0012138075 0.0024861137 -0.0009366923 0.0006353199
000250 8d 02 e7 bb 51 05 b5 3b 41 54 95 3c a9 e5 10 bc
       -0.0070498646 0.0055243154 0.018228652 -0.008843818
000260 ce 40 54 b8 59 e4 d1 37 36 1a 27 ba 65 65 bf 39
       -5.0605093e-05 2.5021074e-05 -0.000637445 0.00036505904
000270 ad 76 e7 3c 2c 01 a2 bc 40 4d 96 bb a4 16 4d 3b
       0.028254831 -0.01977595 -0.0045868456 0.0031294012
000280 2f 46 1b bc a0 47 9b 3c d8 b7 33 bc 80 35 39 3c
       -0.009477182 0.018955052 -0.010969125 0.011304259
000290 71 0a f8 ba dc 95 ad 3a 96 15 27 bb 8b c0 d2 3a
       -0.001892401 0.0013243514 -0.0025495044 0.0016079111
0002a0 7d 53 99 bb 0c de 1c 3c 5e 5d 89 b9 f9 51 cd 3a
       -0.004679142 0.0095744245 -0.0002620024 0.0015664689
0002b0 eb 11 e0 b9 1a b3 90 39 a0 fa a4 bb c3 6e 28 3c
       -0.0004273796 0.0002759926 -0.0050347596 0.010280314
0002c0 8c 0b 43 bb c8 7e 47 3b d3 87 06 bc a0 1b 58 3c
       -0.002976152 0.0030440558 -0.008211094 0.01319018
0002d0 e0 9a 27 bc ef fd 2d 3c 51 b6 b7 b9 e6 d0 eb 3a
       -0.010229796 0.0106196245 -0.00035040316 0.0017991334
0002e0 28 f5 e9 ba cc a3 32 3c 72 87 09 ba 19 5b d5 3b
       -0.0017849552 0.01090331 -0.0005246318 0.006511104
0002f0 b1 50 78 bc 89 22 f6 3c 3b 79 62 bb 87 ae 63 3a
       -0.015155957 0.030045765 -0.0034557122 0.00086853694
000300 a1 52 d2 b9 e0 29 b9 3b 34 30 47 ba 7a 32 c1 b9
       -0.00040115885 0.005650744 -0.00075984304 -0.00036849437
000310 75 98 8e b9 02 8e 13 39 58 6a ab 3c f9 af d7 bb
       -0.0002719794 0.00014071914 0.020924732 -0.006582257
000320 c8 43 26 ba ae 8f 1e bb 45 fe 39 ba ec 6c f7 39
       -0.00063424977 -0.0024194526 -0.0007095079 0.00047192664
000330 22 3c c4 38 07 4c 44 b9 3b 3f 24 ba c2 6e 91 39
       9.357209e-05 -0.00018720339 -0.00062655256 0.00027739076
000340 07 79 ef b9 a1 33 49 39 d1 0f a2 b9 ca ca 21 39
       -0.00045675805 0.00019188087 -0.00030910832 0.00015429701
000350 5b c2 04 3d 3b f4 45 bc 92 fa ea 3b e0 f1 4b 3b
       0.032411914 -0.012082155 0.0071709836 0.003111951
000360 4d 38 58 bb 9a 3c 2c 3b 78 c3 4f 3d 0d 43 b4 bc
       -0.0032992542 0.0026281239 0.050723523 -0.022004629
000370 67 18 4c b9 f2 7a 34 b8 3a cb c3 b9 68 d8 37 39
       -0.00019464047 -4.3029846e-05 -0.00037344714 0.00017532858
000380 94 bb 04 ba b1 4b c7 3a 0f cc 45 3d 28 76 a5 bc
       -0.0005063352 0.0015205053 0.04829031 -0.020197943
000390 49 31 b9 b9 8d 43 24 39 ec 47 ed 3b 02 08 79 3b
       -0.0003532267 0.00015665423 0.00724124 0.0037999158
0003a0 9f bd 1f 3b f1 ec 32 bb 43 20 b5 b9 77 c4 61 39
       0.0024374498 -0.0027301873 -0.00034547047 0.00021530861
0003b0 2f 19 35 ba 2e f3 24 3b b8 65 15 39 ca 57 64 3c
       -0.00069083547 0.002516936 0.0001424764 0.013936946
0003c0 06 50 c5 b9 ef 32 46 3a 78 14 dc 38 fe 34 69 3c
       -0.0003763439 0.000756069 0.0001049423 0.014233826
0003d0 cf 4c 82 bc 3d fd 11 3c 2b 7f 48 bd bd a7 ec 3a
       -0.015905766 0.008910474 -0.0489494 0.0018055361
0003e0 ea be 04 ba 62 d9 79 39 3a 7e e4 3c 77 c6 21 bc
       -0.0005063849 0.00023827472 0.02789222 -0.009873978
0003f0 79 47 04 25 10 b9 e9 a4 c3 ba d0 bc b6 7d a4 3a
       1.1473391e-16 -1.0136115e-16 -0.02547968 0.0012549672

weight f4 [128, 16]
000000 bf 01 00 00 c0 01 00 00 3f 01 00 80 76 01 00 00
       6.26e-43 6.28e-43 -4.47e-43 5.24e-43
000010 60 01 00 80 61 01 00 80 b1 04 00 80 62 01 00 00
       -4.93e-43 -4.95e-43 -1.683e-42 4.96e-43
000020 b2 00 00 80 bd 02 00 00 a6 01 00 80 bb 01 00 00
       -2.5e-43 9.82e-43 -5.91e-43 6.21e-43
000030 7d 01 00 80 a8 01 00 80 5f 01 00 00 60 01 00 00
       -5.34e-43 -5.94e-43 4.92e-43 4.93e-43
000040 60 01 00 00 16 05 00 00 c0 04 00 80 60 01 00 80
       4.93e-43 1.824e-42 -1.704e-42 -4.93e-43
000050 67 03 00 80 90 01 00 00 5f 01 00 80 60 01 00 80
       -1.22e-42 5.6e-43 -4.92e-43 -4.93e-43
000060 60 01 00 00 2a 04 00 80 60 01 00 00 84 01 00 00
       4.93e-43 -1.494e-42 4.93e-43 5.44e-43
000070 63 01 00 80 77 01 00 00 b8 00 00 00 66 01 00 80
       -4.97e-43 5.25e-43 2.58e-43 -5.02e-43
000080 5f 01 00 00 fb 06 00 80 5f 01 00 80 c9 03 00 00
       4.92e-43 -2.504e-42 -4.92e-43 1.358e-42
000090 fb 02 00 80 89 0b 00 80 5f 01 00 00 73 01 00 00
       -1.069e-42 -4.138e-42 4.92e-43 5.2e-43
0000a0 62 01 00 80 c0 01 00 80 64 01 00 00 55 00 00 00
       -4.96e-43 -6.28e-43 4.99e-43 1.19e-43
0000b0 9f 01 00 00 61 01 00 80 67 01 00 00 aa 01 00 00
       5.82e-43 -4.95e-43 5.03e-43 5.97e-43
0000c0 c8 00 00 00 61 01 00 80 37 01 00 80 85 0f 00 00
       2.8e-43 -4.95e-43 -4.36e-43 5.567e-42
0000d0 bd 01 00 80 31 0c 00 00 51 01 00 00 c7 04 00 80
       -6.24e-43 4.373e-42 4.72e-43 -1.714e-42
0000e0 a3 01 00 00 6b 01 00 80 ba 02 00 80 f7 06 00 00
       5.87e-43 -5.09e-43 -9.78e-43 2.499e-42
0000f0 1f 07 00 00 fb 00 00 80 ac 02 00 80 53 04 00 80
       2.555e-42 -3.52e-43 -9.58e-43 -1.551e-42
000100 60 01 00 00 61 00 00 00 a5 01 00 80 ea 07 00 80
       4.93e-43 1.36e-43 -5.9e-43 -2.839e-42
000110 d0 03 00 80 5f 01 00 00 85 03 00 80 87 01 00 80
       -1.368e-42 4.92e-43 -1.263e-42 -5.48e-43
000120 9c 01 00 80 d9 00 00 80 94 01 00 80 44 03 00 00
       -5.77e-43 -3.04e-43 -5.66e-43 1.171e-42
000130 85 01 00 80 bd 00 00 80 07 01 00 00 1c 03 00 80
       -5.45e-43 -2.65e-43 3.69e-43 -1.115e-42
000140 5f 01 00 00 9b 01 00 00 6c 01 00 00 5f 01 00 80
       4.92e-43 5.76e-43 5.1e-43 -4.92e-43
000150 5c 08 00 00 6e 01 00 00 58 04 00 80 66 01 00 80
       2.999e-42 5.13e-43 -1.558e-42 -5.02e-43
000160 87 0b 00 80 87 01 00 80 76 07 00 80 60 01 00 80
       -4.135e-42 -5.48e-43 -2.676e-42 -4.93e-43
000170 61 01 00 80 74 01 00 80 7c 01 00 00 cd 07 00 80
       -4.95e-43 -5.21e-43 5.32e-43 -2.798e-42
000180 78 04 00 00 78 01 00 80 e5 07 00 80 af 01 00 00
       1.603e-42 -5.27e-43 -2.832e-42 6.04e-43
000190 c3 07 00 80 5f 01 00 80 c7 07 00 80 dc 03 00 00
       -2.784e-42 -4.92e-43 -2.79e-42 1.384e-42
0001a0 8a 01 00 80 38 03 00 00 60 01 00 80 f9 00 00 00
       -5.52e-43 1.155e-42 -4.93e-43 3.49e-43
0001b0 6b 01 00 00 ef 06 00 00 d7 04 00 00 7b 08 00 00
       5.09e-43 2.487e-42 1.736e-42 3.042e-42
0001c0 e8 02 00 00 c8 00 00 00 5f 01 00 00 66 01 00 80
       1.043e-42 2.8e-43 4.92e-43 -5.02e-43
0001d0 62 00 00 80 aa 0f 00 80 60 01 00 80 96 01 00 80
       -1.37e-43 -5.619e-42 -4.93e-43 -5.69e-43
0001e0 7c 01 00 80 2d 01 00 80 5f 01 00 00 8e 07 00 80
       -5.32e-43 -4.22e-43 4.92e-43 -2.71e-42
0001f0 63 01 00 80 5e 01 00 80 0c 01 00 80 39 01 00 80
       -4.97e-43 -4.9e-43 -3.76e-43 -4.39e-43
000200 e1 02 00 80 81 01 00 00 f1 00 00 80 6a 01 00 80
       -1.033e-42 5.4e-43 -3.38e-43 -5.07e-43
000210 7a 01 00 80 8f 00 00 80 e4 02 00 00 90 01 00 80
       -5.3e-43 -2e-43 1.037e-42 -5.6e-43
000220 e9 03 00 80 19 03 00 80 b2 01 00 00 3c 00 00 80
       -1.403e-42 -1.111e-42 6.08e-43 -8.4e-44
000230 83 03 00 00 5f 01 00 00 60 01 00 00 8b 00 00 80
       1.26e-42 4.92e-43 4.93e-43 -1.95e-43
000240 30 04 00 80 62 01 00 80 14 01 00 80 28 04 00 80
       -1.502e-42 -4.96e-43 -3.87e-43 -1.491e-42
000250 7b 01 00 80 95 07 00 80 93 01 00 80 91 01 00 80
       -5.31e-43 -2.72e-42 -5.65e-43 -5.62e-43
000260 80 01 00 80 b1 01 00 80 5f 01 00 00 2a 08 00 80
       -5.38e-43 -6.07e-43 4.92e-43 -2.929e-42
000270 8a 03 00 00 1a 0c 00 80 ad 03 00 00 96 01 00 80
       1.27e-42 -4.341e-42 1.319e-42 -5.69e-43
000280 74 01 00 00 60 01 00 80 85 01 00 00 ac 01 00 80
       5.21e-43 -4.93e-43 5.45e-43 -6e-43
000290 74 01 00 80 8b 07 00 80 62 01 00 00 f5 02 00 80
       -5.21e-43 -2.706e-42 4.96e-43 -1.061e-42
0002a0 82 01 00 00 de 0b 00 00 91 01 00 80 5f 01 00 00
       5.41e-43 4.257e-42 -5.62e-43 4.92e-43
0002b0 b0 01 00 00 0a 01 00 80 f5 01 00 80 a9 01 00 00
       6.05e-43 -3.73e-43 -7.02e-43 5.96e-43
0002c0 79 01 00 00 b4 07 00 80 6e 01 00 80 61 01 00 80
       5.28e-43 -2.763e-42 -5.13e-43 -4.95e-43
0002d0 7e 01 00 80 9b 04 00 80 7e 01 00 80 df 04 00 80
       -5.35e-43 -1.652e-42 -5.35e-43 -1.747e-42
0002e0 96 01 00 80 90 00 00 80 cc 04 00 80 20 00 00 80
       -5.69e-43 -2.02e-43 -1.721e-42 -4.5e-44
0002f0 81 0b 00 00 60 01 00 00 67 01 00 80 60 01 00 80
       4.127e-42 4.93e-43 -5.03e-43 -4.93e-43
000300 0e 08 00 80 a7 02 00 00 73 08 00 00 66 01 00 00
       -2.89e-42 9.51e-43 3.031e-42 5.02e-43
000310 a7 01 00 00 e6 03 00 00 28 01 00 00 95 01 00 00
       5.93e-43 1.398e-42 4.15e-43 5.68e-43
000320 db 00 00 00 a9 01 00 80 76 04 00 80 a5 03 00 80
       3.07e-43 -5.96e-43 -1.6e-42 -1.307e-42
000330 6e 01 00 00 c9 07 00 00 a1 07 00 80 ef 07 00 80
       5.13e-43 2.793e-42 -2.737e-42 -2.846e-42
000340 b7 01 00 00 a2 02 00 80 82 01 00 80 6b 01 00 80
       6.15e-43 -9.44e-43 -5.41e-43 -5.09e-43
000350 b2 01 00 00 7f 01 00 00 95 01 00 80 19 07 00 00
       6.08e-43 5.37e-43 -5.68e-43 2.546e-42
000360 66 01 00 80 5f 01 00 80 61 01 00 80 73 01 00 00
       -5.02e-43 -4.92e-43 -4.95e-43 5.2e-43
000370 64 01 00 80 ed 01 00 80 18 07 00 00 60 01 00 80
       -4.99e-43 -6.91e-43 2.545e-42 -4.93e-43
000380 19 01 00 00 93 01 00 00 66 01 00 00 b5 03 00 00
       3.94e-43 5.65e-43 5.02e-43 1.33e-42
000390 ec 00 00 80 5a 0b 00 80 07 01 00 80 61 01 00 80
       -3.31e-43 -4.072e-42 -3.69e-43 -4.95e-43
0003a0 61 01 00 80 be 01 00 80 99 01 00 80 a8 03 00 00
       -4.95e-43 -6.25e-43 -5.73e-43 1.312e-42
0003b0 51 03 00 00 6f 0b 00 00 7f 01 00 80 68 01 00 00
       1.19e-42 4.102e-42 -5.37e-43 5.04e-43
0003c0 72 01 00 00 c3 03 00 00 b8 01 00 00 ba 01 00 80
       5.18e-43 1.35e-42 6.17e-43 -6.2e-43
0003d0 60 01 00 00 72 01 00 00 b8 03 00 80 61 01 00 80
       4.93e-43 5.18e-43 -1.334e-42 -4.95e-43
0003e0 a1 01 00 80 5f 01 00 00 00 04 00 80 c5 04 00 80
       -5.84e-43 4.92e-43 -1.435e-42 -1.711e-42
0003f0 c2 01 00 80 6d 01 00 80 73 01 00 00 be 0b 00 00
       -6.3e-43 -5.11e-43 5.2e-43 4.212e-42
