anp_models/anp_link_prediction_next_topic_fixed_overfit_2024_10_19_11_13_36/model.pt (torch, 216668 bytes, 70 tensors)

att_src f4 [1, 4, 32]
00000000: 2b17 b7be 6f2f ffbd 2026 10bd 3f81 b03e
00000010: 15ba f73d 4383 a03d 7d23 5cbe aed9 c03e
00000020: 383d cdbe 79e2 413e a626 f0bd 5e4b 3dbe
00000030: 0c37 6a3e 643b 91be 30d3 0abe a9d3 33be
00000040: 05d7 c8bd 609e 48be 1083 4d3d 4d72 babd
00000050: ba30 3e3e 421a a43e 4a3e 54be 8d7c 41be
00000060: 88ed 823e eff8 c73d f971 94bd 6c41 1b3b
00000070: 5ea1 10bd 490b 863d aa2b b43e 94fd d0bd
00000080: 0268 783e e80e c0be 2389 b3be 7fe2 8d3e
00000090: 0b74 90be 817b ca3e bde6 ec3d 32b3 94be
000000a0: 3dc3 663e 52d7 cbbe eac2 81be ce14 c3be
000000b0: 760f 49be 1a23 823c 3778 c43e 814b 593d
000000c0: f71e 8dbe 6012 5ebe 9358 1cbe 9536 a33b
000000d0: d127 ae3e f372 1a3d 72f9 1ebe 5b64 88be
000000e0: d214 cebe e187 81be 0e86 ddbd b63f b5be
000000f0: cf4f 93bd b2c9 813e b8c9 1e3e 6aa9 e7bd
00000100: 4010 46be 1f35 85be fd33 3f3e 6cf0 a8bd
00000110: 18cf c83e d500 5a3e 2299 9fbe 871e b3bd
00000120: 7862 3e3e 0ad2 02bd 667c 853e 1ff2 39be
00000130: cbcb 09be 0590 613e 7858 39be c186 343e
00000140: 6175 02be 18d2 a4bc 1eda 57be b9ef c93e
00000150: db26 063e 692a d1bd ac20 a93e f02d c53d
00000160: 31c9 313e 492e 29be 308d 97bd 4999 c1be
00000170: 2942 c93d 20e1 cbbe 8446 883e 959e 913e
00000180: 1a89 903d b43d 46bd 27b2 bc3e 6bc2 55bc
00000190: 4469 c8be e874 343e ad59 0dbe 1879 babe
000001a0: a3ec fe3c fb0e 473d 130e 1fbe b116 9abe
000001b0: 9130 17be 5187 eabd 29de ccbe 1b99 cebd
000001c0: edca c9bb 2b08 b53e e7d2 b03e 3cb5 883e
000001d0: 4259 10be 60a2 7d3e 1502 163d b9c0 4c3e
000001e0: 05af b4be 0ae6 a9be 4298 983e 0971 2dbd
000001f0: fe2a 923d 0877 36be 9855 93be 38cc 6b3e
-0.35759863 -0.12460219 -0.03519261 0.34473607 0.12096039 0.07837536 -0.21497913 0.37666076
-0.4008577 0.18934049 -0.117261216 -0.18485782 0.22872561 -0.28365624 -0.13557124 -0.1756121
-0.09806637 -0.19591665 0.05017382 -0.091038324 0.18573275 0.32051283 -0.20726886 -0.18895169
0.25571847 0.09764277 -0.07248301 0.0023690118 -0.03531014 0.06545121 0.35189563 -0.10204616
0.24258426 -0.37511373 -0.35065565 0.27711865 -0.28213534 0.3954735 0.11567447 -0.29042965
0.22535415 -0.39812714 -0.2534402 -0.3810181 -0.19634804 0.015885878 0.38372967 0.05305052
-0.27562687 -0.21686697 -0.15268163 0.004980872 0.34014753 0.03770728 -0.15524843 -0.26639065
-0.4025026 -0.2529898 -0.108165845 -0.3540017 -0.07192957 0.25349194 0.15506637 -0.1131161
-0.19342136 -0.2601709 0.18672176 -0.08248982 0.392205 0.2128938 -0.3117152 -0.08746057
0.1859225 -0.03193859 0.2607147 -0.18158768 -0.13456647 0.22027595 -0.18100154 0.1762953
-0.12740089 -0.020119712 -0.21079299 0.39440706 0.1310076 -0.10213167 0.3303274 0.096279025
0.17361905 -0.16521563 -0.07399976 -0.3781226 0.09827072 -0.39820194 0.266163 0.284413
0.070574 -0.04839869 0.3685467 -0.013046841 -0.3914281 0.17622721 -0.1380374 -0.36420512
0.031118697 0.04859827 -0.15532713 -0.30095437 -0.1476462 -0.11451591 -0.40013245 -0.10087796
-0.006158224 0.35357794 0.34535906 0.2670077 -0.14096549 0.24768972 0.03662308 0.19995393
-0.3528978 -0.33183318 0.29803663 -0.042344127 0.07137106 -0.17818844 -0.2877624 0.23027122

att_dst f4 [1, 4, 32]
00000000: d80f 09be c5bd 7bbd 9672 18be e15f 3e3e
00000010: daa0 36bd a569 903e 7a93 a3be 54d1 923e
00000020: 98f2 233e a327 57bc a14c d93c c261 9d3e
00000030: 6645 38be c491 a4be 9ec5 053e 720a 2a3e
00000040: 2327 7cbe b43a a53e 705f d73d 6436 5a3e
00000050: e0f3 bc3e 35db b33e 1f92 b8be 225e 46be
00000060: bdb8 27be dfc5 c23e b64e 133e a28c b33e
00000070: 9ff4 c7bb 67bd 52bc 1118 d0be b410 8c3d
00000080: 39a4 2cbe 20e7 c5be 434b b73e 7c90 7abe
00000090: 88e1 ae3d a21c 813e 0989 1e3d 63f5 ac3b
000000a0: 8b51 afbd f083 813e cde0 c63d b1f2 243e
000000b0: 7322 7eba 16d3 65be c616 9dbe f93d 413e
000000c0: 73c5 d83d 0662 97be ca02 a23e d07f acbb
000000d0: aa54 313e f238 b83c db6d ce3d 65f5 bc3e
000000e0: 6524 063e cce3 99be 913e 63bc 6759 c8be
000000f0: 52f4 86be c70d 85be add3 69be 6c28 343e
00000100: 1352 883e f6e9 a6be 5bc1 e5bc a671 8dbe
00000110: ae8e a7be 5212 3bbe 1fac 0b3e c17b c33e
00000120: 9af9 96be 16ed 333e b7bb cabe eea7 6dbe
00000130: c359 123e cb1c 5b3e 4317 c3bc 11f9 4ebd
00000140: e321 2d3b 0c88 c93e 70d5 adbe fc24 20be
00000150: 09b7 723d 9da6 babe 9c6f 35be 7bd2 c63e
00000160: c8bb cebe cb16 6abe 4701 963e 8461 533e
00000170: bf46 83be d2ee 2f3e 4c0b 1e3d 75d3 aebe
00000180: c550 69bd 3f60 283e 15b3 44be 9e75 babc
00000190: 3b35 43be 446a 82bd d751 c5bd 9580 1cbe
000001a0: ad70 edbd 1344 6ebe 8f95 a9bd 6930 893e
000001b0: ff21 733d 6ff2 bcbd 77b2 53be 46d5 553e
000001c0: b06c 08be a77a aebe 74f8 c6be 1691 6cbe
000001d0: e9f2 cabe d174 2b3e 5b28 e7bd 9ce7 cebe
000001e0: a111 1cbe ad6e a4be 52fd 75bc 15e3 963e
000001f0: f31c 033e ed95 78be 6101 cdbe 3d15 33be
-0.1338495 -0.061460275 -0.14887461 0.18591262 -0.044586994 0.282056 -0.31948453 0.2867533
0.16010511 -0.013132009 0.026525797 0.30738646 -0.17995223 -0.3214246 0.13063666 0.16605547
-0.24624304 0.3227135 0.1051625 0.21309811 0.36904812 0.3512818 -0.36048982 -0.19371846
-0.16379066 0.3804159 0.14385495 0.35068232 -0.006102159 -0.01286254 -0.4064336 0.06839123
-0.16859521 -0.38652897 0.35799608 -0.24469179 0.085391104 0.25217158 0.038704906 0.005278276
-0.08560475 0.25295973 0.09710846 0.16108204 -0.00096944644 -0.22443804 -0.30681437 0.18871297
0.105845354 -0.29566973 0.31642753 -0.00526426 0.17317453 0.022488091 0.10079547 0.3690597
0.13099821 -0.30056608 -0.013869897 -0.3913071 -0.26358277 -0.25987074 -0.22834654 0.17593545
0.26625118 -0.32600373 -0.0280463 -0.2762577 -0.32726043 -0.18268707 0.13639878 0.38180354
-0.29487306 0.1757091 -0.3959634 -0.23208591 0.14292054 0.21397702 -0.023814803 -0.050530497
0.0026417903 0.39361608 -0.33951902 -0.15639108 0.059256587 -0.3645524 -0.17718357 0.3883246
-0.4037764 -0.22860257 0.2929785 0.20642668 -0.25639912 0.17180946 0.038584992 -0.34145704
-0.056961793 0.16442965 -0.1920894 -0.022761162 -0.19063275 -0.06367925 -0.0963475 -0.15283425
-0.11593757 -0.23268156 -0.08280479 0.26794747 0.059358593 -0.09225928 -0.20673548 0.20882139
-0.13322711 -0.3407795 -0.3886143 -0.23102221 -0.3963845 0.1674378 -0.11286994 -0.4041108
-0.152411 -0.3211569 -0.01501401 0.29470125 0.12804012 -0.24275942 -0.40040115 -0.1748857

bias f4 [128]
00000000: 0000 0000 0000 0000 0000 0000 0000 0000
00000010: 0000 0000 0000 0000 0000 0000 0000 0000
00000020: 0000 0000 0000 0000 0000 0000 0000 0000
00000030: 0000 0000 0000 0000 0000 0000 0000 0000
00000040: 0000 0000 0000 0000 0000 0000 0000 0000
00000050: 0000 0000 0000 0000 0000 0000 0000 0000
00000060: 0000 0000 0000 0000 0000 0000 0000 0000
00000070: 0000 0000 0000 0000 0000 0000 0000 0000
00000080: 0000 0000 0000 0000 0000 0000 0000 0000
00000090: 0000 0000 0000 0000 0000 0000 0000 0000
000000a0: 0000 0000 0000 0000 0000 0000 0000 0000
000000b0: 0000 0000 0000 0000 0000 0000 0000 0000
000000c0: 0000 0000 0000 0000 0000 0000 0000 0000
000000d0: 0000 0000 0000 0000 0000 0000 0000 0000
000000e0: 0000 0000 0000 0000 0000 0000 0000 0000
000000f0: 0000 0000 0000 0000 0000 0000 0000 0000
00000100: 0000 0000 0000 0000 0000 0000 0000 0000
00000110: 0000 0000 0000 0000 0000 0000 0000 0000
00000120: 0000 0000 0000 0000 0000 0000 0000 0000
00000130: 0000 0000 0000 0000 0000 0000 0000 0000
00000140: 0000 0000 0000 0000 0000 0000 0000 0000
00000150: 0000 0000 0000 0000 0000 0000 0000 0000
00000160: 0000 0000 0000 0000 0000 0000 0000 0000
00000170: 0000 0000 0000 0000 0000 0000 0000 0000
00000180: 0000 0000 0000 0000 0000 0000 0000 0000
00000190: 0000 0000 0000 0000 0000 0000 0000 0000
000001a0: 0000 0000 0000 0000 0000 0000 0000 0000
000001b0: 0000 0000 0000 0000 0000 0000 0000 0000
000001c0: 0000 0000 0000 0000 0000 0000 0000 0000
000001d0: 0000 0000 0000 0000 0000 0000 0000 0000
000001e0: 0000 0000 0000 0000 0000 0000 0000 0000
000001f0: 0000 0000 0000 0000 0000 0000 0000 0000
0.0 0.0 0.0 0.0 0.0 0.0 0.0 0.0
0.0 0.0 0.0 0.0 0.0 0.0 0.0 0.0
0.0 0.0 0.0 0.0 0.0 0.0 0.0 0.0
0.0 0.0 0.0 0.0 0.0 0.0 0.0 0.0
0.0 0.0 0.0 0.0 0.0 0.0 0.0 0.0
0.0 0.0 0.0 0.0 0.0 0.0 0.0 0.0
0.0 0.0 0.0 0.0 0.0 0.0 0.0 0.0
0.0 0.0 0.0 0.0 0.0 0.0 0.0 0.0
0.0 0.0 0.0 0.0 0.0 0.0 0.0 0.0
0.0 0.0 0.0 0.0 0.0 0.0 0.0 0.0
0.0 0.0 0.0 0.0 0.0 0.0 0.0 0.0
0.0 0.0 0.0 0.0 0.0 0.0 0.0 0.0
0.0 0.0 0.0 0.0 0.0 0.0 0.0 0.0
0.0 0.0 0.0 0.0 0.0 0.0 0.0 0.0
0.0 0.0 0.0 0.0 0.0 0.0 0.0 0.0
0.0 0.0 0.0 0.0 0.0 0.0 0.0 0.0

weight f4 [128, 2]
00000000: 1c87 953d 23d2 a5bd 1473 4bbe 86e3 9e3c
00000010: f6db 24be 961f 143e 3f9c b43d 6a06 a33d
00000020: e5c9 44be 46ad 0fbe 829d 2c3e 5817 2e3e
00000030: 02c4 703b 9b74 333e 5e59 563d ae72 0bbd
00000040: e52f cabd 1ef5 b9bd 08e6 553d c305 383d
00000050: fa22 5dbc 870a 27be 918b eabd 6744 7fbc
00000060: 2a61 403d 9654 093e 921f 4c3e a55d 043e
00000070: b8b6 95bd 286c 123e c856 afbd 3def 0ebe
00000080: d481 18be ca40 19bd 41cd 3dbe 609e 383d
00000090: ebe2 1d3e e21a e8bd 9530 adbd cce9 233e
000000a0: 2e8e 6abc 8b65 4b3e d87f 33bd 0b60 d03c
000000b0: 0a92 01be 627e c13d 18f3 b2bd ce83 593d
000000c0: d991 59be 656e a23d 66dd ebbd 1beb d6bd
000000d0: 5804 08bd 97f7 ebbd 24bc 84bd 19d1 423d
000000e0: 15e0 1c3e 513e ab3d 7181 243e effe 403d
000000f0: 194a 813d a584 b73b 600d b83d 33a2 d13d
00000100: 9176 e7bd 5133 bcbd 1867 1dbe 2d7c 253c
00000110: dc48 e03d d6b8 96bc 5c2f 86bc 5734 eebd
00000120: 97d1 41bd 1b4c 443e cfc7 dd3b 95b2 f0bd
00000130: 2419 3bbe 5e0b c23d f498 a3bd d0ce 3e3e
00000140: de33 243e 08eb b83d 0476 9a3d 0974 313b
00000150: 3a12 adbd b3c1 573e 5457 59be b265 233d
00000160: 4b06 a83d 9193 4c3e e828 ce3d 8973 80bd
00000170: fb2e 853c 0274 1dbe 2569 aa3b 110f 853d
00000180: adc8 ecbd 4d23 dabd b9e6 65bd 2c07 423e
00000190: ad8a 4a3e be31 3e3e 0ecc 29be 8580 033e
000001a0: a579 03bd 86e2 053e 2b5a 1fbe bd6f e2bd
000001b0: 7fac 4d3e 94ff 25be c700 2e3e 4e3a 96bd
000001c0: 8e2d 6ebd 43eb 2d3e 8b57 edbd 13bc 383d
000001d0: 65a7 49be 8315 0c3d 999f 1f3e d700 5a3c
000001e0: 54c6 e23d a089 23bd e5c4 563e 610e 2abc
000001f0: fc7a cabd 5030 023e 1092 bebc 0f7b d03d
00000200: a1fb 273e a38d 02bc 68d7 f2bd 6686 ed3d
00000210: ba03 313e 6852 27be 87cd 5cba 09d3 223e
00000220: d2e3 09be b38a 163d b726 11be e9af 5a3e
00000230: 121a 11be dee2 ffbd bc60 0ebe 66fe 2e3e
00000240: 87e7 52bd ec77 07be cff6 52be 53e4 253e
00000250: 13db 97bc 3f5f 06be 8ac4 433e 554f 01bd
00000260: 32d9 a3bd d6e3 e63d 2683 a73d 1bbc 933d
00000270: 315d 5b3d ea1a 953d 56d0 453e 93ce 75bd
00000280: a1fb ddbd c504 073e a2c1 273e 1361 e3bd
00000290: 7923 c6bd e932 c8ba c8d0 033e 4a40 12bd
000002a0: 9994 503d c6e7 c5bd aa81 a33d 88a4 2f3e
000002b0: d763 c6bd 439a 84bc e6dd ac3d ce72 3fbd
000002c0: c504 df3d 7346 073e 7527 423d 3277 2cbd
000002d0: 9076 ab3d 4923 493d 3740 01bd 334c 0dbe
000002e0: 0726 4cbd 9e5a 22be 6109 813d 9936 103e
000002f0: bce2 3c3e 5ff7 50be 8ce4 79bb 589f 293e
00000300: 4b1c a03d 56d0 dd3d fe10 ba3d 6d20 443d
00000310: b8ae 0b3e 78ff 46be 3b5e 4a3d 9d76 f7bd
00000320: 833d 523d 454c 83bd 89e3 173c 8e84 223e
00000330: b016 5b3e 0fca 45be 6d66 26bd c2ae d8bd
00000340: 9fa2 67bd f7f7 0abe 0067 05be 4eec 24be
00000350: eadc 81bd 209e 41bc bf0d 23be 0037 99bc
00000360: f882 12bd 5a6f 1b3e 8fd9 4a3e ec7c 08be
00000370: 8b09 2a3d 99ad 0d3e 202e afbd b060 21be
00000380: 97ca 9ebd 875a 933d b141 b7bd 0db4 9bbd
00000390: c1b3 56be 4738 2d3e 942d 043e 0632 25be
000003a0: 6c4d 52be bdd0 b5bd 315e de3b 39da 813d
000003b0: e7f8 d93d f8f5 903d 356a b4bd 6042 b4bd
000003c0: 0684 e8bd d0c4 03be 9e5e 5bbe dd73 38bd
000003d0: 18d9 53bd 77a9 debd c582 b8bc 3dd0 193e
000003e0: 6201 3abe 912e 5ebd be48 823d e412 1ebe
000003f0: 0393 073e 5e0f 61bd db24 0abd 617b eebd
0.07301161 -0.08096721 -0.19868118 0.019395601 -0.16099533 0.14465174 0.08818864 0.07960208
-0.19217642 -0.14030942 0.1685696 0.17001092 0.0036737924 0.1752495 0.05233132 -0.034044914
-0.098724164 -0.090799555 0.052221328 0.04492737 -0.013497109 -0.1631261 -0.114524014 -0.015580273
0.046967663 0.13411173 0.19933918 0.12926348 -0.073102415 0.14299071 -0.08561474 -0.1395845
-0.14893275 -0.037415303 -0.1853533 0.045072913 0.15418594 -0.113332525 -0.08456532 0.16007155
-0.014316125 0.19862954 -0.043823093 0.025436422 -0.12653366 0.09447934 -0.08737773 0.053104214
-0.21247043 0.07931212 -0.11516838 -0.104940616 -0.033207268 -0.115218334 -0.064811975 0.047562692
0.15319856 0.08361495 0.16065003 0.047118124 0.06312961 0.0056005293 0.08986926 0.10236015
-0.113019116 -0.09189475 -0.15371358 0.010100407 0.10951397 -0.018398684 -0.016380005 -0.11631077
-0.04731902 0.19169657 0.006768204 -0.11752812 -0.18271309 0.09474824 -0.07988158 0.1863358
0.16035411 0.09029204 0.07542041 0.002707722 -0.08450742 0.21069984 -0.2122472 0.039891906
0.08204325 0.19978167 0.10066396 -0.062720366 0.016257754 -0.15376285 0.0052005225 0.06497014
-0.11561713 -0.10651264 -0.056128237 0.18948048 0.19779463 0.18573663 -0.16581747 0.12841995
-0.03209843 0.13074693 -0.1556174 -0.11056469 0.20085333 -0.16210777 0.16992484 -0.073353395
-0.058148913 0.16984276 -0.11588963 0.045101237 -0.19692762 0.034200203 0.15588225 0.013305864
0.11072984 -0.03992617 0.20973547 -0.010379405 -0.09886739 0.12713742 -0.023263007 0.101797216
0.16404583 -0.007968339 -0.11857492 0.115979 0.17286578 -0.16340029 -0.000842296 0.15900816
-0.13465813 0.036753368 -0.14174925 0.21356167 -0.14170101 -0.12494443 -0.13904089 0.17089233
-0.051490333 -0.1322934 -0.20601963 0.1620038 -0.01853708 -0.13122271 0.19117942 -0.031569798
-0.08000411 0.11273925 0.081793115 0.07213613 0.05355567 0.07280524 0.19317755 -0.060011458
-0.1083901 0.13185413 0.16382459 -0.111025 -0.096747346 -0.0015273961 0.12872612 -0.035705842
0.050922964 -0.09663348 0.07983716 0.17152607 -0.09687012 -0.016186839 0.08440761 -0.046740346
0.108895816 0.13210468 0.04740091 -0.04210586 0.083722234 0.049105916 -0.03155538 -0.13798599
-0.049840953 -0.1585488 0.06300617 0.14083327 0.18445867 -0.20406865 -0.003813061 0.16564691
0.078178965 0.108307526 0.09085272 0.047882486 0.13640869 -0.19433391 0.04940627 -0.120831706
0.051328193 -0.06411032 0.009270557 0.15870878 0.21395373 -0.1931536 -0.040625025 -0.105802074
-0.056551572 -0.13571154 -0.13027573 -0.16105768 -0.06340964 -0.011817485 -0.15923212 -0.018702984
-0.035769433 0.15179196 0.19809555 -0.13328904 0.041513007 0.13835754 -0.085537195 -0.1575954
-0.07753485 0.07195001 -0.089480765 -0.07602701 -0.20967008 0.16916 0.12908012 -0.16132364
-0.20537347 -0.08877704 0.006786131 0.06340451 0.106431775 0.07078165 -0.0880932 -0.088017225
-0.113533065 -0.12868047 -0.21422812 -0.04503237 -0.05172071 -0.108721666 -0.022523293 0.15020843
-0.1816459 -0.054243628 0.06361531 -0.15436894 0.13239674 -0.054946296 -0.033726554 -0.116446264

weight f4 [128, 2]
00000000: 5c25 2bbe 43a5 38bd 589c 2bbe e8ce 67bd
00000010: 75f0 1d3e 0c12 a53d e9c6 543e 56db 1f3d
00000020: 5107 c33c 84ae 323e ee85 1f3e d7d4 edbc
00000030: 9a7d 653d 7d46 613c 59bf 5bbe df0b 9f3d
00000040: 514d 38be 19fa 47be 5bcc 213d 9789 d23d
00000050: 56d4 be3d 8f87 0ebe 55c8 4a3e 6105 45be
00000060: 09e5 49bd 9b01 1fbe cbae 173e 91db 12be
00000070: 96b2 59be 9459 213e 6eca 153e fa32 a73c
00000080: eb69 173e fe71 033e 0c1d 0d3e d2b8 b2bd
00000090: 0098 04be 0eee 4a3e 7d49 d2bc 6288 d5bd
000000a0: 63e0 313e 620b 16be 14e7 17bc 4f9e 78bd
000000b0: d0e2 eb3d 7111 25bd b0c9 203e fd94 31be
000000c0: 6c68 3b3e 0891 2abe e878 683d 9037 14be
000000d0: 71e9 96bc 7585 b93d 2578 3ebd 6feb 853d
000000e0: 7c3c 46be 5ebb e03d 734f acbc 424e f4bd
000000f0: 1353 2c3c 9598 18be cf3d 503e 2f4b 393e
00000100: 455a 503d cb89 003d 52c3 ccbd 5b07 bc3d
00000110: 6da4 c6bd c491 0b3e 8bcb 123d 3a2a 04bc
00000120: 6c46 bdbd b188 8d3c 653d c13c 4421 debd
00000130: fdab 843c f1f7 353e 5654 2a3e 0103 563e
00000140: adf2 f33d 1fea c63d f6d3 85bd fa46 92bd
00000150: be5e febc 91dd a4bd 6d22 1fbe f135 013e
00000160: 329d ba3d 521a 3abe cca5 073e 6956 48bd
00000170: bfc4 c4bd 2452 c73c e2ee 4e3e 8e85 27be
00000180: 6715 373e 9acb 38be fd7f aebd 188e e73c
00000190: 180c 07be d00d d63d e404 0f3e caab d2bd
000001a0: 228f 4cbe 4e5c 4abe 6595 36be 0af3 db3d
000001b0: 88eb 94bc c8cc 1cbe aa1c e23d 9aec edbd
000001c0: 82a3 4ebe a79d 993d a538 15be 44bc 303e
000001d0: bf3e d23c 9afe 3ebe b621 29be d748 bfbd
000001e0: 24cc 8fbd a231 2ebe 45c1 91bd 01d2 e8bd
000001f0: 7ef7 e5bd b3c3 c4bc 6512 27be 091a debc
00000200: 1a2f 303d d7e2 29be aef6 d53d 920d 033e
00000210: 5ac1 253d 73d3 e7bd a40b 7cbd f927 23be
00000220: 4aeb fbbd 70e4 35be 9170 ba3d b6b9 3d3e
00000230: 4f90 453e 322d 843d 0a2b 43be fa76 303e
00000240: 9c2c a6bc 672a 913d 5b2d 2d3e 003f debd
00000250: 23f2 c6bc a8bc 22be 7614 dcbd 8949 8fbc
00000260: ceb0 223e 2ea2 cdba 5447 9a3c da25 33be
00000270: 1a26 af3d 13ec b0bd c680 21bd b4d0 e0bc
00000280: 9c69 a03b f8ed 123c 7845 1bbe d9e4 2c3e
00000290: d9f0 8e3d f583 293e 4100 763c fa71 02bc
000002a0: 725f 1a3e d8bc 0e3d 1991 c6bd aef0 3fbe
000002b0: 24b3 6fbd 198b 3a3e 5b5d 683d ed9a d33d
000002c0: 44e7 32be 9b8d f23c 3468 0f3e 6a4a 52be
000002d0: d028 fb3d 027f 08be d277 553e dd6e 333e
000002e0: 0f29 e33d 7869 59be a82f df3c 2347 57bd
000002f0: 28e3 383e fec7 033c e578 1bbe 41e7 9e3d
00000300: 6826 003c e09c 26be ba31 a8bd b5d5 a43d
00000310: 62c0 3dbc 80be 353e 01de 26be 7dbc a93d
00000320: 9a3b 44bd ec7b 1abe ee0c 38bd 3c13 b1bd
00000330: 5ab9 d93c 150d 003d 2ff8 5bbe 7538 5b3c
00000340: 7c20 06bd 5e5e 50be ceb8 583e 5459 fb3d
00000350: 4f60 683c a15a 353e 504f 27be 1a98 e4bc
00000360: 4165 b8bd 2661 2fbe 0509 553c e2ec 3e3c
00000370: 4f8f d13d 5b06 1e3e 7d2c 32be c2b6 ac3d
00000380: e69d 3cbd 3dcb 9b3d 50d7 323e 4994 15be
00000390: a5d4 3cbe cb58 e43d c901 35be e4df 47be
000003a0: f01f 30be befd 3cbc 2064 1b3e db3a 2a3e
000003b0: 0ef2 b33d da13 a13d 14f6 1b3e a2a9 0ebd
000003c0: dc8b b8bd 22e0 f43d 0c98 a93d 9edc 02bd
000003d0: 5ada 97bc d7bc 483e 869c 783d 5256 2d3e
000003e0: 51a6 0b3e 7678 823d 6b46 d4bd c68c 0d3e
000003f0: d0c6 01be 4c38 af3d 514f d23d 7180 493d
-0.1671347 -0.04507948 -0.16758859 -0.056593806 0.15423758 0.08060083 0.20779003 0.039027534
0.0238072 0.17449385 0.15578434 -0.029032154 0.056027986 0.013749716 -0.21459712 0.07765936
-0.17998244 -0.19528998 0.03950153 0.102801494 0.093178436 -0.13918899 0.19802983 -0.19240333
-0.04929069 -0.15527956 0.14812772 -0.1434157 -0.21259531 0.15756828 0.14628002 0.02041005
0.14786498 0.12836453 0.13780612 -0.08726658 -0.12948608 0.19817373 -0.025669808 -0.104264036
0.17370753 -0.1465278 -0.009271402 -0.06069785 0.115178704 -0.040299837 0.15701938 -0.17341991
0.18301553 -0.16656888 0.05675593 -0.1447432 -0.01842186 0.09058658 -0.046501298 0.06539046
-0.1935901 0.109732375 -0.021033978 -0.11928989 0.010517853 -0.14901955 0.20336078 0.18095087
0.050867338 0.03138141 -0.09998192 0.091810904 -0.096993305 0.13629824 0.035838645 -0.008066708
-0.092419475 0.017277094 0.023588846 -0.10846189 0.016195292 0.17770363 0.16633734 0.20899583
0.11911521 0.09712624 -0.06534569 -0.07142444 -0.031051036 -0.08050073 -0.15540476 0.12618233
0.09112014 -0.18174103 0.1324684 -0.048910532 -0.09607839 0.02433116 0.20208314 -0.16359541
0.17879258 -0.18046418 -0.085205056 0.028265998 -0.13188207 0.10451853 0.1396671 -0.102866724
-0.19976476 -0.19761774 -0.17830427 0.107397154 -0.018178716 -0.15312493 0.110406235 -0.11617394
-0.20179561 0.07500773 -0.1457239 0.17259318 0.025664685 -0.1865181 -0.16516766 -0.09340065
-0.070213586 -0.17011121 -0.07116941 -0.1136818 -0.11228846 -0.024019098 -0.1631561 -0.027112024
0.04301367 -0.16590439 0.10447441 0.12798145 0.040467598 -0.113196276 -0.06153454 -0.15933217
-0.12300737 -0.17762923 0.091035016 0.18527874 0.1929333 0.06453933 -0.19059387 0.17232886
-0.020284943 0.07088166 0.16911833 -0.1085186 -0.024285382 -0.15892279 -0.1074609 -0.017491119
0.15887758 -0.0015688592 0.01883284 -0.17494908 0.08552189 -0.086387776 -0.03942945 -0.027443267
0.004895402 0.008967869 -0.15163219 0.16884173 0.06979532 0.16554244 0.015014709 -0.007961744
0.15075472 0.034848064 -0.09695644 -0.18744156 -0.05852045 0.18217124 0.056729656 0.10332284
-0.17471033 0.029608538 0.14004594 -0.20536199 0.12263644 -0.133297 0.20846489 0.1752276
0.11091816 -0.2123164 0.027244404 -0.052558076 0.18055403 0.008043287 -0.15182836 0.07758952
0.007821657 -0.1627078 -0.082126096 0.08048574 -0.011581512 0.17748451 -0.16295625 0.082879044
-0.047908403 -0.15086335 -0.044934206 -0.08646247 0.02657764 0.031262476 -0.21481393 0.01338016
-0.032745823 -0.20348498 0.21164247 0.12272897 0.014183118 0.17710353 -0.16338849 -0.027904559
-0.09003688 -0.17126903 0.013002639 0.011653157 0.10232412 0.15432112 -0.17399783 0.08433296
-0.04604902 0.07607124 0.17464948 -0.14607348 -0.18440492 0.111497484 -0.17676462 -0.19519001
-0.17199683 -0.011535106 0.15174913 0.16624014 0.08786403 0.078651145 0.1523059 -0.034829743
-0.09011051 0.119568124 0.08280954 -0.03194868 -0.018536735 0.19603287 0.060696147 0.1692746
0.13637663 0.06370632 -0.10364994 0.13823232 -0.12673497 0.0855566 0.10269035 0.049194757

att_src f4 [1, 4, 32]
00000000: 3ea2 06bd 8bf4 043b a6c7 0cba f66b ed32
00000010: d443 1eb5 30c1 1c35 bd70 c33a 8c82 0e3b
00000020: bcf6 9b39 8cd3 62b8 7ca2 423a c697 0a3b
00000030: e730 0d36 bf78 b4bc 9ec1 f73a 7996 9ebc
00000040: 8ea3 2cba f4aa 1c3b 1f6b 0e3b 0b58 53ad
00000050: 130e 872f 8fbc ef3a 86ac fc31 5d67 b53a
00000060: 3f6d 36bc 58c3 87bc 49de 093b 33c8 bd37
00000070: 0f99 f4b7 87fa 1538 a88e 74af b2a8 1f35
00000080: aab0 9b3d 2a76 013e 5d1b 27bd 33c3 fbbb
00000090: dd9a 973c 978d fabb 41c3 56bd f128 04ba
000000a0: 18c5 d83d 470a 5e3d 24a4 3d3d 8f16 40bd
000000b0: 8a13 1bbc 981d 8abc dc79 b7bd a9de 80bc
000000c0: bd43 f6bd adb7 b1bd bb32 aebc e118 8ebd
000000d0: 2733 20bb 3e47 4ebd 7913 a9bd fd1a 71bd
000000e0: 3e8f e7bd 656f 6a3d 3401 51bb 14f6 e2bd
000000f0: 3f06 133d 39ce 08be cf76 203d f702 123d
00000100: d3bf fb3b b823 9039 c581 1dbc 79ff 17bb
00000110: 8c87 64bc 2574 75bb 8e6b 0f3b cd6a a5bb
00000120: eed2 89b9 d7ff 8abb c8b7 82b9 c6c2 d93b
00000130: 3076 b7ba aab5 463c 0ca3 c5a2 5631 92bb
00000140: 41c2 bbbb fe90 188b 3196 b73c 39b5 94bb
00000150: 612b d03c ab83 18bc 6f6d a3bb 5808 263c
00000160: f658 09bc 63a7 c5bb 37eb 16bb 5ff0 39bb
00000170: aa91 a33b 64a4 f23c 032c c0bb dbaa 3f3d
00000180: a743 73bc 5f06 903a 0297 6fb7 e590 ca3a
00000190: b206 6fbc b413 2abd ac6e 6e3a 1c32 aa3a
000001a0: 3a62 e9bb cca1 b03a c879 6ebc c63f ae3a
000001b0: a90c cc3a 65b4 873a 1071 a83a 684b b23a
000001c0: 7868 ae3a 9f9b 4a9f 7449 923a 48d0 933a
000001d0: ef29 07bc bbd8 5931 b636 abbc 9c71 d4bc
000001e0: bc45 0625 5ccc 29b7 8cb5 d53a bf41 80bc
000001f0: fc4d 74bc 23c9 1dbd 2d72 e5ad c2e7 9e3a
-0.03286957 0.002028736 -0.0005370326 2.7639526e-08 -5.895829e-07 5.8395653e-07 0.0014910918 0.0021745292
0.00029747735 -5.4079617e-05 0.0007424725 0.0021147593 2.1039102e-06 -0.022030232 0.0018902307 -0.01935886
-0.0006585651 0.0023905607 0.002173133 -1.2013511e-11 2.4566357e-10 0.0018290448 7.353779e-09 0.0013840009
-0.011134445 -0.01657264 0.0021037033 2.262378e-05 -2.915834e-05 3.575769e-05 -2.2242352e-10 5.94776e-07
0.07602055 0.12642732 -0.04079758 -0.0076831817 0.018506462 -0.0076462734 -0.052432302 -0.0005041501
0.10584468 0.05420902 0.046299115 -0.046896514 -0.009465108 -0.016859815 -0.0895879 -0.015731173
-0.12024639 -0.086776115 -0.021264425 -0.06938339 -0.0024444552 -0.05036091 -0.08255667 -0.05886363
-0.11306618 0.05723514 -0.0031891586 -0.11082092 0.03589463 -0.13359918 0.039175805 0.03564736
0.0076827793 0.00027492433 -0.009613459 -0.0023193045 -0.0139483325 -0.003745326 0.0021884176 -0.005048132
-0.0002628783 -0.0042419243 -0.0002493246 0.0066455333 -0.0013997015 0.012128273 -5.356959e-18 -0.0044614477
-0.005729944 -2.9383215e-32 0.022410484 -0.004538205 0.02541131 -0.009308736 -0.0049874107 0.010133825
-0.008383026 -0.006031917 -0.0023028383 -0.0028372032 0.0049917297 0.029619403 -0.0058646216 0.0467938
-0.014847673 0.0010988227 -1.4280669e-05 0.0015454559 -0.014588999 -0.041522697 0.0009095471 0.0012984904
-0.007122305 0.0013475954 -0.014555402 0.0013294152 0.0015567738 0.0010353444 0.0012851078 0.0013602795
0.0013306281 -4.290389e-20 0.0011160807 0.0011277283 -0.008249744 3.1700853e-09 -0.020900112 -0.02593308
1.1646274e-16 -1.0120766e-05 0.0016304716 -0.01565635 -0.014911171 -0.038521897 -2.608499e-11 0.0012123513

att_dst f4 [1, 4, 32]
00000000: b604 0080 a800 0080 6101 0000 8901 0000
00000010: 6001 0000 6101 0080 0801 0080 6001 0080
00000020: 6901 0080 6101 0000 5f01 0000 5f01 0000
00000030: 4c01 0080 6e01 0080 6001 0000 6001 0000
00000040: 1b00 0080 b701 0000 5f01 0000 8001 0080
00000050: 6001 0000 6201 0000 b201 0000 6001 0000
00000060: 1a01 0000 9901 0080 6001 0080 6201 0080
00000070: 0801 0000 5f01 0080 6201 0000 8000 0000
00000080: 6001 0080 1701 0000 5f01 0080 6201 0000
00000090: 6001 0000 5f01 0080 5f01 0080 6201 0000
000000a0: 5f01 0080 6001 0000 6101 0080 5f01 0000
000000b0: 9507 0000 0801 0000 a601 0080 6001 0080
000000c0: 6001 0000 6301 0080 6c01 0080 6001 0080
000000d0: ff07 0000 0401 0080 6201 0080 5f01 0080
000000e0: 5f01 0000 8201 0080 6101 0000 c201 0000
000000f0: 6101 0080 5f01 0000 6101 0080 4201 0080
00000100: b101 0000 6201 0080 6001 0000 ea00 0080
00000110: bd01 0080 b901 0000 6301 0000 4f01 0080
00000120: 6401 0000 6301 0080 a401 0000 6f01 0000
00000130: fe01 0000 a001 0000 bd01 0080 9001 0000
00000140: d703 0000 9601 0080 6001 0000 b101 0000
00000150: 9901 0000 1801 0080 6201 0080 3e00 0080
00000160: 9101 0080 1a04 0000 6001 0000 1201 0080
00000170: 6401 0000 d100 0000 6101 0000 5f01 0000
00000180: b601 0080 4601 0000 9501 0080 7b01 0080
00000190: 6001 0000 7201 0000 1202 0080 6101 0000
000001a0: 7f01 0000 6001 0000 6301 0000 8301 0000
000001b0: 9801 0080 b601 0000 6a01 0000 c201 0080
000001c0: 9401 0080 5f01 0080 7b01 0080 5f01 0080
000001d0: 6201 0000 6401 0000 2b01 0080 7e01 0080
000001e0: 2a01 0080 8001 0000 7501 0000 8b01 0000
000001f0: 8401 0080 e500 0080 c101 0000 bd01 0000
-1.69e-42 -2.35e-43 4.95e-43 5.51e-43 4.93e-43 -4.95e-43 -3.7e-43 -4.93e-43
-5.06e-43 4.95e-43 4.92e-43 4.92e-43 -4.65e-43 -5.13e-43 4.93e-43 4.93e-43
-3.8e-44 6.15e-43 4.92e-43 -5.38e-43 4.93e-43 4.96e-43 6.08e-43 4.93e-43
3.95e-43 -5.73e-43 -4.93e-43 -4.96e-43 3.7e-43 -4.92e-43 4.96e-43 1.8e-43
-4.93e-43 3.91e-43 -4.92e-43 4.96e-43 4.93e-43 -4.92e-43 -4.92e-43 4.96e-43
-4.92e-43 4.93e-43 -4.95e-43 4.92e-43 2.72e-42 3.7e-43 -5.91e-43 -4.93e-43
4.93e-43 -4.97e-43 -5.1e-43 -4.93e-43 2.868e-42 -3.64e-43 -4.96e-43 -4.92e-43
4.92e-43 -5.41e-43 4.95e-43 6.3e-43 -4.95e-43 4.92e-43 -4.95e-43 -4.51e-43
6.07e-43 -4.96e-43 4.93e-43 -3.28e-43 -6.24e-43 6.18e-43 4.97e-43 -4.7e-43
4.99e-43 -4.97e-43 5.89e-43 5.14e-43 7.15e-43 5.83e-43 -6.24e-43 5.6e-43
1.377e-42 -5.69e-43 4.93e-43 6.07e-43 5.73e-43 -3.92e-43 -4.96e-43 -8.7e-44
-5.62e-43 1.471e-42 4.93e-43 -3.84e-43 4.99e-43 2.93e-43 4.95e-43 4.92e-43
-6.14e-43 4.57e-43 -5.68e-43 -5.31e-43 4.93e-43 5.18e-43 -7.43e-43 4.95e-43
5.37e-43 4.93e-43 4.97e-43 5.42e-43 -5.72e-43 6.14e-43 5.07e-43 -6.3e-43
-5.66e-43 -4.92e-43 -5.31e-43 -4.92e-43 4.96e-43 4.99e-43 -4.19e-43 -5.35e-43
-4.18e-43 5.38e-43 5.23e-43 5.54e-43 -5.44e-43 -3.21e-43 6.29e-43 6.24e-43

bias f4 [128]
00000000: e819 1c3d 61fb f3b5 cb71 7e3c 5840 3521
00000010: d875 2730 d706 0000 f742 0437 ec8f 9fb7
00000020: ea60 30a1 da7a 703c ca96 66b5 8478 a236
00000030: d702 7a3c e6db cc3c d876 9535 d54d 9a3c
00000040: e968 613c f3d0 a034 aa31 1fb3 7006 0000
00000050: 5a6a 83a6 0f98 f7b6 03a4 171b b203 6236
00000060: cd43 6c3c a910 183d 5b8b 2836 0d20 723c
00000070: e4a3 6c3c 693a 773c 9d02 0000 ccd7 0300
00000080: 521c c436 14b7 56b4 4f99 80ba b9a8 723c
00000090: 33b2 8a39 6901 0000 41d6 6d3c 870f 603d
000000a0: ec28 8fb5 7217 d436 5b66 43b9 8101 0000
000000b0: 8900 0080 4097 183c ed80 763c 6d01 0080
000000c0: 6101 0000 e3b7 733c 8f0f 0080 6422 773c
000000d0: 8809 803c 194d ea3d 62c8 743c 1447 da3d
000000e0: a602 7f3c ec08 83b8 57b8 a935 56d0 713c
000000f0: c870 dd35 5f01 0000 2eda 4938 f132 1d39
00000100: c9b1 4f36 9aa8 91b7 aa1b 833d 7068 953d
00000110: 2bf9 f238 b835 803c c8a1 07b6 4c88 c936
00000120: 4abc 763c fe75 733c 2060 623c c389 d238
00000130: c531 77af 429b 2a37 9f01 0000 8647 fdb6
00000140: 909e 443c 6201 0000 5f26 b938 89b0 813c
00000150: c0fd ba36 307c 38b8 2c86 1f3c 6d57 c138
00000160: b226 343c d715 753c b4e2 743c 0714 933d
00000170: 4edd 6cb7 d164 8638 5fa7 953d 9367 e338
00000180: 3839 3c3c cb91 07b7 05f8 6d3c 4425 ab38
00000190: 4f8a 463c 070d a13c ed2d 0638 b625 f734
000001a0: 206d 793c 57b9 3f38 6554 2d3c 6e05 9733
000001b0: e2dd 27b7 db80 a7b7 2a84 4f33 3abd dab7
000001c0: eb92 5033 f404 0080 78df 89b8 41c4 cbb7
000001d0: 1f28 5b3d b660 848f 3809 6b3d 9696 ec3c
000001e0: 9421 0980 b191 b0ad 14cc 46b8 0780 333d
000001f0: 8a54 3f3c bc6e 3f3c 98e7 e222 fb06 31b7
0.038110644 -1.8178072e-06 0.01553006 6.1410344e-19 6.092171e-10 2.454e-42 7.883405e-06 -1.9021296e-05
-5.9759384e-19 0.014677728 -8.5901104e-07 4.842006e-06 0.015259466 0.0250072 1.1135953e-06 0.018835941
0.013757923 2.9954353e-07 -3.706524e-08 2.31e-42 -9.118778e-16 -7.3788756e-06 1.2543422e-22 3.3678775e-06
0.014420462 0.037125263 2.5115066e-06 0.014778149 0.014443371 0.01508961 9.37e-43 3.5292e-40
5.844552e-06 -1.9996907e-07 -0.0009811315 0.014810734 0.0002645418 5.06e-43 0.014516414 0.054702308
-1.066624e-06 6.3208217e-06 -0.0001863478 5.4e-43 -1.92e-43 0.009313405 0.015045387 -5.11e-43
4.95e-43 0.014875385 -5.581e-42 0.015083883 0.015629545 0.114404865 0.014940353 0.10658088
0.015564596 -6.2482286e-05 1.2645131e-06 0.014759144 1.6498607e-06 4.92e-43 4.812533e-05 0.00014991664
3.0948888e-06 -1.7363858e-05 0.06401761 0.072953105 0.000115858704 0.015650615 -2.0210737e-06 6.006134e-06
0.01505954 0.0148596745 0.013816863 0.000100392404 -2.2482201e-10 1.0168938e-05 5.82e-43 -7.548314e-06
0.012000695 4.96e-43 8.8286346e-05 0.015831249 5.5727724e-06 -4.3984677e-05 0.009736579 9.2192415e-05
0.010995554 0.01495882 0.014946628 0.07181554 -1.4118223e-05 6.4083964e-05 0.07307314 0.00010843496
0.011488251 -8.080572e-06 0.0145244645 8.160857e-05 0.012117936 0.019659532 3.199086e-05 4.6034774e-07
0.015223771 4.571056e-05 0.010579203 7.032473e-08 -1.0005637e-05 -1.9967954e-05 4.8316146e-08 -2.607574e-05
4.8562395e-08 -1.777e-42 -6.5742934e-05 -2.4290874e-05 0.05350506 -1.3053457e-29 0.05738184 0.028880399
-8.38565e-40 -2.0073583e-11 -4.739694e-05 0.04382327 0.0116778705 0.011684116 6.1502632e-18 -1.0551647e-05

weight f4 [128, 2]
00000000: 5ef2 04be f321 4fba c0a9 9c3b 8b3f adba
00000010: 1707 acb9 09ce 6c3a 4afb 8bb3 2e01 c532
00000020: 71f7 02b5 2276 1b35 0a03 fe34 6e5a 19b5
00000030: 571a 7f3b 5d76 62ba 2ecf 8f3b 907f c9ba
00000040: a1d7 4639 81c3 99b9 431f 23ba 0a89 42b7
00000050: 98cf 213b 0fa8 cbb9 8c90 923b a7da deba
00000060: 6c23 9db8 1d37 3eb7 e923 afbd b4df e838
00000070: 6569 973b db20 a6ba 0e81 9cbd d7cc bfb9
00000080: 4693 42bb 933c 2e38 b5a1 923b eb99 f3ba
00000090: 276e 953b 19d0 06bb af64 152e d197 1d2c
000000a0: 35b9 80b3 3775 09b0 9aef 963b a38d dcba
000000b0: bdf1 3133 29d5 d4b2 ce0f 833b f26f 49ba
000000c0: 5ab2 17bd a680 f53a f5d4 83bd 1990 19b9
000000d0: dde3 9f3b bd19 c3ba e162 a9b9 06b8 94b8
000000e0: 2008 26b9 bbf6 90b6 4382 7eb8 69dd f4b8
000000f0: 9be0 14ae 66a3 352f da70 0535 ff25 1db5
00000100: 4768 813d 63b7 29bd f53e d93d 2bcc 8bbd
00000110: c515 77bd 2fcb 9cbc 1769 d8bb af48 823b
00000120: 3270 863c 6549 07bc a965 d7bb cb9f 813b
00000130: 8b9b 34bd 95d8 e73c 8657 9bbb e25f e2bb
00000140: a476 b53d b6b2 6abd 235c 353d d33d f5bc
00000150: 0a2c 1e3d 13af c9bc 1c92 21bd b456 cf3c
00000160: f6a2 04bc 1a34 a23b dab2 2a38 9fd3 fa3c
00000170: 243d 9abd d5ff 453d 5d6c 5abc 215c 093c
00000180: c90d cfbd d9c0 843d d765 95bd 3ccc 3f3d
00000190: c01d 93bc 6ee0 3a3c 02ed 6ebd bb66 193d
000001a0: 9d7e 4eb8 736d 933b 3048 abbd e2b6 1dbd
000001b0: 6122 8ebd ed7c 363d f8d4 bebd 8f90 1abd
000001c0: a5ad c2bd c7b7 793d d0f1 3f3d 9ddc ffbc
000001d0: 0106 35bb f491 d83a 3ccf bebd 26c7 743d
000001e0: 2218 e63c 5b8a a8bc 6313 e6bd 626a 933d
000001f0: fd9a 053d 23c2 a9bc 874b f43c aecf 98bc
00000200: 5706 2b3c 8362 9ebb 604c a23a 45cf 483a
00000210: 5d02 92bc d820 233b 1dc5 08bb 3a2a 0c3b
00000220: 91c0 9bbc 238e 0d3c 74f8 2dba 004d a43b
00000230: 0f7d 4e3b 4ec7 acba c899 3dbb 6ec2 6d3b
00000240: 78e5 c7b9 d046 2e39 fcf3 23bb 3ed9 673b
00000250: 26fb 0bba b1c9 b238 6c7a 6e3c afd7 4bb9
00000260: f6af cdba d5c6 773a 3f91 9c3c c637 a8bb
00000270: b917 fca2 ee8b f922 ed04 21bc 816f dc3a
00000280: 0af8 f0bb b7bb 6f3b cb5e 328a ded6 dc0a
00000290: da04 fd3c 4fa2 4cbc efed b0b9 ee68 eb3b
000002a0: bc1e 193d 5b7d 61bc c50a 83bc ba78 803b
000002b0: dc1e 87bb 1d5d 7b3b 4528 8d3c 1368 66bb
000002c0: 7b21 9a37 b819 663c a219 09bc ce46 673b
000002d0: 7283 44bb d395 b93a 7f7f 5abb 9d37 063b
000002e0: 8ef7 dc3b 76ce 45bb 4fad 3a3d c860 80bc
000002f0: cd72 29bc e520 ff3a ddb1 9b3d 956b c8bc
00000300: e9bd 2338 bc5c 9c3c afc5 c5b7 2938 bdba
00000310: 87ec e1b8 907e e936 b9d6 88b7 3fbc 03bb
00000320: ebc3 9fb7 f9cc 993c 4092 ecbc 6aac 543d
00000330: 91d7 78b8 36cf 96ba 96f4 6d39 98ec d4ba
00000340: 08e9 f3b9 1e2b 123c 19a6 74b8 cf1f cfba
00000350: ec1a 5c38 ef46 a03c f1b2 95b6 cfbd d6ba
00000360: 2afc e0b7 6a77 07bb aa19 deb4 e9b8 aaba
00000370: 754c 063a 1eb7 ddba e2b1 aab7 47dd ceba
00000380: b7e0 3d39 252c ceba f620 699d 15a3 4a1f
00000390: e458 18b8 4e49 c8ba 7eb3 e2b7 1ebd bfba
000003a0: 4d37 31bb 80b3 2a3c b1ed 5f2f 5e6f 5ab1
000003b0: 50b1 6fbc 97c8 c03c b3b3 05bc b817 143d
000003c0: e9b1 2623 fd06 06a5 b846 37b5 204f 2937
000003d0: 7c32 53b8 c7d3 03bb 1818 beb7 5378 9b3c
000003e0: cd45 9238 3eea 993c 2189 6bbd 02df 3d3d
000003f0: f736 3f2b 6578 e82d 8066 23b8 c681 c0ba
-0.1298308 -0.0007901482 0.004780978 -0.001321779 -0.0003281168 0.0009033387 -6.518401e-08 2.2934355e-08
-4.878885e-07 5.7913905e-07 4.7313398e-07 -5.7128534e-07 0.0038925612 -0.00086388533 0.0043887114 -0.00153731
0.0001896308 -0.00029328096 -0.0006222615 -1.1595208e-05 0.0024690386 -0.0003884439 0.0044727977 -0.0017002419
-7.492941e-05 -1.1337715e-05 -0.08551771 0.0001110429 0.0046207183 -0.0012674587 -0.07641803 -0.00036582976
-0.0029689833 4.1541247e-05 0.0044748434 -0.00185853 0.0045602503 -0.0020570813 3.3968103e-11 2.2395317e-12
-5.9941534e-08 -5.000688e-10 0.0046061995 -0.0016826879 4.1430884e-08 -2.4776982e-08 0.003999687 -0.00076842227
-0.037035324 0.0018730357 -0.06437103 -0.00014644898 0.0048794583 -0.001488499 -0.00032307862 -7.091467e-05
-0.0001583402 -4.3202576e-06 -6.0679635e-05 -0.000116760675 -3.3850794e-11 1.6519905e-10 4.971058e-07 -5.854235e-07
0.063187174 -0.041434657 0.10607711 -0.06826051 -0.060323495 -0.019139854 -0.0066043246 0.0039759497
0.01641092 -0.008257245 -0.006573398 0.0039558164 -0.04409365 0.028301517 -0.004740658 -0.006908403
0.088605195 -0.05729934 0.04427732 -0.029936707 0.038616218 -0.024619615 -0.03944598 0.025309898
-0.008095494 0.0049500586 4.0697727e-05 0.030618487 -0.07531193 0.048339684 -0.0133315 0.008383782
-0.10110051 0.06482095 -0.07294815 0.046825632 -0.017958522 0.011406047 -0.058331497 0.037451487
-4.9232145e-05 0.0044991313 -0.08363378 -0.03850449 -0.06940151 0.044552732 -0.09317964 -0.037735518
-0.09505776 0.06096628 0.04686147 -0.031233126 -0.0027621987 0.001652299 -0.093168706 0.059760235
0.02808768 -0.020573786 -0.112341665 0.07198025 0.03261851 -0.020722454 0.02982117 -0.018653717
0.010438523 -0.004833521 0.0012382381 0.000766028 -0.017823393 0.0024891403 -0.0020869442 0.0021387474
-0.019012721 0.008639845 -0.00066364487 0.005014062 0.0031507646 -0.0013181956 -0.0028930772 0.003627922
-0.00038127205 0.00016620313 -0.0025017252 0.003537729 -0.0005339853 8.5252694e-05 0.014555555 -0.00019439937
-0.0015692699 0.00094519305 0.019112227 -0.005133602 -6.8329854e-18 6.763974e-18 -0.009827835 0.0016817899
-0.0073537873 0.0036580393 -8.588217e-33 2.1266053e-32 0.030886102 -0.012489869 -0.0003374661 0.0071841395
0.037382826 -0.013762797 -0.015996346 0.0039206417 -0.004123552 0.003835506 0.017231116 -0.0035157248
1.8373821e-05 0.014044218 -0.008367928 0.0035290006 -0.0029985574 0.0014159031 -0.0033340154 0.0020479925
0.006743378 -0.0030182875 0.045575436 -0.015671149 -0.010342312 0.0019464759 0.07602284 -0.024465362
3.9039096e-05 0.019087188 -2.3576284e-05 -0.0014436293 -0.00010772893 6.958675e-06 -1.6312451e-05 -0.0020101217
-1.9045508e-05 0.018774496 -0.028878331 0.05192224 -5.932857e-05 -0.0011505845 0.00022693197 -0.0016244827
-0.00046522194 0.008921413 -5.8328824e-05 -0.0015802326 5.247716e-05 0.019565074 -4.4613776e-06 -0.0016383472
-2.6820304e-05 -0.0020670542 -4.1369395e-07 -0.0013025078 0.00051230873 -0.0016915535 -2.0348412e-05 -0.0015782499
0.00018108157 -0.0015729709 -3.0854334e-21 4.2910062e-20 -3.632241e-05 -0.0015280636 -2.7024882e-05 -0.0014628505
-0.0027041018 0.010418773 2.0366177e-10 -3.178648e-09 -0.014629677 0.023533149 -0.008160519 0.036155432
9.036552e-18 -1.1625015e-16 -6.827572e-07 1.0091608e-05 -5.0353337e-05 -0.0020115243 -2.2660985e-05 0.018978273
6.974824e-05 0.018788453 -0.057503823 0.046355255 6.793311e-13 2.6428812e-11 -3.895769e-05 -0.0014687113

weight f4 [128, 16]
00000000: a701 0000 8d01 0000 7e01 0080 6901 0000
00000010: 7c01 0000 8401 0080 6f01 0080 7903 0080
00000020: 0001 0080 b001 0000 1504 0080 a601 0000
00000030: 8a01 0000 7501 0000 0301 0000 1601 0000
00000040: 8507 0000 9801 0080 f203 0000 a001 0000
00000050: 8f01 0000 a001 0000 4f01 0000 5f01 0000
00000060: 1600 0000 8001 0000 fd00 0080 c004 0000
00000070: b701 0000 7204 0080 2701 0080 2d01 0080
00000080: ab01 0080 6e01 0000 7501 0000 9101 0000
00000090: 8f01 0080 6a01 0000 7701 0000 5f01 0000
000000a0: 6201 0000 7301 0080 5f01 0000 4601 0000
000000b0: c101 0000 b801 0000 5f01 0080 c201 0000
000000c0: 6901 0080 2b0b 0000 6d01 0080 c508 0080
000000d0: 9001 0000 6100 0000 9001 0080 0401 0080
000000e0: 7f01 0000 6801 0000 6201 0080 9801 0080
000000f0: 9b01 0080 a801 0080 c80b 0000 bb01 0080
00000100: be07 0080 1804 0000 6204 0000 7f00 0080
00000110: 7701 0080 5f01 0080 6401 0080 3104 0080
00000120: b603 0000 f503 0080 8303 0000 6001 0000
00000130: 6900 0080 6001 0000 6907 0000 5f01 0000
00000140: d403 0080 5f01 0080 6001 0080 6401 0080
00000150: 6001 0080 5f01 0000 ab01 0000 6d00 0080
00000160: 5f01 0080 1c04 0080 5f01 0000 5f01 0080
00000170: 5f01 0000 2404 0080 6a01 0080 8f01 0080
00000180: bf03 0080 8701 0000 5f01 0080 5f01 0080
00000190: 9e03 0000 6b01 0000 9001 0080 5704 0000
000001a0: 5f01 0000 9901 0080 ab01 0000 7201 0080
000001b0: bb01 0080 8803 0000 6e01 0000 6001 0000
000001c0: 7201 0000 1004 0000 6c03 0080 6a01 0080
000001d0: b901 0000 3b04 0000 7601 0000 5f01 0000
000001e0: 4e00 0000 1e04 0080 ab01 0080 a801 0080
000001f0: 8001 0080 6901 0080 0b04 0080 b001 0080
00000200: 7d01 0000 6b00 0000 8c01 0080 6101 0000
00000210: d302 0080 8307 0080 7201 0080 6d01 0080
00000220: 5f01 0000 7401 0000 bc01 0080 da02 0080
00000230: 6301 0000 b401 0000 6c01 0080 7701 0080
00000240: b401 0000 b501 0000 7801 0000 6001 0000
00000250: ad01 0000 6301 0000 8801 0000 8001 0000
00000260: 6601 0000 5f01 0080 7401 0080 a901 0080
00000270: 8d01 0000 5f01 0000 6001 0000 6001 0080
00000280: e704 0080 7e01 0080 9b01 0080 3e08 0080
00000290: e104 0080 7401 0000 2704 0000 c504 0000
000002a0: 0e01 0080 4a01 0000 d402 0080 0f03 0080
000002b0: 6401 0000 0207 0000 fa0b 0080 8a01 0000
000002c0: 9e01 0000 6401 0000 5f01 0000 9401 0080
000002d0: 7b01 0080 9f03 0000 8d01 0080 5f01 0000
000002e0: 6501 0080 1f04 0000 e903 0000 7c01 0000
000002f0: 9201 0080 3004 0080 a401 0080 ee03 0080
00000300: 5f01 0080 7801 0000 0502 0080 ff00 0000
00000310: b001 0080 d304 0000 8808 0000 8401 0080
00000320: 4803 0000 8601 0000 0501 0000 a401 0080
00000330: 2e03 0000 7701 0000 d304 0080 0602 0080
00000340: e403 0080 9501 0000 7b01 0000 6801 0000
00000350: d507 0080 9504 0000 7101 0000 9801 0000
00000360: aa01 0000 7e01 0080 3001 0080 8f01 0080
00000370: 7901 0080 9901 0080 8b01 0000 e502 0000
00000380: 5f01 0080 7801 0080 9601 0080 5f01 0080
00000390: a101 0080 6001 0000 6001 0080 5f01 0080
000003a0: 2604 0080 9301 0080 af01 0080 6001 0000
000003b0: 6501 0000 5f01 0080 3104 0080 bd01 0080
000003c0: 5f01 0000 7d01 0000 2f04 0000 6501 0080
000003d0: 5f01 0000 5f01 0000 b201 0000 8e01 0000
000003e0: 6001 0080 5f01 0000 e203 0000 6a01 0080
000003f0: a201 0000 6301 0080 b401 0000 b301 0080
5.93e-43 5.56e-43 -5.35e-43 5.06e-43 5.32e-43 -5.44e-43 -5.14e-43 -1.246e-42
-3.59e-43 6.05e-43 -1.464e-42 5.91e-43 5.52e-43 5.23e-43 3.63e-43 3.9e-43
2.697e-42 -5.72e-43 1.415e-42 5.83e-43 5.59e-43 5.83e-43 4.7e-43 4.92e-43
3.1e-44 5.38e-43 -3.55e-43 1.704e-42 6.15e-43 -1.595e-42 -4.13e-43 -4.22e-43
-5.98e-43 5.13e-43 5.23e-43 5.62e-43 -5.59e-43 5.07e-43 5.25e-43 4.92e-43
4.96e-43 -5.2e-43 4.92e-43 4.57e-43 6.29e-43 6.17e-43 -4.92e-43 6.3e-43
-5.06e-43 4.006e-42 -5.11e-43 -3.146e-42 5.6e-43 1.36e-43 -5.6e-43 -3.64e-43
5.37e-43 5.04e-43 -4.96e-43 -5.72e-43 -5.76e-43 -5.94e-43 4.226e-42 -6.21e-43
-2.777e-42 1.469e-42 1.572e-42 -1.78e-43 -5.25e-43 -4.92e-43 -4.99e-43 -1.504e-42
1.331e-42 -1.42e-42 1.26e-42 4.93e-43 -1.47e-43 4.93e-43 2.658e-42 4.92e-43
-1.373e-42 -4.92e-43 -4.93e-43 -4.99e-43 -4.93e-43 4.92e-43 5.98e-43 -1.53e-43
-4.92e-43 -1.474e-42 4.92e-43 -4.92e-43 4.92e-43 -1.485e-42 -5.07e-43 -5.59e-43
-1.344e-42 5.48e-43 -4.92e-43 -4.92e-43 1.298e-42 5.09e-43 -5.6e-43 1.557e-42
4.92e-43 -5.73e-43 5.98e-43 -5.18e-43 -6.21e-43 1.267e-42 5.13e-43 4.93e-43
5.18e-43 1.457e-42 -1.228e-42 -5.07e-43 6.18e-43 1.518e-42 5.24e-43 4.92e-43
1.1e-43 -1.477e-42 -5.98e-43 -5.94e-43 -5.38e-43 -5.06e-43 -1.45e-42 -6.05e-43
5.34e-43 1.5e-43 -5.55e-43 4.95e-43 -1.013e-42 -2.695e-42 -5.18e-43 -5.11e-43
4.92e-43 5.21e-43 -6.22e-43 -1.023e-42 4.97e-43 6.11e-43 -5.1e-43 -5.25e-43
6.11e-43 6.12e-43 5.27e-43 4.93e-43 6.01e-43 4.97e-43 5.5e-43 5.38e-43
5.02e-43 -4.92e-43 -5.21e-43 -5.96e-43 5.56e-43 4.92e-43 4.93e-43 -4.93e-43
-1.759e-42 -5.35e-43 -5.76e-43 -2.957e-42 -1.75e-42 5.21e-43 1.49e-42 1.711e-42
-3.78e-43 4.62e-43 -1.015e-42 -1.097e-42 4.99e-43 2.514e-42 -4.296e-42 5.52e-43
5.8e-43 4.99e-43 4.92e-43 -5.66e-43 -5.31e-43 1.299e-42 -5.56e-43 4.92e-43
-5e-43 1.478e-42 1.403e-42 5.32e-43 -5.63e-43 -1.502e-42 -5.89e-43 -1.41e-42
-4.92e-43 5.27e-43 -7.24e-43 3.57e-43 -6.05e-43 1.73e-42 3.06e-42 -5.44e-43
1.177e-42 5.47e-43 3.66e-43 -5.89e-43 1.14e-42 5.25e-43 -1.73e-42 -7.26e-43
-1.396e-42 5.68e-43 5.31e-43 5.04e-43 -2.81e-42 1.644e-42 5.17e-43 5.72e-43
5.97e-43 -5.35e-43 -4.26e-43 -5.59e-43 -5.28e-43 -5.73e-43 5.54e-43 1.038e-42
-4.92e-43 -5.27e-43 -5.69e-43 -4.92e-43 -5.84e-43 4.93e-43 -4.93e-43 -4.92e-43
-1.488e-42 -5.65e-43 -6.04e-43 4.93e-43 5e-43 -4.92e-43 -1.504e-42 -6.24e-43
4.92e-43 5.34e-43 1.501e-42 -5e-43 4.92e-43 4.92e-43 6.08e-43 5.58e-43
-4.93e-43 4.92e-43 1.393e-42 -5.07e-43 5.86e-43 -4.97e-43 6.11e-43 -6.1e-43

att_src f4 [1, 4, 32]
00000000: 3f2a acbe fa31 30be a861 2a3d 68e7 3e3b
00000010: 5529 c13e d464 9f3e c988 afbd dec9 b83e
00000020: 9254 843d ec40 8cbe 20b6 2abe ba64 8c3d
00000030: 510a a13e 7843 d9bd f780 383e 5b9a 25be
00000040: 7e42 803c 6e63 13be 1a37 903e 4d07 08be
00000050: a5d8 a2be 9150 b83e 09ee c8be 4cb8 a9be
00000060: bd0e 703e 108b 9c3e 1d44 97be aa40 b3bd
00000070: a343 dd3b 2d1b babe 4d92 4fbe 5896 d0bd
00000080: 0c8e c4be df06 d83d 12c5 863e 6703 143e
00000090: b0e7 b0be d05c e9bc 7e8d 8cbe 8ae1 c63d
000000a0: 5e6c 353c 2abc 773e cfcc 94be c5c8 8b3e
000000b0: 334e b9bd b693 cfbe 5de4 97be 287e d8bc
000000c0: e490 a8bd ec11 0ebe 9122 953c 6236 833e
000000d0: fba0 a1be 3485 853e 468b 9f3e 20ca 4c3d
000000e0: 0046 6ebe 5c0f 83be cb87 b43e 901a 9bbe
000000f0: 4359 5d3e f095 ab3e 9e1b 57be 6d44 85be
00000100: 33ff cb3e cc91 8fbe c77f b33e ab8a a7be
00000110: 4d27 a73e 5611 693d 6f5d a63d edcd 163e
00000120: 24fe 92be 1382 38be 5342 58be 30f0 573e
00000130: eef4 6bbe 2fb6 6cbd e1bd 95be 523e a7be
00000140: 098b 7abe 6be5 06bd b789 1dbe e8a0 2bbc
00000150: 1377 5dbc aa26 183d 4c1f 9cbe 5d23 c73e
00000160: 82e4 b8be 6a24 473b 28f0 dabd 0589 563e
00000170: 9dfc 0a3e 372c 2fbe 3ef5 2ebe 2142 b03e
00000180: a5db a2be afab cfbe 9f8d f33d b8ef 60be
00000190: 12da 9cbe a828 e93d 5c1f 84be 18c0 8f3e
000001a0: 0cef ccbe b8ee 0fbe b1ad bd3d 4132 f2bd
000001b0: 6020 13be 2dbb 963e 645f 5abe 5dca 603e
000001c0: 69e6 b33e 29e4 c0bd ebe9 9ebe 6ac1 af3e
000001d0: 7b5a cabe 7c2f c8be 8d8d 553c 2872 1bbd
000001e0: 712c 943e 1aa9 8f3e 8976 853e cb43 8cbe
000001f0: 68f0 843e cc92 92be 1ee7 01be 24bb 4a3e
-0.3362598 -0.17206565 0.04159704 0.0029129628 0.37726846 0.31131613 -0.085710116 0.36091512
0.06461443 -0.2739328 -0.16671038 0.068551496 0.31453183 -0.10608572 0.18017946 -0.16172163
0.015656706 -0.14393398 0.2816704 -0.13284035 -0.31805912 0.35998967 -0.39244106 -0.3314842
0.23443122 0.30574846 -0.29544154 -0.08752568 0.0067524477 -0.36348858 -0.20270653 -0.10184926
-0.38389623 0.105481856 0.26322228 0.14454423 -0.34551764 -0.02848664 -0.274517 0.09710987
0.0110732 0.24192873 -0.29062507 0.27301612 -0.090481184 -0.40542382 -0.29666415 -0.026427343
-0.08230761 -0.13874024 0.01820496 0.25627428 -0.3156813 0.26078188 0.31160945 0.04999745
-0.2326889 -0.25597656 0.35259852 -0.30293703 0.21616082 0.3351283 -0.21006629 -0.26028767
0.3984314 -0.28040922 0.35058424 -0.32722983 0.32647172 0.0569013 0.0812329 0.14726992
-0.2870952 -0.1801837 -0.2111905 0.21087718 -0.23042652 -0.05779093 -0.2924643 -0.32664734
-0.244671 -0.032933634 -0.15384565 -0.010475375 -0.013517159 0.037146248 -0.30492628 0.38894168
-0.36111838 0.0030386695 -0.106903374 0.20950706 0.13572927 -0.1710671 -0.1708574 0.34425452
-0.318082 -0.40560672 0.118922465 -0.21966445 -0.30635124 0.11384708 -0.25805175 0.28076243
-0.40026128 -0.14055908 0.09261645 -0.118259914 -0.14367819 0.2943968 -0.21325451 0.21952195
0.35136726 -0.09418518 -0.3103784 0.3432725 -0.39522156 -0.39098728 0.013034237 -0.037950665
0.28940156 0.28058702 0.26066998 -0.27395472 0.25964665 -0.28627622 -0.1268582 0.19797951

att_dst f4 [1, 4, 32]
00000000: 4f5d 3cbe 94d1 1d3d 440d 83be 582f 7fbe
00000010: 8cc6 95be 6ec3 97be bd4c 903e 88ea 02bc
00000020: ec3c 31be c461 96bd 5fa1 a93e c59b b83e
00000030: 8971 673e 3753 afbe e0a5 9cbe 2ae2 6a3e
00000040: 370d 523e 722d b6be f3d4 953e 7a34 31be
00000050: e7f1 03be b071 433e 3a6d 0bbe f9be df3d
00000060: 513b c23c c172 0ebe 19d2 8a3e 6c90 a3bd
00000070: d0ba a0be 0b38 25be 1c6f babd fce0 d6bd
00000080: ef11 af3e f8ba 28be eb49 923e 9984 bebe
00000090: 9d65 b13e 99d0 463e 4d39 703d dda8 8b3e
000000a0: 635a b3bd 38a8 4f3e 1611 953d b706 cebe
000000b0: 417d 93be db52 063e c669 2e3e 1a14 9fbe
000000c0: 5802 263d 0c3e a6bc 7629 05be 2cc2 94be
000000d0: a3a9 9e3e 6df5 c3be 5e22 8abe 2f15 c63d
000000e0: 4c60 b6be b258 11be c92e 5e3c 4c4f 14bd
000000f0: ee52 bcbe 9714 85be 1f78 4f3e 5cdb 23be
00000100: de0a 9cbe 8a38 b83e 0fea 62bd ad6e b6be
00000110: 1edc 743e 8883 9c3b f117 cabe a5cd b3be
00000120: fb8c b43d 167a 19be 3cac 6bbe 8c49 be3e
00000130: 0036 c63d 0574 88be faa0 bcbe ca59 c03d
00000140: 77b7 34be c0f9 11be d38a a13e 8405 67be
00000150: b1fd 0c3e dbae 6ebe 8a28 8abd ca54 113e
00000160: f691 c53e 5b61 7bbe 3802 aebc 0251 9a3e
00000170: 73e8 cf3e 2a24 183d 9fae 10be 3036 83bd
00000180: 400d 92be c410 083e f5e2 bebe 72f9 273e
00000190: 1d2d bfbc 7358 89be c425 3ebe 9675 40be
000001a0: 73c6 cc3d 9225 20be f66e 39be 58f0 123e
000001b0: d8b6 96be 1fe3 663e 6544 b9be bbe8 b3be
000001c0: 7660 523e e5ee 663d 3ec4 943e 425e 2cbe
000001d0: 7b0b a03e e1f8 c0be 8e45 893e 900d 9d3e
000001e0: 513c 89bd e646 03bd 67eb 183e 9759 a3bc
000001f0: d75b 1c3e ad0c a1be d204 88be bf09 ae3d
-0.1839497 0.038529947 -0.25596058 -0.24920404 -0.29253042 -0.2964129 0.28183547 -0.007990487
-0.17308396 -0.07342866 0.3313093 0.36056343 0.22601904 -0.34243175 -0.30595303 0.22937837
0.20512854 -0.35581547 0.2926403 -0.17305174 -0.12885247 0.19086337 -0.13615885 0.10925097
0.023709925 -0.13910963 0.27113417 -0.07986531 -0.31392527 -0.1613466 -0.09103224 -0.10492131
0.3419337 -0.16477573 0.2857202 -0.3721054 0.34647837 0.19415511 0.058648396 0.2727727
-0.08757474 0.20279014 0.072786495 -0.40239498 -0.288065 0.13117544 0.17032537 -0.31070024
0.04052958 -0.020293258 -0.13004097 -0.2905439 0.30988798 -0.38273183 -0.26979345 0.09672009
-0.35620344 -0.14193991 0.013560959 -0.036208436 -0.3678202 -0.2599227 0.20260666 -0.16001648
-0.3047704 0.35980636 -0.055398997 -0.35631314 0.23912093 0.004776422 -0.3947139 -0.35117832
0.088159524 -0.14987978 -0.23014921 0.37165487 0.096782684 -0.26651016 -0.36841565 0.09392126
-0.17648111 -0.14255428 0.31551227 -0.22560698 0.1376865 -0.2330889 -0.067460135 0.141925
0.38587922 -0.24548857 -0.021241292 0.3013993 0.40607032 0.037143864 -0.14129113 -0.0640682
-0.28525734 0.13287646 -0.3728253 0.1640375 -0.023336941 -0.26825294 -0.18569094 -0.18794855
0.09998789 -0.15639332 -0.18108734 0.14349496 -0.29436374 0.22547577 -0.36184993 -0.35138497
0.2054461 0.05638017 0.2905597 -0.16832832 0.3125876 -0.3768988 0.2681088 0.3067441
-0.067009576 -0.032050036 0.14933549 -0.01994018 0.15269409 -0.31454983 -0.26566178 0.08497953
