anp_models/anp_link_prediction_next_to_2024_10_19_23_15_24/model.pt (torch, 455946 bytes, 135 tensors)

weight f4 [32, 2]
000000 7c 95 1b bf d0 4d e5 be 32 4d b3 be ad ab 96 3e
       -0.6077497 -0.4478593 -0.35019833 0.29427853
000010 f7 cb 0d bf 03 42 2a 3f 09 ca 1f 3f 5e c3 0b bf
       -0.5538935 0.66506976 0.62417656 -0.5459498
000020 cc 98 be 3e 6f 74 21 3e a3 7a f8 3e 88 8f 0d 3f
       0.3722595 0.15767072 0.48531064 0.55297136
000030 30 c6 30 3e 6f 76 0e bf 49 02 f2 be 17 42 d7 be
       0.17263103 -0.55649465 -0.47267368 -0.4204261
000040 16 91 0b 3e 2c c1 18 3e b0 c9 6f be 42 80 ed 3e
       0.13629565 0.14917439 -0.23416781 0.46386915
000050 18 a4 2b be c7 ad 10 bf 3f c5 20 be 9c 71 dd 3d
       -0.16761816 -0.56515163 -0.15700243 0.10812685
000060 a3 19 13 3f 01 03 42 3e 3f 6b 2a bf 4d 6e a1 3d
       0.57460994 0.18946458 -0.66569895 0.07882366
000070 ea da 0c 3f 31 e1 04 bf f1 e2 79 be 4a cc 92 3d
       0.55021536 -0.51906115 -0.24402978 0.07167871
000080 9b 0d dd bc bb 6e 04 bf 10 48 7d be 4d e5 88 3d
       -0.026984027 -0.5173146 -0.24734521 0.06684361
000090 41 8b c4 3e c6 9c 1f 3f 0e 1b ad bd 2c 64 94 3e
       0.38387492 0.6234859 -0.08452426 0.28982675
0000a0 26 49 e7 be ad 5c 2d 3f 52 43 a3 3e 41 3a b0 3e
       -0.45172995 0.67719537 0.318873 0.34419444
0000b0 38 00 e6 bd ac f0 03 bf e6 69 48 be 76 df 3d 3e
       -0.112305105 -0.5153911 -0.19571647 0.18542275
0000c0 cf c0 0d 3f 47 0e 84 bd 82 f4 09 3f 67 5b 40 3d
       0.5537233 -0.06448036 0.53888714 0.046962168
0000d0 86 70 90 3e 65 94 05 3e f8 ee f1 bd 4c b8 c1 bd
       0.2821085 0.1304489 -0.11813158 -0.0945898
0000e0 d4 1d 14 bf 21 6d b6 3d 71 76 cc be 1a a8 51 be
       -0.57858014 0.089075334 -0.39934114 -0.20474282
0000f0 c8 9a ba be 18 36 d3 3e 68 66 39 3f c3 0d 08 3f
       -0.36446214 0.41252208 0.72421885 0.53146

bias f4 [32]
000000 cb 2c 1f bf 8e d8 6c 3e eb c2 62 3e 2b 73 2d bf
       -0.62177724 0.23129484 0.22144668 -0.6775386
000010 a2 7c e3 3d 30 07 b5 3e 9c 28 3b 3f a5 0b fe bd
       0.11107756 0.35357046 0.7310884 -0.12404565
000020 55 9c 31 3f 6b 3f 80 3d ec 38 0a 3f 67 ff 72 3e
       0.6937917 0.06262096 0.53993106 0.23730241
000030 d7 ca 91 be 92 2b 13 3f 14 7f 89 be 1a 27 f7 be
       -0.28475067 0.5748836 -0.26854765 -0.4827202
000040 66 ea 0b bd 2c 27 2e bf 7c bd d9 3d 93 5d fd be
       -0.034159087 -0.6802852 0.106318444 -0.49485454
000050 da 2d 73 be 2c 4c b5 be d8 4a 41 be a9 a4 76 bd
       -0.2374796 -0.35409677 -0.18876207 -0.060215626
000060 53 12 f6 3e 61 77 cb be e7 00 5a be 8b 7c 2b bf
       0.48060855 -0.39739516 -0.21289407 -0.6698691
000070 7e 08 f3 3e f0 3a b1 be 6f 03 92 be 6f 94 0f bf
       0.47467417 -0.34615278 -0.28518245 -0.56085867

weight f4 [32, 2]
000000 6e af f9 3d f3 b1 2f bf ee 9c 29 3f ed ff cc 3e
       0.12191664 -0.68630904 0.6625508 0.40039006
000010 a2 71 99 be 29 6f 0e bf c3 40 71 3e 51 f3 fe be
       -0.29969507 -0.55638367 0.23559861 -0.4979501
000020 e0 bd cb 3e 00 d8 ab 3e 7c 94 8c be ff 20 2b 3f
       0.397933 0.33563232 -0.27457035 0.66847223
000030 c1 4e 15 bf e0 4f e2 3d 38 bb 72 3d 4e 48 2a bf
       -0.58323294 0.11050391 0.059260577 -0.6651658
000040 51 cc 14 3e b2 f4 be 3e 91 27 32 3f fb 57 17 bf
       0.14531066 0.37296063 0.69591624 -0.5911862
000050 a7 9f a2 3e 4e b6 3b 3f 65 7d ce bd f6 65 83 3e
       0.3176243 0.7332505 -0.10082511 0.25663728
000060 27 b7 b4 3d 27 13 d7 3d 76 f7 38 3e 20 5d 29 bf
       0.08823996 0.105017 0.18063149 -0.6615772
000070 bc 5d a3 be f6 d1 45 3e 92 41 d5 bb c3 6e 2c 3c
       -0.3190745 0.19318375 -0.0065080607 0.0105244545
000080 91 2f 32 be a3 72 05 3f 02 a2 07 3f 3f 57 4f 3e
       -0.17400958 0.52128047 0.5298158 0.20248125
000090 91 8d b0 be 03 84 32 3e 2e 1e 69 3d d9 92 a5 be
       -0.34483007 0.17433171 0.056913547 -0.32338598
0000a0 07 dc 98 bd 3e b8 03 3f 8a 6e 77 be fa a7 09 bf
       -0.07463842 0.51453006 -0.24163261 -0.53771937
0000b0 77 0e ed 3e 41 b7 05 be ff 1b ab be 4f 8e f6 bc
       0.46300098 -0.13058187 -0.33419797 -0.030097155
0000c0 de 96 72 be 5a 06 d9 3e 40 0c 61 3e 0b 95 0f bf
       -0.23690364 0.42387658 0.21977329 -0.56086797
0000d0 95 e2 0e 3f 8d d4 ad be e1 fa 26 be 70 46 05 3f
       0.55814487 -0.33951226 -0.1630664 0.52060604
0000e0 2d 88 98 bd 7d 12 c8 be 4b 43 0e 3e 5d 93 01 be
       -0.074478485 -0.39076605 0.13892858 -0.12653871
0000f0 cb 5a ef 3e 19 cf 0f 3e 1f 33 e1 be e8 c6 de be
       0.46748957 0.14043845 -0.43984315 -0.43511128

weight f4 [32, 2]
000000 df 97 d6 3e b2 9d 7e be 70 1d 24 bf 6b c8 14 bf
       0.41912743 -0.24864843 -0.6410742 -0.58118314
000010 d5 09 2d bf 83 d0 45 3c d9 d5 c4 3e 00 16 79 be
       -0.6759313 0.012073639 0.38444403 -0.24324799
000020 b5 0d c7 be da d3 1a bf 09 a9 a6 3d 4c 18 bd be
       -0.38877645 -0.6047951 0.0813771 -0.369326
000030 5c 61 40 bd a9 55 28 bf 22 08 73 be 4e 4e 17 bf
       -0.04696785 -0.6575571 -0.23733571 -0.5910386
000040 7c 53 23 3f 4d 99 93 be 0d f4 8d bd 16 4b 13 be
       0.6379926 -0.28827897 -0.069313146 -0.14384112
000050 18 65 17 bf 8f f5 21 bf ef 4d cf be 86 2c fc 3e
       -0.5913863 -0.6326532 -0.40489146 0.4925272
000060 c1 ce db be e2 9c b6 3e 0e ac 21 3f 62 bb 67 bc
       -0.42931178 0.35666567 0.6315316 -0.014143797
000070 b1 10 ab bd 39 40 80 3e ff d2 81 be 4b 48 82 3e
       -0.08352793 0.25048998 -0.2535629 0.2544578
000080 9f dd 8a bd 23 c3 eb 3e 9f 1c 99 3e f9 be 51 be
       -0.06780552 0.46047315 0.2990465 -0.20483007
000090 22 f4 61 3d 39 af 70 3e a5 fe c2 be 36 98 a5 be
       0.055164464 0.23504342 -0.38084903 -0.3234269
0000a0 60 ed 15 bf b3 03 70 be 8b a1 15 bf b0 ea b5 3e
       -0.5856533 -0.23438911 -0.5844962 0.35530615
0000b0 f5 fa 74 be e8 b4 33 bf 3e 14 e8 3e 07 c0 f9 3e
       -0.23923858 -0.70197916 0.45327944 0.48779318
0000c0 9d fc 8b bd 66 a7 e8 3e b9 27 b9 be 19 a7 14 3e
       -0.068352915 0.45440215 -0.36163118 0.14516868
0000d0 cb 23 11 3f 22 e4 4f be 69 e8 55 be e2 78 7f be
       0.5669524 -0.2030187 -0.20889439 -0.24948457
0000e0 47 6a b2 3e f0 77 b4 3d ee 5b cd be 2e 50 55 3e
       0.34846708 0.08811939 -0.401092 0.20831367
0000f0 70 3f 6d 3e 7f 86 68 be 1a 1c bb be 1f f9 f4 bc
       0.2316873 -0.22707556 -0.36544877 -0.029903946

bias f4 [32]
000000 69 74 ae 3e 62 3f db be 8a 71 65 be 25 7e 1e 3f
       0.3407319 -0.42821795 -0.22406593 0.6191123
000010 41 d1 07 3f ff 0e ca bd bd ff 01 3e 85 51 a0 be
       0.5305367 -0.098661415 0.12695213 -0.31312194
000020 1c 7e c3 bd b0 95 27 3e 91 99 98 3e ce 8a 5c 3e
       -0.09545538 0.16365695 0.29804662 0.21537325
000030 8a a0 a6 be b0 d5 ad 3e f5 07 cc 3e 82 d1 75 3d
       -0.32544357 0.33952093 0.3984982 0.060014255
000040 3a d7 5c 3c af bf 08 bb ed e2 62 be 29 8b e2 bd
       0.013479048 -0.0020866205 -0.22156878 -0.11061699
000050 48 09 c8 3d 36 a7 0a 3f 95 fe 00 3f 0b 38 0b 3d
       0.09767395 0.54161394 0.5038846 0.033988994
000060 f4 73 5a 3f 8c 3e 96 3e 58 9e d4 3e 16 0b e3 bd
       0.8533318 0.29344594 0.41527057 -0.11086099
000070 6a 0f 1d 3f 2f 2c ef be fa 58 9d 3e de 45 1a be
       0.61351645 -0.46713397 0.30731946 -0.15065715

weight f4 [32, 32]
000000 56 de 26 be f1 b6 eb 3d b7 2e cc bd 09 e2 62 3e
       -0.16295752 0.11509503 -0.09969848 0.22156538
000010 be 19 1e be 82 e4 9f 3c cb 43 c0 3d f7 95 de bc
       -0.15439507 0.01951814 0.093879305 -0.027171118
000020 74 d2 1d be 01 cb 4b 3d 6e df f8 3d 5f ec f0 3c
       -0.15412313 0.049754146 0.12151991 0.029409586
000030 4e 6a 5d bd d6 91 77 ba bd c3 cc 3c c6 52 32 3e
       -0.05405646 -0.00094440335 0.024995679 0.17414388
000040 3d e8 21 be 95 15 39 be bc ea ef bc f5 b0 39 3d
       -0.15811248 -0.18074639 -0.029286735 0.045334775
000050 6b 87 34 be c1 8f ee bd 72 30 4f 3e b7 e3 cb bd
       -0.17629783 -0.11648513 0.20233324 -0.099555425
000060 7f 2f 41 be 3f ab d5 3d 6b 05 98 3d f5 6b 2f bd
       -0.18865775 0.10433053 0.074229084 -0.042827565
000070 84 f8 2e be 27 27 b1 bd 81 1e 0b 3c e5 a5 2b 3e
       -0.17086989 -0.08650046 0.008491159 0.16762502
000080 22 e8 8a be 72 b3 4a bd 23 c7 63 be c5 8a 2e 3e
       -0.27130228 -0.04948754 -0.22243933 0.17045124
000090 a9 9a 54 bd a2 da 59 bd ba 48 03 be 41 64 6e 3e
       -0.051905308 -0.05318702 -0.12820712 0.23280431
0000a0 60 1e 0e 3e 14 47 53 3e fd 60 60 be 4f cc bd 3c
       0.13878775 0.20632583 -0.21911998 0.023168711
0000b0 28 1f 13 be 3b 83 0b 3e 7b bf 7b 3e 5b 46 17 be
       -0.14367354 0.13624279 0.24584763 -0.14772932
0000c0 32 7d 57 be 27 63 cd 3b 86 29 68 bd 50 4a 74 3e
       -0.21043852 0.0062679234 -0.056680225 0.23856473
0000d0 f3 bb 17 be 9a 03 41 3e 5c a6 ad bd ee f3 11 bd
       -0.1481779 0.1884903 -0.08478996 -0.03563302
0000e0 30 c8 49 bd 6d 67 82 3d bf 19 10 3e 3a e4 13 bd
       -0.04926318 0.06367383 0.14072321 -0.036106326
0000f0 45 78 74 be ca 18 0d 3e 27 0a 18 3d 1b e4 de 3d
       -0.23874004 0.13778988 0.037119057 0.108833514
000100 d0 fa f5 bd 1f 67 c9 3d fc 42 94 be 73 17 83 bd
       -0.12010729 0.09834122 -0.28957355 -0.06400957
000110 38 69 80 be 9a c9 de 3d e5 1a 65 be 57 8d a5 be
       -0.25080276 0.10878296 -0.2237354 -0.32334396
000120 d2 b5 54 3e fa 37 35 3d 6f 7b ff 3d eb b4 d6 3b
       0.20772484 0.044242837 0.12474715 0.006552329
000130 c6 08 87 be dd 4c 4b be ce b9 79 3d 6b d6 3e be
       -0.2637388 -0.1985354 0.060968213 -0.18636481
000140 49 e0 55 be c7 3c 33 be c9 4c 1a be 02 28 b5 3d
       -0.20886339 -0.17503653 -0.15068354 0.088455215
000150 23 e6 aa 3e ff 7f 5a be 9e 8c 61 3e 95 86 a9 be
       0.33378705 -0.21337889 0.22026297 -0.3311049
000160 77 12 ba bd 88 f1 48 3e b7 e6 3c 3e 67 d3 bb bc
       -0.09085553 0.19623387 0.18447386 -0.022927953
000170 7a 69 c3 bd 28 db 63 be b9 92 df 3d 44 3a 88 3e
       -0.095416024 -0.2225157 0.10916657 0.26606953
000180 80 29 27 be c7 be 6b 3e d1 ec 05 be 3f 7d 41 3d
       -0.16324425 0.23021995 -0.1307862 0.047238585
000190 42 05 f7 bc 34 53 2b be f8 4b 6f 3d 21 c7 56 3e
       -0.030153874 -0.16730958 0.05842206 0.20974399
0001a0 0c 6b 39 be e3 ba 49 3c 1a 06 9a bc 93 3a 12 be
       -0.18107241 0.012312624 -0.018801738 -0.14280157
0001b0 db 90 e5 bd 77 2a 76 be 99 83 ef bb 5d 02 ac 3d
       -0.112092696 -0.24039637 -0.007309389 0.08398888
0001c0 44 89 a9 bc 10 3b ef bd 9b 23 10 3d a7 e7 9d 3e
       -0.020695336 -0.11681187 0.035190206 0.308408
0001d0 69 1d 11 bc 62 8b 6d 3e 9d ba 89 be 3a 3c b9 3d
       -0.00885711 0.23197702 -0.26900187 0.090446904
0001e0 44 dd 02 3c 94 31 9d 3c 8e 47 1c 3d da c4 08 3e
       0.007987324 0.01918868 0.038154177 0.13356343
0001f0 0b b2 0a bd 8d 3c 09 be 5d b1 a9 bd 43 eb ca 3d
       -0.0338612 -0.13402005 -0.082857825 0.09908154
000200 ce e0 d5 bc 7e fb 23 bc 85 15 43 3e 5b b4 74 be
       -0.026108172 -0.010008691 0.19051178 -0.23896925
000210 cf 62 92 3e 90 67 b8 3e 79 3f 26 3e af cd 75 bd
       0.2859101 0.36016512 0.1623515 -0.06001061
000220 61 fc 8d bc 93 40 8e be 89 0c 41 be 0e 27 4f 3c
       -0.017332258 -0.2778364 -0.18852438 0.012643589
000230 c6 7e e3 be e0 ec b1 bd a8 5b 88 be c5 77 a7 3e
       -0.44432658 -0.086877584 -0.26632428 0.32708564
000240 de b9 92 be 0a 98 5b 3e 5f b6 36 bd 01 f6 b4 be
       -0.2865743 0.21444717 -0.044607516 -0.35343936
000250 1c 1a a9 3e 89 cc 4e 3e 48 6e 5d 3d 2d 4f af 3e
       0.33027732 0.20195211 0.05406025 0.34240094
000260 48 c9 68 bc a6 15 a8 be fd 6d b5 3d e2 1f c5 be
       -0.014208145 -0.32829016 0.08858869 -0.38500887
000270 c6 f8 98 be 88 9f 43 3e 43 ee 44 be 0e ef 8e be
       -0.298773 0.19103825 -0.19231515 -0.2791676
000280 2b d3 12 3e f4 77 f6 3d 1b a4 4c be 99 dd db bd
       0.14338367 0.12034598 -0.19984476 -0.10735626
000290 43 48 03 3d fa 47 3e 3e 1c 5d 8a 3d 85 ed 7c 3e
       0.032051336 0.18582144 0.067560405 0.24699982
0002a0 14 4a 41 bd bd 3a 11 be 29 f5 96 3e 68 dd 74 3e
       -0.047189787 -0.14182563 0.29483917 0.23912585
0002b0 53 e2 09 3d 07 6a 03 3e 44 fd 1a bc 32 ee 24 be
       0.033663105 0.12833415 -0.009459797 -0.1610649
0002c0 08 9d 96 bd 13 63 0b 3e 14 4a 81 bd 16 b6 3a 3e
       -0.0735417 0.13612013 -0.063129574 0.18233523
0002d0 8a 48 a0 be c1 aa 74 3e 19 3c 57 3e 7c a3 22 3e
       -0.31305343 0.23893262 0.21019019 0.15882677
0002e0 3f 39 f2 bd 1c 5d 12 3e fe 37 07 bd 4f 8f a2 be
       -0.11827325 0.14293331 -0.033012383 -0.3174996
0002f0 f3 ee 68 be 70 62 01 be 92 0d 71 3e 99 0b 9c bd
       -0.22747402 -0.12635207 0.23540333 -0.076193996
000300 88 7c be bd bf 2c c6 3c 80 c6 44 be 2a 80 28 be
       -0.09301096 0.024191258 -0.19216347 -0.1645514
000310 df 90 39 be 96 90 17 3d eb 4d 32 be 5c 10 5e be
       -0.1812167 0.037003122 -0.17412536 -0.21685928
000320 d7 8f 79 bd 5f af 22 bd 13 0b 1f 3e 61 6e 99 bd
       -0.060928192 -0.03971803 0.15531568 -0.07491756
000330 f4 a9 39 bd 46 2d 37 be b8 32 58 3e 32 e4 4a 3e
       -0.045328096 -0.17888364 0.21113098 0.19813612
000340 a1 57 f7 3d 76 3a ca bd d9 64 3f be f8 9d d3 bd
       0.12077261 -0.09874432 -0.18690814 -0.103328645
000350 dc 17 a0 3d af b4 50 3e 00 9a 39 3e ce c9 e0 3d
       0.07817051 0.20381425 0.18125153 0.10975991
000360 0d d3 32 3e d7 58 7d be 52 c6 c1 bd 3e 60 b5 bc
       0.17463322 -0.24740921 -0.09461655 -0.022140618
000370 d7 bc 98 3d 59 0d 21 be 57 36 04 3e fb 86 9f bd
       0.07457893 -0.15727748 0.12911354 -0.07789417
000380 bb 28 b4 3d 79 1b 34 3e e2 b2 56 be d0 88 4a 3d
       0.08796831 0.17588605 -0.20966676 0.04944688
000390 90 8b 46 bb f6 a0 4c bc 1d 2e 18 be a1 f5 9c 3e
       -0.0030295588 -0.012489548 -0.14861341 0.3065615
0003a0 a7 8c 85 3d bf 61 39 3e 00 b3 36 3e 84 6f fe bd
       0.06520968 0.18103693 0.1784172 -0.12423614
0003b0 55 e5 96 bd 7c 5d 76 bd 5e 86 22 be 70 84 83 3d
       -0.0736796 -0.060147747 -0.1587157 0.06421745
0003c0 de 2d ce 3c 9b 03 3a 3d b0 95 a8 bd 92 50 bc 3d
       0.025168356 0.045413595 -0.082316756 0.09195055
0003d0 2b e5 2d 3b 82 84 31 bd ff b4 5b be 46 bc 14 3e
       0.00265343 -0.04333926 -0.21455763 0.14524946
0003e0 4e c3 dd 3d 7c 3f 91 bd e0 8f 5d 3d ff 72 c3 3d
       0.10828267 -0.07092187 0.054092288 0.09543418
0003f0 c7 52 a2 bd 23 bc 82 3e 70 2c 5e bb fb 22 a5 3d
       -0.07925945 0.25534162 -0.0033900999 0.080633126

weight f4 [32, 32]
000000 4d b4 2d be 27 29 61 bd ce f6 03 3e 54 5a 46 be
       -0.1696331 -0.054970887 0.12887117 -0.19370395
000010 c7 83 28 3e 8d 60 05 3d 54 16 d6 3d 44 6c 24 be
       0.16456519 0.03256278 0.104534775 -0.16056925
000020 4f 66 2b 3e 87 ec 0c 3e 9b 94 00 be b9 24 ba 3c
       0.16738246 0.13762103 -0.12556688 0.022722589
000030 d1 d0 1c be 5e e7 49 3d 7a 12 04 be 8c 65 2f be
       -0.15314032 0.049292915 -0.12897673 -0.17128581
000040 fc a9 1f bd 14 33 03 3d d3 09 a5 bd 8f 5a a9 3d
       -0.03898047 0.032031134 -0.080585144 0.08269226
000050 3f b9 2a 3c 74 6e 98 bc 8c f4 a2 3d ee 58 0f be
       0.010420143 -0.018607356 0.079568 -0.13998768
000060 66 5e 8b 3c 2d a0 91 bc 72 d3 d2 bc 17 fc 1b be
       0.017012786 -0.017776573 -0.02573559 -0.15232883
000070 74 46 18 be 36 a8 21 be e6 d8 b8 bd 70 57 a9 3d
       -0.14870626 -0.15786824 -0.09025745 0.082686305
000080 8b f4 3f 3e 4e 75 52 3e 28 b2 1e bd d3 ca 14 3e
       0.1874563 0.2055256 -0.03874412 0.14530496
000090 9f 0b 53 be 8e 45 4a bc c7 21 06 3e 3d 75 91 3d
       -0.20609902 -0.012345685 0.13098823 0.071024396
0000a0 c4 0a 1f 3e d9 5a 04 bd 28 55 0a 3e a6 dc 80 bd
       0.1553145 -0.0323132 0.13509047 -0.06292085
0000b0 ee 8f d0 3d 72 1e 2c 3e 47 2e 2b bd 88 1c a8 bd
       0.101837024 0.16808489 -0.04179218 -0.08208567
0000c0 51 c6 5e 3d 1c 3e fc 3d a9 0c 02 be 0d 32 f1 bb
       0.054388348 0.12316534 -0.12700142 -0.007360703
0000d0 fa 09 83 3d da 15 cf 3c 71 a8 e0 3d ec 2c d4 bc
       0.06398387 0.025278974 0.10969628 -0.025900327
0000e0 94 ea 24 be 69 a7 73 bd 85 89 92 3c 4e b7 f6 bc
       -0.1610511 -0.059485827 0.01788784 -0.030116703
0000f0 9a bf da bd 18 15 e7 3d aa 80 d7 bc da bb a7 bd
       -0.10681076 0.1128332 -0.026306469 -0.08190127
000100 33 c1 f4 3d bb 4e 1f bb 7a 78 8d 3d 43 7e d8 3d
       0.11950912 -0.0024308402 0.06907745 0.105709575
000110 22 36 bb 3c 17 8c 47 bc a3 19 ed 3d 77 48 cb 3c
       0.022852961 -0.012179396 0.115771554 0.024814827
000120 f5 c2 e3 bd 80 c0 1e 3e f4 44 10 3e 30 dc fe bd
       -0.111211695 0.1550312 0.14088804 -0.12444341
000130 b4 d5 44 be 66 ea 39 be 0b 1d af bc 31 9e 51 bc
       -0.19222146 -0.18155822 -0.021376153 -0.012794063
000140 0c b3 77 bc d6 ab 36 3e 92 40 03 3e 53 f9 e1 3c
       -0.015118372 0.17838988 0.128176 0.027584707
000150 e6 50 c7 bd 35 56 ff 3c bf 4b b6 3d 79 63 37 bd
       -0.09732227 0.031169036 0.08901166 -0.0447726
000160 2e c2 07 3e 05 65 b6 3d 4f fa 0e 3e 86 bb 4f ba
       0.13257667 0.08905987 0.13962673 -0.00079243665
000170 65 f6 92 3d 1c 4a 4d 3d 07 bc 40 3e a3 f7 74 3d
       0.07175902 0.050119504 0.18821727 0.059806477
000180 15 21 0f 3e e6 22 8c 3d 7a 85 d3 3d 20 0b 1d 3e
       0.13977464 0.06842594 0.10328193 0.15336275
000190 83 39 20 be a2 82 06 3b 33 3b 06 3d 24 f9 3d 3c
       -0.15646939 0.002052464 0.0327713 0.011595044
0001a0 b3 a7 e4 bd 44 0b 0a be aa d5 6f bd 6a 9e 8a 3a
       -0.111647986 -0.1348086 -0.058553375 0.0010575776
0001b0 88 38 cc bc 80 50 1f be ff 8c 2c be 3f 48 75 3c
       -0.0249293 -0.15558052 -0.1685066 0.014970838
0001c0 9f d9 a8 3c 2d 72 04 bd 93 c8 10 be f2 09 0b be
       0.020611582 -0.03233545 -0.14139013 -0.13578013
0001d0 50 f8 13 3e 5c a1 1c 3d ff 1b 27 3e 0c 7d 2c 3e
       0.14450192 0.03823982 0.16319273 0.16844577
0001e0 9e 79 aa 3d 62 be ae bc fd 0a 13 3e 8f fb 13 bb
       0.08323978 -0.021331016 0.1435966 -0.002258036
0001f0 eb 49 29 be f6 fb 15 3e 82 67 2e bd 07 e8 13 3e
       -0.16532104 0.14646897 -0.04257918 0.1444398
000200 d9 9c 7a 3d 42 17 cf bc 50 da c4 ba 9e 27 e0 bb
       0.061184738 -0.025279645 -0.0015018675 -0.0068406602
000210 52 3f 9e 3d 98 70 17 3d e1 e1 8c bc 53 05 1b 3e
       0.07726921 0.036972612 -0.017197551 0.1513875
000220 f9 7b 40 bc 69 38 15 be 6f 75 a1 3d f1 c1 a3 bc
       -0.011748307 -0.145723 0.07883727 -0.01998994
000230 c7 ba 1d be c0 46 0d 3d d6 f7 38 be 60 90 9d 3c
       -0.15403281 0.0344913 -0.18063292 0.019233882
000240 a9 96 62 3d a4 56 a2 3d 8b 7d f2 bd 40 3e 10 3e
       0.055319462 0.07926682 -0.11840352 0.14086246
000250 c5 41 ac bc 1f 74 4a bd 1b cb 4d 3d c6 71 99 bd
       -0.021027455 -0.049427148 0.050242525 -0.07492404
000260 97 8e fa bc 6a 05 75 ba a7 ac 28 bc b6 de a9 3d
       -0.03058557 -0.0009346815 -0.01029507 0.08294432
000270 cb 44 0c be 63 db 72 3d 39 60 ad bd 95 bc de bd
       -0.13698117 0.059291255 -0.08465619 -0.10875813
000280 0b e7 50 3c 97 7c 9f 3d 9c 39 ab bc f5 53 99 bd
       0.012750397 0.077874355 -0.020901494 -0.07486717
000290 d4 ea 4d 3e 7c a8 af bd e5 a3 0f be 80 8b 14 3d
       0.20109111 -0.08577058 -0.14027365 0.03626585
0002a0 eb 04 9f bc 10 53 8b 3d 98 47 b4 3d 55 8a 2a 3d
       -0.019411525 0.06802952 0.08802718 0.04163583
0002b0 4d 9e 5b bb b6 cf ce 3d 24 35 db bd 5a 21 2b 3c
       -0.0033511103 0.100982115 -0.10703495 0.010444963
0002c0 77 5c 8e 3d dc 04 73 bd 56 39 93 3d fe 60 15 be
       0.0695123 -0.059330806 0.0718867 -0.14587781
0002d0 bf 6c 82 3d 1e af 95 3d 39 b8 85 bd d0 c6 4e bd
       0.06368398 0.073087916 -0.06529278 -0.05048257
0002e0 2c 94 31 3d 83 52 39 bd 1d 65 64 be db 0b da bd
       0.0433542 -0.045244705 -0.22304197 -0.106467925
0002f0 68 db 08 be 55 34 30 3e be f7 12 be 7f 38 25 be
       -0.13364947 0.17207463 -0.14352319 -0.16134833
000300 a4 ac 29 3e 8c 99 90 3d ab b1 51 be 92 4c b7 3d
       0.16569763 0.07060537 -0.20477931 0.089501515
000310 b7 93 59 3c d0 92 0c be 5f 3f 29 3e b6 e9 0d 3e
       0.013279847 -0.1372788 0.1652808 0.13858685
000320 66 ad b7 3d 55 59 45 3d b2 cf ee bd b3 90 67 bd
       0.0896862 0.048180897 -0.116607085 -0.05653448
000330 61 f1 4b 3d d0 54 1d be 94 be 35 3e 4b ac 27 3e
       0.049790744 -0.15364385 0.17748481 0.16374318
000340 e8 d6 3c bd af 12 3b bd 50 24 d7 3d 8a 97 96 bd
       -0.046103388 -0.045672115 0.10504973 -0.073531225
000350 29 a9 d0 bd e1 ad c1 3d 75 65 54 3c 38 70 c9 3d
       -0.10188515 0.09456993 0.012963642 0.09835857
000360 cb f3 d3 3d db 0d 9a 3d db f5 f4 bd a3 86 e5 3d
       0.10349234 0.07522174 -0.11960956 0.112073205
000370 77 bb db bd c1 b9 14 be 6a b1 e6 3c 28 24 d2 bc
       -0.107291155 -0.14523984 0.02816077 -0.025652006
000380 9b 3c 1b be 39 e2 d7 bd e6 de 1a 3e 89 47 c1 3d
       -0.15159838 -0.105411954 0.15124092 0.094374724
000390 54 76 47 bd 08 d8 14 3e 36 96 bb 3e 9a 78 eb 3d
       -0.04869683 0.14535534 0.3663804 0.11497612
0003a0 bd ae e5 3d 6e 57 f1 3d e9 21 72 3e 5c ac 44 be
       0.11214969 0.11784254 0.23645748 -0.19206375
0003b0 9d 4c 82 be d3 27 e2 3d b8 4f b0 be 3a ce 7c 3d
       -0.25449076 0.11042752 -0.3443582 0.06172011
0003c0 99 37 64 bc 62 92 51 be c7 9b c9 3d 18 dd 45 3e
       -0.013929271 -0.20465997 0.09844165 0.19322622
0003d0 f4 ce a1 3e a5 7c 1a 3e 87 8f 5a 3e 08 4c 45 3e
       0.31603205 0.1508661 0.21343814 0.19267285
0003e0 ad eb 36 3e 41 1d bb 3d f8 d4 92 be d8 f7 16 be
       0.1786334 0.09136439 -0.28678107 -0.14742982
0003f0 5c 97 85 be e3 b3 70 3e 49 92 c8 3d 95 d6 41 3e
       -0.2609204 0.23506121 0.09793527 0.18929513

bias f4 [32]
000000 2e df c2 3b 39 db cd bc f2 59 bf 3d 64 63 81 bd
       0.0059470152 -0.025128948 0.093433276 -0.063177854
000010 4e 27 85 3d 17 4f 03 3e 96 b9 82 3d 21 fd ab 3d
       0.065016374 0.12823139 0.06383054 0.0839789
000020 18 ec 08 be f1 13 29 be 85 cf 36 bd 08 91 22 be
       -0.13371313 -0.16511513 -0.0446315 -0.15875638
000030 dc d3 18 be 6f 65 7c 3d 86 19 1e 3e 3e bc 2c 3b
       -0.14924568 0.061620172 0.15439424 0.0026357318
000040 87 ff f3 3d 40 71 84 3d 2b fa e3 bd 9c 0e 83 3c
       0.11913972 0.06466913 -0.111317 0.015998177
000050 af df 4d 3d 77 d9 28 3e 6a 2e 0f be 8f c3 da 3d
       0.05026215 0.16489206 -0.1398255 0.10681831
000060 d5 91 d5 3d 48 48 c0 bc 5f a4 30 be c3 d6 ba 3d
       0.10428206 -0.023471966 -0.17250203 0.09122994
000070 99 e7 d7 3d 32 45 72 bd 38 92 ea 3d b2 e4 4d bd
       0.105422206 -0.05914802 0.1145367 -0.05026693

weight f4 [32, 2]
000000 17 e0 8e 3e bf 77 13 bf 4a 7f f5 be 70 bd fa 3e
       0.27905342 -0.57604593 -0.47948676 0.48972654
000010 f4 f6 a7 be a1 45 22 3f d6 2d 24 bf 51 75 2a be
       -0.32805598 0.63387495 -0.6413244 -0.16646315
000020 a7 d2 a6 3e 7d 94 e2 bd 1a f2 3b 3f 88 45 0e 3f
       0.3258259 -0.11063478 0.7341629 0.55574846
000030 84 cb e4 be 96 3f b0 be 44 52 ee 3e ae fc 04 3e
       -0.4468652 -0.34423512 0.4654714 0.12987015
000040 6b 83 3a 3e 25 8b 6c 3e 95 b6 fc 3e 7e cc 01 bf
       0.18214194 0.23099954 0.4935805 -0.50702655
000050 d6 be c5 3e f6 7b b1 be 39 5b 10 bf 3b 14 3e 3d
       0.3862216 -0.34664887 -0.56389195 0.046406012
000060 f4 7e 0f 3e 72 20 13 be 87 43 f2 3d 49 fe e1 3e
       0.14013273 -0.14367846 0.11829286 0.44139317
000070 38 52 9c be 70 6f 94 3e ee ed 9f 3e be 5f 0f bf
       -0.30531478 0.2899127 0.31236213 -0.56005466
000080 ca 02 0a be 52 6a 23 3f 92 9e 0b 3f 70 e3 fb be
       -0.13477626 0.63834107 0.54538834 -0.4919696
000090 3e 56 05 3f 37 4e 6f bd dd fb 15 3f d0 2e 10 bf
       0.5208472 -0.0584242 0.5858744 -0.5632143
0000a0 e0 d3 8d be ba ad f1 be 48 5f 0a bf b0 45 01 bf
       -0.2770071 -0.47202855 -0.5405164 -0.5049696
0000b0 35 66 24 be fe fc 1c be d3 76 d2 be 08 31 f8 3c
       -0.16054614 -0.15330884 -0.4110628 0.030296817
0000c0 ff f6 c9 3e 17 1b 96 be 31 73 47 be 8b b7 24 bf
       0.39446256 -0.29317543 -0.19477536 -0.64342564
0000d0 f3 6b 03 bd 09 cd 29 bf c2 42 a1 3e ae 16 f4 3e
       -0.03208537 -0.66328484 0.31496245 0.47673553
0000e0 04 27 53 3d 81 fd f4 bd cc c6 ec be e4 4e 88 be
       0.05155088 -0.119624145 -0.4624542 -0.2662269
0000f0 61 07 81 be ef 05 17 bf b5 e7 9d 3e 9e 9d cd be
       -0.25200942 -0.5899343 0.3084084 -0.40159315

weight f4 [32, 2]
000000 d8 6d 08 bd 6e cd fb 3e c0 d8 38 be ab 11 0d bf
       -0.03330788 0.49180168 -0.18051434 -0.55105084
000010 be e9 c4 be 2c 26 b2 3e 53 da 2b bf 90 36 b3 be
       -0.3845958 0.34794748 -0.6713001 -0.35002565
000020 f9 3e 8f 3e 82 a5 2f 3f 7d 12 34 3e 36 9b e6 3e
       0.27977732 0.6861192 0.17585178 0.45040292
000030 f8 e8 c1 3e 8b e8 ee 3e 0b da 32 3f 06 b2 35 be
       0.37873054 0.4666179 0.6986396 -0.17743692
000040 dc 6c a7 be 0b b3 b3 be b6 30 f3 3e c3 b3 15 3e
       -0.3270024 -0.35097536 0.474981 0.14619355
000050 56 c5 3e be 26 34 07 bf ef 37 e5 be 8a 86 25 3e
       -0.18629965 -0.5281395 -0.44769236 0.16164604
000060 42 23 87 be 9c d0 05 bf 43 1e 84 be cf 7d 64 bd
       -0.26394087 -0.5227144 -0.25804338 -0.055784043
000070 13 32 1a 3f e3 d6 5c 3d 65 fd a6 be b3 db 12 be
       0.6023266 0.05391587 -0.326152 -0.14341621
000080 de 0d 2f 3f bc 66 2c 3d 3f bb 07 3d 47 c6 09 be
       0.68380535 0.042090163 0.033137556 -0.13454543
000090 e2 d5 9b bd dd 8c b6 be 49 6f 0a 3f 7a 5d c3 be
       -0.07609154 -0.35654345 0.5407606 -0.38157254
0000a0 f7 e1 4e 3e 1d 57 60 3c 6a 75 6f be 9a d0 09 3f
       0.20203386 0.013692644 -0.23384634 0.53833926
0000b0 ab b2 2a 3f 62 9f 08 bf af 59 0f bf ee 72 12 3f
       0.66678876 -0.533682 -0.5599622 0.5720662
0000c0 06 52 27 bf de 06 f1 bb 57 d1 f9 3c 39 70 da be
       -0.6535953 -0.007355555 0.030495329 -0.42663744
0000d0 a1 10 16 bf 7c c9 ce 3e 53 fe 18 3f cc dd 7f 3e
       -0.58619124 0.40388095 0.5976307 0.24986953
0000e0 a3 5e 31 3e a8 84 5d 3e d3 90 8b 3d 6d ad 07 bf
       0.17321257 0.21632636 0.068147324 -0.52999
0000f0 14 e6 8f be 8a d2 9c be 16 b1 21 3f 71 1e 19 3e
       -0.28105223 -0.3062938 0.63160837 0.14953019

bias f4 [32]
000000 21 3b 04 bc 17 45 b8 be bc cc 19 3e 06 e0 ab 3d
       -0.008070738 -0.3599021 0.15019506 0.083923385
000010 31 b8 8b 3e 2f 12 16 3c 75 3f 25 3e b4 42 d7 be
       0.27288964 0.009159609 0.16137488 -0.42043078
000020 c7 2e 83 3e 18 68 a5 3e 14 ad dd 3e 99 21 87 3e
       0.25621626 0.3230598 0.4329611 0.2639282
000030 ef aa 13 bf 32 2c fe 3e d6 32 2d bf d5 6c c9 3e
       -0.576827 0.49643093 -0.67655694 0.39340845
000040 2a a3 1d 3f 2c e1 29 bf 97 f3 ec 3e a6 7f e2 be
       0.61577094 -0.6635921 0.46279594 -0.44238013
000050 65 62 0b 3e 56 a4 04 bf 5b 89 14 bf d0 6d a5 be
       0.13611753 -0.51813257 -0.5802209 -0.32310343
000060 10 ff dd 3e fb 7f 9d 3e d9 0d 14 3f 65 2e fe 3c
       0.4335866 0.30761704 0.5783363 0.031027982
000070 ca 69 d5 3e d7 7d 33 bf a5 1b ea be f4 cb 31 3f
       0.41682273 -0.7011389 -0.45724216 0.6945183

weight f4 [32, 2]
000000 f2 ff e3 bd 46 af 1f bf 2b 3e 0e 3e 36 60 26 bf
       -0.11132802 -0.6237682 0.13890903 -0.64990556
000010 34 6f b6 be 84 5e 48 3d 34 3e 1f 3f ff 3c 12 3f
       -0.35631716 0.048918262 0.6220429 0.5712432
000020 94 d1 a4 be 10 fb 92 3d a8 1b 1c bf b9 db 20 3e
       -0.32191145 0.071767926 -0.609797 0.15708818
000030 bb 49 b9 3e 8c 6a d7 bd 3d b6 2f 3f 9a 84 7a 3e
       0.36189064 -0.10518369 0.6863745 0.24464646
000040 15 9e 2f 3f 60 e7 25 3f eb 23 1f bf 07 19 1d be
       0.6860059 0.64806175 -0.6216418 -0.15341578
000050 f3 6e 86 be ee 65 dc be 13 99 72 be b5 e6 22 bf
       -0.26256523 -0.43046516 -0.23691206 -0.6363328
000060 e3 1e a4 be e4 0b 44 3e 38 54 3f 3e 45 cc cb be
       -0.32054815 0.19145161 0.1868447 -0.39804283
000070 f0 f0 4b be 9f 67 a5 bd 7b 84 e7 3e 91 6a 7e be
       -0.19916129 -0.08076405 0.45218262 -0.2484534
000080 3c 20 30 3f 81 5b 4c 3e dc d3 11 3f b9 6e 29 be
       0.68799186 0.19956781 0.56963897 -0.16546144
000090 c2 6e b9 bd 75 29 c7 be 0a ed 18 3f 51 15 22 3f
       -0.090543285 -0.38898817 0.5973669 0.63313776
0000a0 73 98 ea be 8f 46 d3 be ca 88 84 3e 1f da 19 bf
       -0.45819435 -0.4126477 0.25885612 -0.6009845
0000b0 d3 ca bc 3d 67 d4 a2 bd be 8e 97 3e 78 73 e6 3e
       0.09218373 -0.07950669 0.2960109 0.4500997
0000c0 96 f8 0c 3f 88 17 07 bf 0d 1b 2a bf b3 23 df bd
       0.5506681 -0.5277028 -0.66447526 -0.10895481
0000d0 2b 49 84 3d 59 a1 01 bf c4 72 0f 3f 5c 30 a8 bd
       0.06459268 -0.5063682 0.56034493 -0.08212349
0000e0 e8 da 35 bf 30 7e a2 be ba 37 53 3e dc db d8 3e
       -0.7103715 -0.31736898 0.20626727 0.4235524
0000f0 62 90 08 bf 72 79 03 3f ab 29 8f 3e da 32 52 be
       -0.5334531 0.51357186 0.27961478 -0.20527211

weight f4 [32, 32]
000000 13 ef ed bd 0a 63 ba bd 22 13 d6 bd ae 00 3b be
       -0.116178654 -0.091009215 -0.10452868 -0.18261978
000010 c0 16 1d be d5 33 fb bd 8b 52 a2 3b 0b 65 12 bc
       -0.1534071 -0.122657456 0.0049536875 -0.008935223
000020 63 b1 ba 3d 1e ec c1 3d 95 73 39 3d e5 2d 1c 3c
       0.09115865 0.09468864 0.045276243 0.0095324265
000030 5b 3a 06 3e ba ef dd 3d b0 73 f0 3d 52 ba ae bd
       0.13108198 0.1083674 0.11740816 -0.085316315
000040 58 5d 12 3c 75 d7 82 bd 8b 71 76 3d 42 f8 84 bd
       0.008933388 -0.063887514 0.060166877 -0.06492664
000050 1a 72 fc bd 2a 3a fb bd 55 f0 08 be c2 cf 33 3e
       -0.12326451 -0.12266953 -0.1337293 0.17559722
000060 07 60 25 be 36 b7 92 bd 68 5b 27 be ce 31 3e bd
       -0.16149913 -0.07163851 -0.16343462 -0.046434216
000070 52 02 1e 3d 7b cd b4 bd 02 ec 8b 3d 78 83 46 3a
       0.03857643 -0.08828255 0.06832124 0.0007572691
000080 1d 3d 67 3e af 19 21 3c a8 e9 c9 bd 72 f7 f9 bd
       0.22581907 0.009832784 -0.098590195 -0.122053996
000090 2f 87 aa bd 1f 2e 13 bc f3 9c 1e bc 8c dc 59 bd
       -0.083265655 -0.008983164 -0.009680974 -0.053188846
0000a0 0c b9 d1 bd 07 30 33 be 23 3c c5 bd 16 51 b2 bd
       -0.10240373 -0.1749879 -0.09630611 -0.08706872
0000b0 8d 3e 90 bd 7e 92 b4 bd 16 2a 71 3d 27 0b 52 3d
       -0.070431806 -0.08817004 0.058878027 0.051280167
0000c0 41 d6 33 3e da ba 49 3d 2f 3d 40 be c2 bc cb bd
       0.175622 0.04925046 -0.1877334 -0.09948112
0000d0 e9 76 7b 3d 27 3e f7 bd ca 76 da 3b 2f 19 a5 3d
       0.0613927 -0.120724015 0.006666993 0.08061444
0000e0 13 19 0b 3d d9 d6 18 be 73 99 47 3d d5 93 9f bd
       0.03395946 -0.14925708 0.048730325 -0.077918686
0000f0 f0 6a 36 be aa ea 78 3d fb 8d 87 3d 10 71 1a 3e
       -0.17814231 0.060770668 0.066188775 0.15082192
000100 33 c4 32 3e ae d3 05 3e 07 1e ac 3d e2 7b a4 3d
       0.17457657 0.1306903 0.08404165 0.08031441
000110 6a 75 06 3e 12 43 80 3d ba 37 0e 3e 41 c4 57 bd
       0.13130727 0.06262793 0.13888445 -0.052677397
000120 e8 1f 32 bd 41 51 23 3d 98 85 15 be 38 e1 30 bd
       -0.04348746 0.03987241 -0.14601743 -0.043183535
000130 79 fe af bd 1a 13 88 bd 05 b7 56 3e 08 08 04 be
       -0.08593459 -0.06644268 0.20968254 -0.12893689
000140 57 e3 bc 3a 97 75 0f 3e b5 ff b5 bd 0b 8a 59 3e
       0.0014411014 0.140097 -0.08886663 0.21244065
000150 16 48 ce 3c 59 63 a2 3d 89 9a 22 be a5 ab 38 be
       0.025180858 0.07929105 -0.15879263 -0.18034227
000160 2a a6 a9 bd e8 9d 84 bd 5a 9f 0b be 63 1b 02 be
       -0.082836464 -0.06475431 -0.13635007 -0.1270576
000170 00 5f a0 3d cb 4d ca 3d 7b 02 e0 3d af d0 89 bd
       0.0783062 0.09878119 0.10937973 -0.06729256
000180 d2 70 c4 bd 57 4a b1 bd 84 35 cc 3d 37 a8 c3 bd
       -0.09591831 -0.08656757 0.09971145 -0.09553569
000190 c8 2b f1 3c 95 c3 ce 3c 09 04 14 bd bd 13 10 be
       0.029439822 0.025239745 -0.03613666 -0.1407003
0001a0 d5 9c b1 3d 94 9c 32 be 38 86 ed 3d f9 f5 b6 3d
       0.086724915 -0.17442542 0.11597866 0.08933634
0001b0 fa c2 f2 3d d3 16 0f be ee 65 71 bd ec 3f 14 be
       0.11853595 -0.1397355 -0.0589351 -0.1447751
0001c0 98 86 dc 3d e2 68 6e 3c bd 59 1e 3e 2e 65 21 3e
       0.10767859 0.014551373 0.1546392 0.15761253
0001d0 de 38 03 3e 38 29 06 3e 24 c8 23 3e f8 4b 39 be
       0.12814662 0.13101661 0.15994316 -0.18095386
0001e0 ab 75 a0 bd dd 6f fd bd 78 a7 9f 3d 35 19 36 3e
       -0.078349434 -0.12374852 0.07795614 0.17783053
0001f0 30 e7 89 3d ef 97 dc bd 2a 67 40 3e 41 6e 8e 3d
       0.06733549 -0.107711665 0.18789354 0.06954623
000200 6a 81 58 bd 99 4a ae 3d 49 ca d6 bc 1b 75 68 3c
       -0.052857794 0.08510322 -0.026219504 0.014188076
000210 24 0b c5 bc 0e 25 8f 3d 61 cf 82 3c d3 25 ef 3b
       -0.024053164 0.069894895 0.015968027 0.00729821
000220 77 6b 01 3d 1e b8 79 3d 84 16 30 3e ab d4 11 bd
       0.031596627 0.060966603 0.17196089 -0.035603207
000230 3a c0 34 bd 16 47 9b bd d0 0b 7b 3d 0b 97 08 3d
       -0.044128634 -0.07581918 0.061290562 0.03334717
000240 34 83 16 3d 3d 7f c4 bd cb 84 a4 bb 0e 7f 48 3e
       0.03674622 -0.09594581 -0.005020713 0.19579718
000250 df a2 1d 3c e8 61 8e 3d ab 65 2e 3d 57 a4 23 bd
       0.009621351 0.06952268 0.042577427 -0.03995165
000260 58 f5 e8 bc 3e 2e 54 bd f7 d7 ff 3d cb 64 08 be
       -0.028437302 -0.051801912 0.12492364 -0.133197
000270 c7 66 15 be 67 4a 39 3e 9e ce a5 3d e7 49 48 3e
       -0.14589988 0.18094788 0.0809605 0.19559442
000280 8a 1b 0a 3d 1e c1 fc bd e6 ac 2e be dc 57 ef bd
       0.03371767 -0.12341522 -0.17058143 -0.1168668
000290 3a 95 a5 bd c5 cc 07 3e 2c 3f e3 3d c4 4c 35 be
       -0.08085103 0.13261707 0.110960335 -0.17705065
0002a0 01 c0 3e 3d d8 94 b0 3d 5b 4d 6c 3d 56 d8 1c be
       0.046569828 0.0862214 0.05769096 -0.153169
0002b0 af 41 1d 3e 89 b0 a2 3d bd 0d 20 3e 6a 08 9b 3d
       0.15357088 0.07943828 0.1563024 0.07569964
0002c0 6c 81 ce 3d f2 4d 97 3d 22 ba 09 be 48 ac 1b be
       0.10083279 0.07387914 -0.1344991 -0.15202439
0002d0 a6 ce 07 be 2d 40 0e 3d df 71 70 3b 7b 64 95 3d
       -0.13262424 0.03472917 0.0036688966 0.07294556
0002e0 6b c3 76 bd bb 99 ae 3c a3 33 9e 3d 5f df 74 3d
       -0.06024496 0.021313539 0.07724693 0.059783336
0002f0 e1 9e 3a 3e be 99 0c 3d 63 63 0a be 75 92 af bd
       0.1822467 0.034326307 -0.13514476 -0.08572856
000300 90 03 30 3e 13 72 2b 3e 7e d7 a8 bd 12 26 07 3e
       0.17188859 0.16742735 -0.08244227 0.13198116
000310 77 05 16 3e 44 fb d5 bd 73 5a 28 3e 1f e3 9a bd
       0.14650522 -0.10448316 0.16440754 -0.07562851
000320 ca 60 05 3d fa aa bc 3d 77 ad ad bd c9 30 ed 3c
       0.03256301 0.09212299 -0.084803514 0.028953927
000330 c3 51 76 bd d3 96 b5 3d 15 e0 3a 3e ee 97 e9 3d
       -0.060136568 0.08866658 0.18249543 0.114059314
000340 c8 6c b7 3d 79 8e a0 bc 90 ec f2 3d 10 d4 a0 bd
       0.08956295 -0.019599186 0.11861527 -0.07852948
000350 b6 8c 94 3d 76 92 30 3d 24 6e 4f 3d 9c e9 2d bd
       0.07253401 0.043108426 0.050642148 -0.042459115
000360 d8 99 1b bd 14 89 17 be 83 7a 12 3e 59 6f f9 bc
       -0.037988514 -0.14798385 0.14304547 -0.030448603
000370 bd ed 5b 3d df af e4 3d b6 cb 18 3e 0c 39 29 3e
       0.05369352 0.11166357 0.1492146 0.16525668
000380 c0 0f ed 3d f8 66 52 be 29 48 4f 3e 21 73 34 3e
       0.1157527 -0.20547092 0.2024237 0.17622043
000390 b6 91 97 be 77 5b 07 3e 65 f5 8f 3c ac fa 60 3e
       -0.29603356 0.13218485 0.017573068 0.21970624
0003a0 cc 83 8e 3b 14 52 47 3d 5a 92 52 3e dd 5a 02 be
       0.0043492075 0.04866226 0.20563641 -0.12729974
0003b0 99 44 0f be f7 e7 75 be a7 af 7b be 05 01 3f be
       -0.13991012 -0.24014269 -0.24578725 -0.18652733
0003c0 a1 e2 76 be 10 d8 8e be 77 f9 9d 3e 4d b6 fb 3d
       -0.2410989 -0.27899218 0.3085439 0.122906305
0003d0 c6 61 82 3e 89 8e 8b 3d 1d 1a a0 3e 9b 83 81 3e
       0.2546522 0.06814296 0.31269923 0.2529572
0003e0 85 59 9f 3d 4e a8 99 bd b4 8c 16 be ac 99 e0 3c
       0.07780746 -0.07502805 -0.14702111 0.027417026
0003f0 85 1a 68 be 95 7b 31 3d 07 09 8f bd d9 4a ee bc
       -0.22666366 0.043330748 -0.06984144 -0.029088425

bias f4 [32]
000000 8a 3b a7 bc 21 e3 f1 3d b8 37 12 3d 42 57 90 bd
       -0.020414133 0.118108995 0.03569767 -0.07047893
000010 81 13 15 be 87 a8 1a 3e 87 07 b9 3d c9 8c 76 3d
       -0.14558221 0.1510335 0.09034639 0.060192857
000020 4e 32 8a bd 91 9b ca 3d 71 42 10 3d 44 89 90 3d
       -0.06747876 0.09892953 0.035219613 0.07057431
000030 d9 0e f5 3a f3 22 ad bd ce cd e5 3d 9c 0b 30 3e
       0.0018696442 -0.08453932 0.11220895 0.17191929
000040 db 36 15 be 76 0c dd 3c 67 15 1e 3e eb 91 9c bd
       -0.14571707 0.02698348 0.15437852 -0.07645019
000050 ee de 84 bd 54 2e cd 3c a5 2c b7 3d a7 5a 7e 3d
       -0.06487833 0.025046505 0.08944062 0.06209817
000060 e7 02 50 bc fe de a2 bd 76 2b 74 bd 1b 43 2e be
       -0.0126960045 -0.07952689 -0.05961176 -0.17017786
000070 c9 ea 2b 3c 3b 11 8d bd 53 84 95 bd d2 d3 58 bc
       0.010492989 -0.06888052 -0.073006295 -0.013234096

weight f4 [32, 2]
000000 d3 2e 05 bf bc da 2b 3d fe 8d a1 be 05 ed 9f be
       -0.52024573 0.04195665 -0.31553644 -0.3123552
000010 15 44 d3 3e 75 75 5c 3d 36 7f 2c bf b5 6b 0e bf
       0.4126288 0.053822953 -0.6738161 -0.556331
000020 48 af 78 3e 6d 82 f3 3e 07 37 fb bd 52 66 cb 3e
       0.24285614 0.47560444 -0.12266355 0.39726502
000030 aa 54 e9 be 2d b0 46 3e 88 8b 21 bf 3c b7 89 be
       -0.45572406 0.19403143 -0.6310353 -0.2689761
000040 89 db 61 be 8c 3d 5d be 4a 47 ff be cf 6d 58 3e
       -0.22056402 -0.2160551 -0.49859077 0.21135639
000050 1d 8e f4 be 82 1b 96 be 33 d5 aa bc b8 40 0b bf
       -0.47764674 -0.29317862 -0.020853614 -0.5439563
000060 13 9a 59 3e 83 42 31 3f 52 b0 5c 3e 25 f8 7a be
       0.21250181 0.69242114 0.21551636 -0.24508722
000070 40 c6 91 3e 7c 79 b2 be e1 af 7f 3d bc 7c 0e 3f
       0.28471565 -0.3485831 0.06242359 0.5565908
000080 6c 8d 03 bc c5 24 05 3f 90 64 2c be ff e4 32 3e
       -0.008029323 0.5200923 -0.16835237 0.17470168
000090 68 2a e7 be 54 ff e0 3e ad 22 f1 3d 85 e8 f4 3e
       -0.4514954 0.439448 0.11774192 0.47833648
0000a0 d4 0c af be a9 5b bc be e5 0e b2 be 2c 03 b6 3e
       -0.34189475 -0.3678868 -0.3477699 0.35549295
0000b0 f0 95 cd be 87 6e 37 3e 83 2b f0 be 12 85 d0 bd
       -0.40153456 0.17913257 -0.46908197 -0.10181631
0000c0 49 8c 09 3f 7f 16 f9 3d 2a 7d 82 be ce be 03 be
       0.53729683 0.12162494 -0.25486118 -0.12865755
0000d0 f2 5b 19 bf 9d 8a 34 3f 4a 66 3d be 7c ea 90 3e
       -0.5990592 0.7052401 -0.18496051 0.28303897
0000e0 bc f1 25 bf 9d ff 12 bf b6 ca 00 bd 4f b4 fb be
       -0.6482198 -0.57421285 -0.03144332 -0.49161002
0000f0 8e 50 c4 3e ea 8e 5f bd 77 77 0f bf f7 b6 2e 3f
       0.38342708 -0.054579653 -0.56041664 0.6824793

weight f4 [32, 2]
000000 9b 7f f3 be 39 b4 7b 3c e8 08 ca 3e 84 e7 5e be
       -0.47558293 0.015362793 0.3945992 -0.21768004
000010 0a 5a 91 be 1a cf 14 be ea 1e f8 3e 5c 4c 61 3e
       -0.28389007 -0.14532128 0.48461086 0.22001785
000020 63 0e 20 bf 8a 18 f4 be 01 fd 39 3e de ce 14 bf
       -0.6252195 -0.47674972 0.1816292 -0.58128154
000030 e7 da de be b1 22 c4 3d ac 57 de 3e 27 55 f5 3e
       -0.43526384 0.09576929 0.43426263 0.4791653
000040 c6 41 09 3f f4 5b 24 bf 16 69 ce 3e a2 09 d1 be
       0.5361599 -0.6420281 0.4031455 -0.40827662
000050 50 5a ac bd 23 bc 03 bf 6f 43 7a 3e 1e 03 f8 be
       -0.08415663 -0.5145895 0.24439786 -0.48439878
000060 8e 44 b2 3c f6 dd 0d bd 95 5d c4 3e 84 c7 f8 be
       0.021761205 -0.034635507 0.38352647 -0.48589718
000070 40 c8 98 3e 75 7e fe 3c 8e 91 bc 3e 98 72 07 3e
       0.2984028 0.031066159 0.368298 0.13227308
000080 0d d4 cd 3e 2e f4 24 bf c3 65 a6 bc 97 4d 24 bf
       0.40200844 -0.6443509 -0.020312196 -0.6418089
000090 d6 d4 3e 3d b2 8d 25 3e 21 e7 08 bf 6a f9 25 bf
       0.046589695 0.16167334 -0.53477675 -0.648337
0000a0 4c 04 2b bf bf a9 d7 bd 73 fa fa 3e 8e d6 44 3e
       -0.6680343 -0.105304234 0.49019203 0.19222471
0000b0 a7 75 57 be b3 8e 97 be cb 46 f8 be 82 61 a9 be
       -0.21040975 -0.29601058 -0.4849151 -0.33082205
0000c0 2c 6f 93 bd 7a a6 2e 3e 7a 11 2f 3f 2b 15 1c 3e
       -0.07198939 0.17055693 0.6838604 0.1524245
0000d0 96 b1 47 be 1e 1e 7f be 36 ca cd 3e 0b 93 81 be
       -0.19501337 -0.24913833 0.40193337 -0.25307497
0000e0 6f 83 13 bf 4a 7a 07 3f 9c 0f 67 3e 0f 4b 13 3f
       -0.57622427 0.52920973 0.22564548 0.57536405
0000f0 63 f7 fb bd c4 2c cd bd d4 7c 30 bf 33 93 13 bf
       -0.12303045 -0.10018304 -0.6894047 -0.57646483

bias f4 [32]
000000 26 9d 48 3e cf bf 27 3f 7c 97 15 3f be c8 10 3f
       0.19591197 0.6552705 0.5843427 0.5655631
000010 6b e7 ac 3c aa 83 3c 3e 30 7d 03 be 1d e7 d1 be
       0.021106442 0.18409601 -0.12840724 -0.40996638
000020 32 6d 0d bf 31 ca 8b 3e 8c a6 c8 be 44 e9 b4 3e
       -0.55244744 0.27302697 -0.39189565 0.35334218
000030 1b 8f e4 3e 9b 9e db be cd 7e 3c 3f 83 f5 75 be
       0.4464043 -0.42894444 0.7363098 -0.24019437
000040 b9 5d 10 bf 81 f3 01 bf 43 6a af 3e 0e a2 42 3b
       -0.5639301 -0.5076218 0.3426076 0.0029698643
000050 80 8a e7 be f6 96 70 bc c7 87 e7 3d ff 3a 2c 3f
       -0.45222855 -0.014684429 0.11305194 0.6727752
000060 5e 60 6b 3e 2b f8 1f 3f 32 60 7d 3e 7a bf 4d be
       0.2298598 0.6248805 0.24743727 -0.20092574
000070 e5 f6 3f bd 3e 47 18 3f 39 b9 cf 3e 81 29 ff 3d
       -0.046866316 0.59483707 0.40571 0.12459088

weight f4 [32, 32]
000000 a3 48 f1 3d e8 00 14 be 7c 9b 95 3d ea 43 f3 3d
       0.117814325 -0.1445347 0.07305047 0.11878188
000010 bd 15 ea 3c 22 1c 86 bd 99 f4 18 3e eb b1 23 be
       0.028574819 -0.06548335 0.14937057 -0.15985839
000020 eb a7 55 be 3f d3 22 3e eb bb 21 3e 27 37 c0 39
       -0.20864837 0.15900896 0.15794341 0.00036662185
000030 a7 64 63 bc b4 39 23 3e 15 cb 19 be b4 5c da 3d
       -0.013878978 0.15939981 -0.15018876 0.10662213
000040 13 c6 d9 3c c9 8c 82 be 4e 7a d1 3c c2 23 c6 bd
       0.026583707 -0.25498036 0.025571015 -0.09674789
000050 82 59 41 be bc d5 a3 bd 9e e3 06 be 15 02 b8 bd
       -0.18881801 -0.07999751 -0.13172767 -0.08984772
000060 5f 56 4a be 1f 7c c5 3b 4f 86 f1 3d 05 7d f9 bd
       -0.1975951 0.0060267593 0.117931955 -0.12182049
000070 ad 17 9a bd d0 b3 a6 bd 92 8d 67 3e 82 65 36 3d
       -0.07524047 -0.08139765 0.22612599 0.0445304
000080 c4 73 6a be dd 71 36 3d 60 aa c3 bd 70 fc 8d bd
       -0.22895724 0.044542182 -0.09553981 -0.06932914
000090 65 ee 37 be 28 5f 3b 3e 41 81 25 be 8f a6 95 3d
       -0.17962034 0.18298018 -0.16162588 0.07307159
0000a0 f2 50 87 bd e2 b3 da 3d c4 a7 39 3d 75 1b 47 3e
       -0.06607236 0.10678841 0.04532601 0.19444068
0000b0 22 fb eb 3d 48 16 2d bd f6 8e a1 3d a5 c7 2e 3e
       0.11522509 -0.042257577 0.07888596 0.17068346
0000c0 fc 05 a9 bd cc 76 b5 bd 19 a1 7c bd 72 c9 73 3e
       -0.082530946 -0.08860549 -0.061677072 0.23807314
0000d0 fe 90 01 be 3d b8 27 3e 4b 0c 21 bc fc 6e b9 3d
       -0.12652966 0.16378875 -0.009829591 0.09054372
0000e0 49 1d b1 bc fe 0c 46 bd 82 9d 44 3e fc 9d ea 3d
       -0.02162041 -0.048352234 0.1920071 0.114559144
0000f0 2d 64 0b bd bf 6a 9c bd 9c 51 ae bc 14 3e f0 bd
       -0.034031082 -0.07637548 -0.021279149 -0.117305905
000100 3b 8d c4 bc c8 18 fb 3c ce a4 96 be 28 35 77 be
       -0.023993125 0.030651465 -0.2942261 -0.24141371
000110 b7 94 76 be a0 3d cd bc 60 27 22 be 55 fd 2d be
       -0.24080168 -0.0250538 -0.15835333 -0.1699117
000120 cf 15 80 3e b7 da 43 be ed 73 b7 3d 5f 14 df bd
       0.2501664 -0.19126402 0.08957658 -0.10892557
000130 8b 16 ca be d4 18 d1 3b 68 c1 35 be d3 24 24 bd
       -0.39470324 0.0063811336 -0.1774956 -0.04007418
000140 ea 1d 93 be 14 83 4f be de 97 98 be 4b 3e 04 3e
       -0.2873376 -0.20264846 -0.29803365 0.12914388
000150 aa 7f 1c 3e 23 1d d0 bd 2b e9 79 3e 3c d4 a8 be
       0.15283075 -0.101618074 0.24405353 -0.32974422
000160 a3 31 f0 bd 99 a7 3d 3e 00 c4 92 3e 81 af 2d 3e
       -0.117282175 0.18520965 0.2866516 0.1696148
000170 30 8a 30 bd 95 4b 5e be 2d 9f 6d 3e 53 00 f3 3d
       -0.043100536 -0.2170852 0.23205252 0.11865296
000180 0a e6 13 bd e8 eb 42 3c 9b 9a 25 be 6a 91 df 3b
       -0.036108054 0.011897065 -0.16172259 0.0068227546
000190 00 2f 8a bc 73 be 41 3d 3c 52 b0 bc 87 fd d2 3c
       -0.016868114 0.047300767 -0.021523587 0.025755657
0001a0 cd 1d 14 be 74 5a 71 bd f6 bf 2e 3d 53 b7 38 bc
       -0.14464493 -0.058924153 0.042663537 -0.011274177
0001b0 ae 29 82 bd 72 4c 26 bd 54 5b 40 be 03 9f 45 3e
       -0.06355606 -0.040600248 -0.18784839 0.1929894
0001c0 ac 15 5a bd 26 be 19 3e 5b a8 12 3e c2 c4 ac 3d
       -0.053243324 0.15013942 0.14322035 0.08435966
0001d0 7a a1 db 3d 37 b0 37 3e 6a 1d 75 be b7 74 98 3e
       0.107241586 0.17938314 -0.23937002 0.29776546
0001e0 9a e7 b7 3d 42 f2 24 bd 86 b9 1c 3e e3 bd c6 3d
       0.08979721 -0.040270098 0.15305147 0.09704187
0001f0 6a 0f 9c be f9 e2 1c bd fe d0 83 bd ac cc 98 3e
       -0.3048051 -0.038302395 -0.064363465 0.29843652
000200 d8 b6 8e bd 19 9c 01 be 49 c7 2f 3d e4 b0 27 be
       -0.069684684 -0.12657203 0.042914663 -0.16376072
000210 7e cc a9 3e c9 0d a0 3e 01 6a 61 3e c6 6d 2e 3d
       0.33163828 0.31260517 0.22013094 0.042585157
000220 24 5a 45 be 4e b4 b3 be c4 02 5e bd 5b 6c d3 3c
       -0.19272667 -0.350985 -0.054201856 0.025808504
000230 bf 67 04 bf 1f 03 3b bd 84 66 d9 be f3 3d b9 3e
       -0.51720804 -0.045657273 -0.42461026 0.36180076
000240 1a f4 77 be 9f 83 cb 3e c2 34 dc bd f6 8b 8e be
       -0.24214211 0.39748856 -0.1075225 -0.27841157
000250 8d bf a3 3d cd c2 10 3d 3f 5b 62 be f7 40 bc 3c
       0.0799552 0.035342027 -0.2210512 0.022980196
000260 63 8a 45 bd 8e 17 79 be c6 04 9a bd 8d ea b4 be
       -0.04822768 -0.24325392 -0.07520442 -0.35335198
000270 68 1d 07 be d2 b7 5e 3e 95 c5 11 bd a0 bb 4f be
       -0.13194811 0.2174981 -0.03558882 -0.20286417
000280 d5 a4 6d 3c a7 a7 65 bb 4c 14 79 bd 00 a5 0a 3e
       0.014504631 -0.0035042556 -0.060810372 0.13539505
000290 8f 16 60 3d 8f 3a 09 bd a9 14 5a 3d 5d 9d 03 bd
       0.054709014 -0.03350311 0.05324236 -0.032132495
0002a0 72 54 43 be 2c 47 91 bc 00 81 88 bc 32 b8 a3 3d
       -0.19075182 -0.017734133 -0.016663074 0.07994117
0002b0 df 26 3c bc b0 e9 10 be 7b 20 4f be 55 ec d9 bd
       -0.011483877 -0.14151645 -0.20227234 -0.1064078
0002c0 d5 2b 8e be 1e 83 2e 3e 8f ab 11 3e c9 5f 7f 3e
       -0.27767816 0.17042205 0.142256 0.24938883
0002d0 42 1e 49 be 2f f9 5e 3e 37 10 36 3e f7 57 9e bd
       -0.19640449 0.21774743 0.17779623 -0.07731622
0002e0 12 ea c3 3d 16 cd 3d 3d 9d 3f d0 3d b1 fd 9f bd
       0.0956613 0.046338163 0.10168383 -0.0781206
0002f0 67 7d 7c be 81 97 47 3e ce cf a2 3d ad e9 fd 3d
       -0.24657212 0.19491388 0.07949792 0.12398086
000300 b7 64 04 be 6d 83 6d be 52 73 87 bd f0 7d 00 be
       -0.12929045 -0.23194666 -0.066137925 -0.12548041
000310 66 5b 68 bd 82 93 18 3e c3 c1 f7 3c 9e 23 56 be
       -0.05672779 0.1490002 0.03024376 -0.20912024
000320 2c ed c9 3d 96 41 25 3e b5 ba 1f be e7 88 5d be
       0.0985969 0.161383 -0.15598567 -0.21634255
000330 97 8f 58 be 7f 7b e2 3d e8 2c 10 bc b7 77 c7 3d
       -0.21148525 0.11058711 -0.008799769 0.09739631
000340 14 24 0f bd 82 8e 2a be b9 13 be 3d f7 d2 1d be
       -0.034946516 -0.16655925 0.092811055 -0.15412508
000350 29 18 0b 3e cf 83 9c bc 93 88 1e 3e 76 90 da bd
       0.13583435 -0.01910582 0.15481786 -0.10672085
000360 01 c4 fe 3d a6 5f 89 be 32 58 9d 3d 93 75 34 3e
       0.124397285 -0.26830786 0.076828375 0.17622976
000370 b8 22 ab bd f1 c0 dc 3d d4 80 3b 3b 76 89 a8 3d
       -0.083562315 0.10778988 0.0028610723 0.082293436
000380 2d c3 22 bd 02 e2 52 3e 8e 3e f6 bd d3 7c e4 3d
       -0.039736915 0.20594028 -0.1202365 0.11156621
000390 ba bf 1c be 52 10 0d be 0a e1 c4 bc 9f 2b df 3d
       -0.15307513 -0.13775757 -0.024033088 0.10896992
0003a0 c4 05 ac bd b7 4e a8 bd 75 30 fb 3d d6 d9 28 be
       -0.08399537 -0.08218139 0.12265102 -0.16489348
0003b0 2f 69 e6 3c 0f 90 8c bd 9d 5e 11 bd 87 57 a8 3d
       0.028126327 -0.068634145 -0.03549062 0.082198195
0003c0 53 2e 9a bd ca 68 3d be 3c 89 57 3e d7 78 d3 bc
       -0.07528367 -0.18497005 0.21048445 -0.025814457
0003d0 f8 7d e0 bd 9c 44 9d bb a9 16 af be b6 34 e0 3d
       -0.10961527 -0.0047994386 -0.34196976 0.10947554
0003e0 92 eb 2a 3e a8 85 4b 3e 1f a1 21 3e 68 21 02 bd
       0.16691425 0.19875205 0.15784119 -0.03177014
0003f0 13 70 ad bd 98 18 bf bd 97 83 72 bc 2b 76 0c 3d
       -0.08468642 -0.09330863 -0.014801881 0.03429238
