anp_models/anp_link_prediction_next_topic_2024_05_16_18_19_12/model.pt (torch, 259474 bytes, 75 tensors)

weight f4 [32, 2]
0	0x3ebf59f6	0.37373322
1	0x3e083198	0.13300169
2	0x3bc49c7f	0.006000101
3	0xbf176d98	-0.591516
4	0xbe2d96fe	-0.1695213
5	0x3d6cb37b	0.057788353
6	0xbf21c5bb	-0.6319234
7	0x3edc7fe8	0.43066335
8	0xbeee1c30	-0.4650588
9	0x3ecfb147	0.4056494
10	0xbe089f25	-0.13341959
11	0x3f30bae5	0.6903518
12	0xbddacccf	-0.106835954
13	0xbc991729	-0.018687801
14	0xbded2900	-0.11580086
15	0x3ee9e513	0.45682582
16	0xbeadd5ff	-0.3395233
17	0xbd82f7d6	-0.06394927
18	0x3f0413c7	0.5159268
19	0xbe38ed6e	-0.18059322
20	0x3f1ee19a	0.6206299
21	0xbec21d77	-0.37913105
22	0xbf1fa4f1	-0.62361056
23	0xbee59ec5	-0.44847694
24	0xbeb81888	-0.35956216
25	0xbf18d4c7	-0.5969967
26	0x3ee7639b	0.4519318
27	0x3f26346f	0.6492376
28	0x3f23d12d	0.6399105
29	0xbec54d30	-0.38535452
30	0xbf0b2265	-0.54349357
31	0xbebbe3b0	-0.3669715
32	0x3eb980ea	0.36231166
33	0x3e82f462	0.25577074
34	0xbf144932	-0.5792419
35	0x3d63ab87	0.055583503
36	0x3ef8ac1b	0.48568806
37	0x3e9bc119	0.3042076
38	0x3eedd4d2	0.46451432
39	0x3e48b029	0.1959845
40	0x3f207a56	0.6268667
41	0xbdc2a30a	-0.095037535
42	0xbeadc617	-0.33940193
43	0x3f0c669b	0.54844064
44	0x3ec64157	0.38721725
45	0xbf144ae5	-0.5792678
46	0x3f12101e	0.5705584
47	0xbed1c617	-0.40971443
48	0xbeb24b34	-0.34823
49	0x3ee2f0e9	0.44324425
50	0xbf32cad2	-0.6984073
51	0xbef919e5	-0.48652568
52	0xbd056a25	-0.03257193
53	0x3d7b3861	0.061333064
54	0x3e24b8d9	0.16086139
55	0x3e9c51a5	0.3053104
56	0xbede20aa	-0.43384296
57	0xbecdfa0f	-0.40229842
58	0x3df3d3d4	0.119056374
59	0x3e0f7187	0.14008151
60	0xbe783410	-0.2423861
61	0xbf328670	-0.69736385
62	0x3d0345d4	0.032049015
63	0x3de1aad5	0.11018912

bias f4 [32]
0	0x3e02be1a	0.1276783
1	0x3f03a2a7	0.5142006
2	0xbf2d9c83	-0.6781694
3	0x3f1ea878	0.6197581
4	0xbe23cc8a	-0.15995994
5	0x3df0eeeb	0.1176432
6	0x3e96052b	0.29300818
7	0x3e7d1562	0.24715188
8	0xbe656d36	-0.22404942
9	0x3df16910	0.11787617
10	0xbcf37533	-0.02971897
11	0x3e1f4c97	0.1555656
12	0x3f0dcfe6	0.5539535
13	0x3e020e08	0.12700665
14	0xbdb57f2f	-0.08862149
15	0x3f12e820	0.57385445
16	0xbeae26b1	-0.34013894
17	0x3e10402a	0.14086977
18	0x3c10e61b	0.008843924
19	0x3eb225ad	0.3479437
20	0x3eeaa8a2	0.45831782
21	0x3ee7534a	0.45180732
22	0xbe0d2450	-0.13783383
23	0xbf2697be	-0.6507529
24	0x3e292ebf	0.16521738
25	0xbeed9638	-0.4640367
26	0x3ef366bb	0.47539315
27	0xbc131169	-0.008976319
28	0xbe85406a	-0.26025707
29	0xbd879b07	-0.06621366
30	0x3f064cfe	0.5246123
31	0x3e8c18cd	0.27362671

weight f4 [32, 2]
0	0x3cef21b5	0.029190877
1	0xbea6caed	-0.32576695
2	0x3f27ddbe	0.65572727
3	0x3f226596	0.6343626
4	0x3ea6fed5	0.32616296
5	0xbed0e58e	-0.40800136
6	0x3e3bc4a6	0.18336734
7	0xbe13647b	-0.14393799
8	0xbee18e8e	-0.44054073
9	0x3e32dcbf	0.1746702
10	0xbf337a97	-0.7010893
11	0x3ec3afb6	0.38219994
12	0x3df2e914	0.118608624
13	0x3c2d6661	0.010583491
14	0x3e329c62	0.17442468
15	0xbeea1539	-0.45719317
16	0x3efebadd	0.4975194
17	0x3f1dca30	0.6163664
18	0x3f031d5c	0.51216674
19	0x3ebccafe	0.3687362
20	0xbe4b0448	-0.19825852
21	0xbf1d31fa	-0.61404383
22	0x3db7c197	0.08972471
23	0x3ddc60e8	0.10760671
24	0x3f310ee5	0.6916335
25	0xbe191cad	-0.14952345
26	0xbefa06c1	-0.48833278
27	0x3deb0ca0	0.114770174
28	0xbf21d685	-0.63217956
29	0x3ee94ff8	0.45568824
30	0x3ea2641e	0.31717008
31	0xbe838ca4	-0.25693238
32	0x3eb3d971	0.35126832
33	0xbec54f54	-0.38537085
34	0xbe1cb7df	-0.15304516
35	0x3d4be464	0.049778357
36	0xbf300900	-0.6876373
37	0xbcc10f9b	-0.023567012
38	0xbe7a13ce	-0.24421617
39	0xbec4de21	-0.3845072
40	0xbdc721df	-0.09723257
41	0x3f26095f	0.6485805
42	0xbf2570d3	-0.6462528
43	0xbd942b81	-0.0723486
44	0x3f31511b	0.6926438
45	0x3dcdbc5c	0.10045692
46	0xbe574a9e	-0.21024558
47	0x3dd3dc14	0.10344711
48	0xbf1eaef3	-0.619857
49	0xbe8f3b23	-0.27974805
50	0x3e8b3282	0.27186972
51	0x3f2d1fd5	0.67626697
52	0xbefafe40	-0.49022102
53	0x3eca9f6f	0.39574763
54	0x3e6cd1b9	0.23126878
55	0x3e16b355	0.14716847
56	0x3e7eb055	0.24871953
57	0xbe878a16	-0.2647254
58	0xbe9a986c	-0.30194414
59	0xbf348b2d	-0.70524865
60	0xbe184ef0	-0.14873862
61	0x3e9fd0c3	0.3121396
62	0xbdf90c2b	-0.12160524
63	0x39155d6d	0.00014244551

weight f4 [32, 2]
0	0xbf121d79	-0.5707622
1	0x3f21cc81	0.63202673
2	0x3ec213e1	0.3790579
3	0x3f288dc4	0.6584132
4	0xbe9b0ce7	-0.3028328
5	0xbda96501	-0.08271218
6	0x3e89f6ba	0.2694605
7	0x3e17d412	0.14826992
8	0xbef2e4c7	-0.47440168
9	0xbf278ac8	-0.6544614
10	0x3e69f823	0.22848563
11	0x3b863d91	0.0040966948
12	0xbe9d0975	-0.30671278
13	0xbea8f3c5	-0.3299848
14	0xbf038171	-0.51369387
15	0x3e3ce508	0.18446743
16	0xbe5aed6d	-0.21379633
17	0xbe64d078	-0.2234515
18	0xbe5bdf64	-0.21471936
19	0x3eb58f70	0.35460997
20	0xbf2b0ef4	-0.6681969
21	0xbe2d5fd5	-0.16931088
22	0x3f11a64e	0.56894386
23	0xbf0366ed	-0.5132893
24	0xbe400094	-0.1875022
25	0x3ed1d881	0.40985492
26	0x3e8b0976	0.27155656
27	0x3d96f809	0.07371528
28	0x3e573279	0.21015348
29	0x3ed5a6dc	0.41728866
30	0x3e2912f5	0.16511138
31	0xbd16a36d	-0.03677695
32	0xbeb7c9ca	-0.3589614
33	0xbe921d2b	-0.28537878
34	0x3ed74b4e	0.4204964
35	0xbf02b5a0	-0.5105839
36	0xbd94d308	-0.072668135
37	0x3f23200a	0.6372076
38	0x3eb20077	0.3476598
39	0xbcca3719	-0.024684476
40	0x3eb98ad8	0.36238742
41	0x3ed50f3e	0.4161319
42	0x3f1c2ecd	0.6100891
43	0x3edff68c	0.43742788
44	0x3ee1a250	0.44069147
45	0xbedb5958	-0.428416
46	0xbe32594c	-0.17416877
47	0xbcd54110	-0.026032
48	0xbdf53610	-0.11973202
49	0x3ed94453	0.4243494
50	0x3f154e47	0.58322567
51	0x3e86d21e	0.26332182
52	0x3e5ae7f2	0.21377543
53	0xbeb165be	-0.34647936
54	0x3f2b61e1	0.66946226
55	0x3d327b22	0.04357446
56	0x3f03dfab	0.51513165
57	0x3f3179e7	0.69326633
58	0xbe6986e9	-0.2280537
59	0x3eeaabc9	0.45834187
60	0xbec58091	-0.3857465
61	0x3d44fb24	0.04809107
62	0x3f2ebd0f	0.6825723
63	0x3f0382ad	0.5137127

bias f4 [32]
0	0xbee4f857	-0.44720718
1	0xbf172a89	-0.5904928
2	0xbd9524a6	-0.07282381
3	0xbed58862	-0.41705614
4	0x3e569453	0.20955019
5	0x3f0658fa	0.5247952
6	0x3f3d9590	0.7405634
7	0x3d3b4a4e	0.04572516
8	0xbe72fdaf	-0.23729585
9	0xbe64fa3f	-0.22361086
10	0xbe868059	-0.26269796
11	0xbed06098	-0.40698695
12	0x3ef839ca	0.4848159
13	0xbed00cdc	-0.4063481
14	0x3e47d051	0.1951306
15	0xbf0ac717	-0.54210037
16	0xbe642d4b	-0.22282903
17	0x3f002d43	0.50069064
18	0xbf2f786a	-0.6854311
19	0x3ed9c74a	0.42534858
20	0xbe25b3ed	-0.16181917
21	0x3ece8e8b	0.40343127
22	0xbe420662	-0.18947747
23	0xbd0a1072	-0.03370709
24	0x3ee182d5	0.4404513
25	0xbf283793	-0.657098
26	0xbe29314f	-0.16522716
27	0xbe33e271	-0.1756685
28	0x3f0fc300	0.5615692
29	0x3e13a4a6	0.14418277
30	0xbe325f9e	-0.17419288
31	0xbf17e625	-0.5933555

weight f4 [32, 32]
0	0xbd05a50b	-0.0326281
1	0x3e06062e	0.13088295
2	0x3e2be63e	0.16787049
3	0x3d85c0ff	0.06530952
4	0xbe0ab367	-0.13544999
5	0xbe153a72	-0.14573076
6	0xbe2c2913	-0.16812544
7	0x3deb5abf	0.11491918
8	0x39b8b953	0.00035233292
9	0xbc488248	-0.012238093
10	0xbe29bebf	-0.1657667
11	0xbd71d7dd	-0.059043754
12	0xbe6ae8d9	-0.22940387
13	0x3e25c7e0	0.16189528
14	0xbdfaaaa2	-0.12239577
15	0xbe369b55	-0.17832692
16	0xbe3113db	-0.1729273
17	0xbe23c87d	-0.15994449
18	0x3e44d63c	0.19222349
19	0xbcef0034	-0.029174902
20	0x3bfa5c0f	0.007640369
21	0x3deb5e17	0.114925556
22	0x3c842c68	0.016134456
23	0xbcbd333c	-0.02309572
24	0x3e63b68c	0.22237605
25	0x3e2ce3d1	0.1688378
26	0xbda95429	-0.082680054
27	0xbc7429e1	-0.014902563
28	0x3d748a8d	0.059702445
29	0xbd1b5dbd	-0.037931193
30	0x3d435cef	0.04769605
31	0xbdac9051	-0.08425964
32	0xbe067ef2	-0.13134363
33	0xbe246477	-0.1605395
34	0x3d6af55d	0.057362903
35	0xbd96967b	-0.073529206
36	0xbac30cc9	-0.001488113
37	0x3c95b633	0.018275356
38	0xbe2a8ca6	-0.16655216
39	0xbd3e0730	-0.046393573
40	0xbe5ddfe0	-0.21667433
41	0x3cd35ded	0.025801623
42	0x3dab668e	0.0836917
43	0xbe340cc7	-0.17582999
44	0x3d49aab5	0.049235065
45	0x3e48a062	0.19592431
46	0x3e5af340	0.21381855
47	0xbc520c40	-0.012820303
48	0xbda0a07a	-0.078431085
49	0xbd99bce8	-0.07506734
50	0xbe11ea68	-0.14249575
51	0x3cf41a9b	0.029797843
52	0x3d9b9beb	0.07598098
53	0xbe0a1df5	-0.1348799
54	0xbd211c2a	-0.0393335
55	0x3db5037d	0.08838556
56	0x3c038bed	0.008028966
57	0x3d6750e7	0.05647364
58	0xbde56452	-0.11200775
59	0x3c761b13	0.015021103
60	0xbd9a771e	-0.07542251
61	0x3c824017	0.015899701
62	0xbde42a1e	-0.11140846
63	0xbbff7459	-0.007795852
64	0x3cff3667	0.03115387
65	0x3dab6251	0.08368362
66	0x3dad4b9b	0.08461686
67	0x3dd23dce	0.102656946
68	0xbe0620c6	-0.1309844
69	0xbd315576	-0.043294393
70	0x3ca26c9d	0.019827181
71	0x3df45007	0.119293265
72	0x3df7cc8c	0.12099561
73	0xbe0ac989	-0.13553442
74	0x3e2925b2	0.16518286
75	0x3df9c71e	0.12196182
76	0xbe3e9228	-0.18610442
77	0xbe22cc1d	-0.15898176
78	0xbdd9cb2e	-0.106344566
79	0x3d82056b	0.0634869
80	0xbb9a0660	-0.004700467
81	0x3d5eeba2	0.054423936
82	0x3dd0bbf0	0.10192096
83	0xbcfbdaf3	-0.030744052
84	0xbe4046ff	-0.18777083
85	0x3e57d4b2	0.2107723
86	0xbe0a791e	-0.13522765
87	0xbe195545	-0.14973934
88	0xbd9963e5	-0.074897565
89	0xbe05692a	-0.13028398
90	0xbe01affd	-0.1266479
91	0xbc80af0a	-0.015708465
92	0xbd6306b1	-0.055426303
93	0xbe576433	-0.21034317
94	0xbc58cde2	-0.01323268
95	0x3de0f530	0.10984266
96	0xbd1748f9	-0.036934827
97	0x3d390615	0.045171816
98	0x3e297906	0.16550073
99	0x3d4633be	0.04838919
100	0x3c1662c2	0.009178819
101	0xbdcc9923	-0.09990146
102	0xbe4069fd	-0.18790431
103	0x3c0c7e08	0.00857497
104	0x3ddaae15	0.10677735
105	0xbd664de2	-0.05622662
106	0x3d08fb64	0.03344287
107	0x3c3a37ef	0.011365875
108	0xbd046b0b	-0.032328647
109	0xbe4612bd	-0.19343086
110	0x3db36daf	0.08761155
111	0xbd962f26	-0.073332116
112	0x3d798ed3	0.060927223
113	0xbc8e806c	-0.01739522
114	0xbd52093f	-0.05127835
115	0xbcc003f5	-0.023439387
116	0x3d76469d	0.060125936
117	0x3db5ea58	0.08882588
118	0xbdecaa30	-0.11555898
119	0x3c4f5711	0.012655036
120	0xbe0be877	-0.13662897
121	0x3e314521	0.17311527
122	0x3d0b4ef6	0.03401085
123	0x3d922498	0.07135886
124	0x3e66cbf8	0.22538745
125	0x3e3acd47	0.1824237
126	0x3d0c75fe	0.034292214
127	0xbb9f4d6e	-0.0048615253
128	0xbe0bfa4f	-0.13669704
129	0x3e693483	0.22773938
130	0x3d97e137	0.07416003
131	0x3e33e2ff	0.17567061
132	0xbddb31b0	-0.107028365
133	0x3c9bc307	0.019013895
134	0x3d658ab5	0.056040484
135	0x3e0723ae	0.13197204
136	0xbdde51a1	-0.10855413
137	0xbd8d8101	-0.06909371
138	0xbdbd39bc	-0.092395276
139	0x3e26c9d5	0.1628793
140	0xbe4d7ecf	-0.20067905
141	0x3e089134	0.1333664
142	0x3e4d09ad	0.20023222
143	0x3e1a884b	0.15091054
144	0x3d163a55	0.036676724
145	0x3b2e4066	0.0026588677
146	0x3e679646	0.22615919
147	0xbd28bba0	-0.04119456
148	0x3e1411c3	0.144599
149	0x3e5237cf	0.20529102
150	0x3e3dd501	0.18538286
151	0x3c79656d	0.015221936
152	0x3e35c9aa	0.1775271
153	0xbdd561bb	-0.10419031
154	0xbe06780a	-0.13131729
155	0x3d500b7f	0.050792214
156	0x3de85cb5	0.113458075
157	0xbd3ff7c5	-0.04686715
158	0xbadacf2f	-0.0016693826
159	0x3d8e5493	0.06949725
160	0x3c8d809b	0.017273238
161	0xbde53160	-0.11191058
162	0xbc2ad331	-0.0104263285
163	0x3e273aa0	0.16330957
164	0xbdcd6c00	-0.10030365
165	0x3da3f5b1	0.08005846
166	0xbe0b0db4	-0.13579446
167	0x3dbd7477	0.092507295
168	0x3d2cd629	0.042196427
169	0x3e0d9a4c	0.13828391
170	0x3d1e1cee	0.03860181
171	0x3df0ddba	0.11761041
172	0xbda30d28	-0.07961494
173	0x3e4ae442	0.19813636
174	0xbe3546a9	-0.17702736
175	0x3ccb30d7	0.024803562
176	0xbe1ea82e	-0.15493843
177	0x3dddeb21	0.10835863
178	0x3dbf6f44	0.09347394
179	0xbdeaa970	-0.11458099
180	0x3be1cca3	0.0068908497
181	0xbde15c41	-0.11003924
182	0xbdde0252	-0.10840286
183	0xbe1e5875	-0.15463431
184	0x3daa2ab1	0.08308924
185	0x3d40851f	0.047001954
186	0x3e625fe8	0.22106898
187	0x3decc1df	0.115604155
188	0x3d4669a7	0.0484406
189	0xbde335d0	-0.11094248
190	0x3e1a35e3	0.15059619
191	0xbe296bb4	-0.16544992
192	0xbe3df08a	-0.1854879
193	0x3d72f543	0.05931593
194	0x3e28a9f0	0.16471076
195	0x3cfc65ae	0.030810203
196	0x3dc6347c	0.09677979
197	0xbd30f784	-0.0432048
198	0xbdd5636a	-0.10419352
199	0x3d4b6bee	0.049663477
200	0xbd080265	-0.03320541
201	0xbc012a7b	-0.007883663
202	0xbe2a67fe	-0.16641232
203	0xbc67b241	-0.01414162
204	0x3e0d1de7	0.13780938
205	0x3ddbc60b	0.10731133
206	0x3cca07fb	0.024662009
207	0x3da8a171	0.082339175
208	0xbd719a64	-0.05898513
209	0x3dc69fcd	0.09698448
210	0x3e400ad4	0.1875413
211	0x3e03bc47	0.12864791
212	0x3e156de1	0.14592697
213	0xbe1667ab	-0.14687984
214	0xbcd5bad4	-0.026090063
215	0xbcca91d0	-0.024727732
216	0xbd867ca3	-0.06566741
217	0x3e1624fe	0.14662549
218	0x3da5943d	0.08084915
219	0x3d6daaa4	0.058024064
220	0x3cc1ae0c	0.023642562
221	0xbe370779	-0.17873944
222	0x3ddf8ffb	0.10916134
223	0xbe409d95	-0.18810113
224	0x3cafee3e	0.021475907
225	0x3de6a53a	0.11261983
226	0x3c825cac	0.01591333
227	0x3d2c6dab	0.042096775
228	0xbe2b58eb	-0.16733138
229	0x3dd65cc9	0.10466916
230	0x3dc9c58c	0.09852132
231	0x3e521014	0.20513946
232	0x3dcaec00	0.09908295
233	0xbce4200d	-0.027847314
234	0xbd5d3dff	-0.054014202
235	0xbd9c8557	-0.0764262
236	0xbd98fd9f	-0.074702494
237	0x3d6ec55c	0.058293685
238	0xbde5755f	-0.112040274
239	0x3bf7ebcf	0.0075659524
240	0xbe08f54d	-0.13374825
241	0xbc65f108	-0.014034517
242	0x3d8964af	0.06708657
243	0xbe1cb397	-0.15302883
244	0xbd18fcbe	-0.03735041
245	0xbdb48fab	-0.08816465
246	0xbd9f6ce4	-0.07784441
247	0x3d87d80d	0.06633005
248	0x3e0a22d4	0.13489848
249	0x3c81061b	0.015749982
250	0xbc92897b	-0.017887821
251	0xbd9fd815	-0.07804886
252	0xbdbb77ba	-0.091536954
253	0x3cad0a4a	0.02112307
254	0x3c848fbc	0.01618182
255	0x3cc997ed	0.024608577

weight f4 [32, 32]
0	0x3d9842b8	0.074346006
1	0xbcf280df	-0.029602466
2	0xbdcd1a4b	-0.100147806
3	0x3e372093	0.1788352
4	0x3dc49a27	0.09599715
5	0xbe079e6a	-0.13244024
6	0xbd8b18f5	-0.067918696
7	0x3d26fd3b	0.040768843
8	0xbe01c06b	-0.12671058
9	0x3e026fdc	0.12737983
10	0x3cb44df0	0.02200982
11	0x3d8af830	0.06785619
12	0x3d8685c8	0.065684855
13	0xbdb05d5b	-0.08611556
14	0xbd587434	-0.052845195
15	0xbe2265d0	-0.15859151
16	0x3e0ee8ef	0.13956045
17	0xbe0967bb	-0.13418476
18	0xbdf342f5	-0.118780054
19	0x3d629684	0.055319324
20	0xbdfa28f0	-0.122148395
21	0x3e1deeae	0.1542308
22	0x3d1f04e2	0.038823016
23	0x3d53fc40	0.051754236
24	0xbe046b5c	-0.1293158
25	0x3deb8045	0.11499075
26	0x3e0afc9c	0.13572925
27	0xbdc4eb05	-0.09615139
28	0x3d1b5c30	0.037929714
29	0xbdc992af	-0.09842431
30	0xbb04f1de	-0.0020285766
31	0xbccd2290	-0.025040895
32	0xbdfeec5b	-0.12447425
33	0xbdd3aa1d	-0.10335181
34	0xbdece189	-0.11566455
35	0x3d3e60dd	0.046479095
36	0x3d8367cf	0.06416284
37	0xbce1f69b	-0.027583411
38	0xbc8a33d1	-0.016870411
39	0x3d507450	0.050892174
40	0x3c657580	0.014005065
41	0x3c8f6c81	0.017507793
42	0xbe016cd7	-0.12639175
43	0xbbc0bda4	-0.005881982
44	0xbe2c19bb	-0.1680669
45	0x3d604659	0.05475459
46	0x3d564e6c	0.052320883
47	0x3dd3dda9	0.10345013
48	0x3cf9f890	0.030514032
49	0xbe3614ef	-0.17781423
50	0xbdf8dc47	-0.121513896
51	0x3e168301	0.14698412
52	0xbe3c33b0	-0.18379092
53	0x3dd8f656	0.1059386
54	0xbcc29846	-0.02375425
55	0xbe087988	-0.1332761
56	0xbe35a1fd	-0.17737575
57	0xbdfc84ff	-0.123300545
58	0x3c761eb6	0.0150219705
59	0x3d87e7de	0.06636022
60	0x3da33e6b	0.0797089
61	0x3d8b8c5e	0.06813882
62	0x3d4f0e92	0.050551005
63	0xbca84523	-0.02054078
64	0x3e1ff92c	0.15622395
65	0x3e35ae3c	0.17742246
66	0xbe061b68	-0.13096392
67	0x3e1b9aa7	0.15195714
68	0xbdd670d3	-0.10470738
69	0x3cdfaee9	0.027305083
70	0x3df80fa1	0.12112356
71	0x3df2183b	0.11821028
72	0xbd38e30c	-0.045138404
73	0x3d0d5f08	0.034514457
74	0x3ca3e9d6	0.020008963
75	0x3e0b19e7	0.135841
76	0x3da9b893	0.08287158
77	0xbe2308cd	-0.15921326
78	0x3d68d07a	0.056839444
79	0xbe2434e8	-0.16035807
80	0xbdc00d9a	-0.09377594
81	0xbe353ab0	-0.17698169
82	0xbde6826e	-0.11255346
83	0x3d299604	0.04140283
84	0xbdd93824	-0.10606411
85	0xbe3cd21d	-0.18439527
86	0x3e3c86ad	0.1841075
87	0x3d852b64	0.06502417
88	0x3cd2cb3f	0.02573168
89	0x3d661598	0.056172937
90	0xbd870c12	-0.06594099
91	0x3e377c2e	0.17918465
92	0x3d88cb0e	0.066793546
93	0xbd417944	-0.04723479
94	0xbe13548b	-0.1438772
95	0x3e399a26	0.18125209
96	0xbe38e1b9	-0.18054856
97	0xbe0ead2d	-0.13933249
98	0xbe2e48ca	-0.17019954
99	0xbd95c6e1	-0.07313324
100	0x3e11cc60	0.14238119
101	0xbddfe20e	-0.109317884
102	0x3e09bbe2	0.13450578
103	0xbe237cbc	-0.15965551
104	0xbe1955d2	-0.14974144
105	0xbe0d3da6	-0.13793048
106	0x3e2d02b5	0.16895564
107	0xbda3fd6d	-0.080073215
108	0x3dd69ea0	0.10479474
109	0x3d9a782a	0.07542451
110	0xbd402dbe	-0.046918623
111	0x3e2b867d	0.16750522
112	0x3d4f736a	0.050647177
113	0x3dd64c9b	0.1046383
114	0xbd8df292	-0.06931032
115	0xbdebafcb	-0.11508139
116	0x3e18ddef	0.14928411
117	0xbe16f65d	-0.14742418
118	0x3e1e3e74	0.15453511
119	0x3d1ce2cf	0.03830224
120	0x3d04c929	0.032418404
121	0xbdbf2345	-0.09332899
122	0xbd64d0f6	-0.055863343
123	0x3d95d28a	0.07315548
124	0x3dfb0213	0.12256255
125	0x3dea410f	0.1143819
126	0x3e4b98bd	0.19882484
127	0x3db74962	0.089495435
128	0xbd8ae6d2	-0.06782307
129	0xbe13a899	-0.14419784
130	0x3e1e2ddf	0.15447186
131	0xbe14ed0f	-0.14543556
132	0xbd1499b5	-0.0362794
133	0xbccbd33e	-0.024881002
134	0x3e03bc9b	0.12864916
135	0x3e1a31a9	0.15058006
136	0x3d9ddda9	0.07708294
137	0xbd04cab3	-0.03241987
138	0xbd4ad414	-0.04951866
139	0xbe25fc00	-0.16209412
140	0x3e08416f	0.13306211
141	0xbcfefef3	-0.031127429
142	0xbdd2b0e7	-0.10287648
143	0xbe0d500a	-0.13800064
144	0x3e022e2e	0.12712929
145	0xbe1b3607	-0.15157329
146	0xbd1de323	-0.038546693
147	0x3d6077d4	0.054801777
148	0x3c579f85	0.013160591
149	0x3c21ffa3	0.009887609
150	0xbe1e1869	-0.15438999
151	0x3dea2403	0.1143265
152	0x3dcff254	0.10153642
153	0xbe262c5b	-0.16227858
154	0xbd78cc02	-0.060741432
155	0x3df592ad	0.11990867
156	0x3c883cc9	0.016630547
157	0xbe0353c9	-0.1282493
158	0xbd347f88	-0.044066936
159	0x3e41b7be	0.18917748
160	0x3dbd00c6	0.09228663
161	0x3dadde8f	0.08489715
162	0xbe37fdef	-0.17967962
163	0xbd4d8ebb	-0.050184947
164	0x3c107774	0.008817542
165	0xbda8ee75	-0.08248607
166	0x3dd1849b	0.102303706
167	0x3d4ab336	0.049487315
168	0x3dc5ae51	0.09652389
169	0x3dcd8eb4	0.10036984
170	0x3d272bf3	0.040813398
171	0x3d653bad	0.055965114
172	0xbd1e7274	-0.03868337
173	0x3dcf2fea	0.10116561
174	0x3e0b047c	0.1357593
175	0xbde61132	-0.112337485
176	0xbd56273f	-0.05228352
177	0x3c2274ff	0.009915589
178	0xbc85cbc7	-0.01633252
179	0xbd8c14e0	-0.06839919
180	0x3e2a0dee	0.16606876
181	0x3e3ce020	0.18444872
182	0xbe12e50a	-0.14345184
183	0x3e16015a	0.14648953
184	0x3d8b7991	0.06810296
185	0x3d8828ce	0.06648408
186	0xbccafc53	-0.02477852
187	0xbc1c48eb	-0.009538869
188	0xbd9a9a4d	-0.07548962
189	0x3dee6544	0.11640409
190	0xbdb10087	-0.08642679
191	0x3c1b921a	0.009495283
192	0x3d8cacf2	0.06868924
193	0x3d656bd7	0.056011047
194	0xbe13ea48	-0.1444484
195	0xbd55517e	-0.05207967
196	0x3e16ba8a	0.14719597
197	0x3de98331	0.11401976
198	0xbd45e244	-0.048311487
199	0xbdbfe950	-0.09370673
200	0xbe0e1869	-0.13876499
201	0xbd32cc04	-0.043651596
202	0xbe2e2144	-0.17004877
203	0xbdaf64c3	-0.08564141
204	0x3d893197	0.06698912
205	0xbd1f0452	-0.03882248
206	0xbdb80ed6	-0.08987205
207	0x3e100058	0.14062631
208	0xbe1ae53d	-0.1512651
209	0xbdbd11a1	-0.09231878
210	0x3cd73ea5	0.026274988
211	0x3d916915	0.07100121
212	0xbd9b556d	-0.07584653
213	0xbe163d0a	-0.14671722
214	0xbd854628	-0.06507522
215	0xbe270757	-0.16311394
216	0x3e2b46c9	0.16726221
217	0x3df7df71	0.12103165
218	0x3e02d1b5	0.1277531
219	0xbe055d04	-0.13023764
220	0xbe117ae2	-0.14207032
221	0x3d5438a2	0.05181182
222	0x3d3305b1	0.0437066
223	0x3d3eb97d	0.046563614
224	0xba3f6083	-0.0007300453
225	0x3c8b3c1b	0.016996434
226	0x3d9aee6e	0.07565008
227	0x3c8a25e2	0.016863767
228	0x3db52079	0.08844084
229	0x3e1503ff	0.14552306
230	0xbddbf12f	-0.107393615
231	0x3dbd0c6b	0.09230884
232	0xbe1dab92	-0.1539748
233	0x3e379021	0.17926075
234	0x3e347186	0.17621431
235	0xbe0ff050	-0.14056516
236	0xbdc0f300	-0.094213486
237	0xbe280969	-0.1640984
238	0x3d8f080e	0.06983958
239	0x3e28ddff	0.16490935
240	0xbd92717d	-0.071505524
241	0x3df0e455	0.11762301
242	0xbd850a7b	-0.064961396
243	0xbd5ddff8	-0.05416867
244	0x3d9f049f	0.07764553
245	0xbd6b1af7	-0.057398763
246	0x3cf3bce9	0.029753165
247	0xbd1f115a	-0.038834907
248	0x3c40fb56	0.011778673
249	0x3c36ff14	0.011169214
250	0x3d4ddf8e	0.050262026
251	0xbaf84440	-0.0018941239
252	0xbcb716af	-0.022349684
253	0xbca5c93e	-0.020237561
254	0x3d347f44	0.044066682
255	0x3cdf0bf5	0.027227381

bias f4 [32]
0	0x3d6889ed	0.05677216
1	0xbdf155f1	-0.1178397
2	0xbd1501d4	-0.036378697
3	0x3e094142	0.134038
4	0x3d1cbf02	0.038268097
5	0x3df27de7	0.1184042
6	0xbe0899aa	-0.13339868
7	0x3da470f6	0.08029358
8	0xbc19068d	-0.009339941
9	0xbe148990	-0.14505601
10	0x3e17f4d6	0.14839491
11	0x3c06ed0c	0.008235227
12	0xbd4e767a	-0.050405957
13	0xbd842ce9	-0.064538784
14	0x3d9a1e12	0.07525267
15	0x3e007e1c	0.12548107
16	0xbe198443	-0.1499186
17	0x3daa608b	0.08319195
18	0xbe15165d	-0.14559312
19	0xbde36d58	-0.1110484
20	0xbe30b3bd	-0.17256065
21	0x3e0583db	0.1303858
22	0xbb8f4358	-0.0043720417
23	0xbdca2810	-0.098709226
24	0xbe097e31	-0.13427044
25	0xbd579f43	-0.05264212
26	0x3dc0bd60	0.094111204
27	0xbd45ff61	-0.04833925
28	0xbd858404	-0.065193206
29	0xbe089c0c	-0.13340777
30	0xbdb62aab	-0.08894857
31	0xbdf38828	-0.11891204

weight f4 [32, 2]
0	0xbef42a1e	-0.47688383
1	0xbd92e0e3	-0.071718
2	0x3dcec9ff	0.100971214
3	0xbf07f771	-0.5311194
4	0xbe78aed9	-0.24285449
5	0xbe4ee98a	-0.20206276
6	0x3e64f0b1	0.22357441
7	0x3e9b4532	0.3032623
8	0xbe3e8927	-0.18607007
9	0xbe47805a	-0.19482556
10	0x3e8ba921	0.27277473
11	0xbeafd745	-0.34343925
12	0x3f2d09c1	0.6759301
13	0x3f19acab	0.60029095
14	0x3e75335b	0.23945372
15	0xbf158a66	-0.58414304
16	0x3c9752c7	0.018472089
17	0xbe7beab1	-0.24601246
18	0xbf176e15	-0.59152347
19	0x3f2cf725	0.6756461
20	0xbed00bcc	-0.40634
21	0x3f0b54be	0.5442618
22	0x3e8e56a4	0.27800477
23	0x3d880cc2	0.06643058
24	0x3e920ab6	0.28523797
25	0x3eaef40c	0.34170568
26	0xbe4a48d7	-0.19754349
27	0x3f199112	0.59986985
28	0xbe011a60	-0.12607718
29	0x3e87e0b3	0.2653862
30	0xbcbd0e4b	-0.023078104
31	0x3eb526a9	0.35381058
32	0xbe3653df	-0.17805432
33	0xbe0e7e2f	-0.13915323
34	0x3e067467	0.13130341
35	0xbc432232	-0.011910008
36	0x3efccddf	0.49375817
37	0x3e9bc7a6	0.30425757
38	0x3d2578df	0.040398475
39	0x3f0a9e0b	0.54147404
40	0x3e8ed7f1	0.27899125
41	0x3d9cadae	0.07650314
42	0xbe327ce2	-0.17430452
43	0xbea4ca1c	-0.32185447
44	0x3e2f74f4	0.17134458
45	0xbe938063	-0.2880889
46	0x3dd66144	0.10467771
47	0x3e079b17	0.13242756
48	0x3e507692	0.20357731
49	0xbdda7c68	-0.1066826
50	0xbec4e1d3	-0.3845354
51	0xbdf9753d	-0.121805646
52	0x3e4dc318	0.20093954
53	0xbcc60e12	-0.024176631
54	0xbeac970c	-0.3370899
55	0x3e57c9b5	0.21073039
56	0x3e2ba755	0.16763051
57	0x3f10ce39	0.5656467
58	0xbf0b8c2f	-0.5451078
59	0x3e69ab6a	0.22819296
60	0xbd201f99	-0.039092634
61	0xbf2e8045	-0.68164474
62	0x3f24f2fe	0.64433277
63	0x3edc31cd	0.43006745

weight f4 [32, 32]
0	0xbc8d934c	-0.01728215
1	0x3d90331f	0.070410006
2	0x3d5e4f3a	0.054274775
3	0xbe3232bd	-0.17402168
4	0x3db90fa4	0.09036186
5	0xbdc53f50	-0.096312165
6	0x3e1fef89	0.15618719
7	0x3d8ea124	0.06964329
8	0x3e06d246	0.1316615
9	0xbdd385b2	-0.10328235
10	0x3d62bef5	0.055357892
11	0x3d52f20c	0.051500365
12	0x3c9ce71c	0.01915317
13	0x3d740863	0.05957831
14	0x3b23bd19	0.0024984537
15	0xbdf7f852	-0.1210791
16	0x3e2bf919	0.16794242
17	0x3c32cec0	0.010913551
18	0xbe13a1eb	-0.14417236
19	0xbb6240c5	-0.003452347
20	0x3c0d2e43	0.008616987
21	0xbd4c3df2	-0.049863763
22	0xbdc59c7f	-0.0964899
23	0xbe0f99d2	-0.14023522
24	0x3e25bbb0	0.16184878
25	0xbdcbaf21	-0.099455126
26	0xbd0c919e	-0.03431856
27	0xbe30419c	-0.17212528
28	0x3de9c5dc	0.11414692
29	0x3e185591	0.14876391
30	0xbd2e1fe1	-0.04251087
31	0x3e0bd708	0.13656247
32	0xbcdbd87a	-0.026836623
33	0x3cd6ecb2	0.026235912
34	0x3dd7deb4	0.10540524
35	0xbd46705d	-0.048447
36	0xbdcaf1bc	-0.099093884
37	0xbe3f3c96	-0.18675455
38	0xbc367eeb	-0.011138658
39	0xbe00ab21	-0.1256528
40	0x3d6a88b1	0.057259265
41	0x3ce763eb	0.028245887
42	0xbd85b6c0	-0.065289974
43	0xbe4e08f0	-0.20120597
44	0x3da11b1e	0.078665
45	0xbe0c92b0	-0.13727832
46	0xbcf804b8	-0.030275688
47	0xbd74e21a	-0.05978594
48	0x3e26dad2	0.16294411
49	0x3e3b2d27	0.18278943
50	0xbd2ae2ec	-0.041720316
51	0x3df41be1	0.1191938
52	0x3e1396d1	0.14413
53	0xbd13c591	-0.036077086
54	0x3de011c4	0.109408885
55	0x3df5a482	0.11994268
56	0x3bf66b34	0.007520104
57	0x3de3cc13	0.111229084
58	0xbe041d93	-0.12901907
59	0xbd6e5786	-0.058188938
60	0x3ccd55a5	0.025065253
61	0x3d96253c	0.07331321
62	0xbcaea3a4	-0.021318264
63	0x3b9216c7	0.0044582817
64	0xbd2198d0	-0.039452374
65	0xbd9d5cef	-0.07683741
66	0xbd852fd9	-0.06503267
67	0xbe22f95f	-0.1591544
68	0x3de6887a	0.112564996
69	0x3db46d37	0.088098936
70	0xbe0f58fd	-0.1399879
71	0xbd2a3637	-0.04155561
72	0xbdc1c582	-0.094615
73	0xbda2a44d	-0.07941494
74	0xbdbfb75d	-0.09361146
75	0xbd891cdf	-0.0669496
76	0xbe1f259f	-0.15541695
77	0x3d819fcf	0.06329309
78	0xbe2241a4	-0.15845352
79	0xbc839fe8	-0.01606746
80	0xbd960231	-0.07324637
81	0xbd27ff2b	-0.04101483
82	0xbe165ef9	-0.14684667
83	0x3cfe2b9f	0.03102666
84	0x3e077125	0.13226755
85	0xbd5af0f5	-0.05345245
86	0x3d1647f9	0.036689732
87	0x3dc96b2f	0.09834897
88	0xbdf964b7	-0.12177413
89	0xbc73ce9e	-0.014880804
90	0xbe308a7a	-0.17240325
91	0x3de7929c	0.113072604
92	0x3da4da7b	0.08049484
93	0x3e228744	0.15871912
94	0x3e1b9bbe	0.1519613
95	0xbdce8801	-0.100845344
96	0xbdc472d2	-0.09592213
97	0x3cf84ae1	0.030309143
98	0x3e3167de	0.17324778
99	0xbe078135	-0.13232882
100	0xbd87e58e	-0.06635581
101	0xbdd49bc2	-0.10381271
102	0x3b970b89	0.0046095294
103	0x3b9d16f8	0.004793998
104	0x3e009db4	0.12560159
105	0xbe1fd85d	-0.1560988
106	0x3d6662bf	0.056246515
107	0x3df22e03	0.11825182
108	0xbd99b763	-0.07505681
109	0xbdb649f6	-0.08900826
110	0xbe07163d	-0.13192077
111	0xbd9537b2	-0.07286014
112	0xbdb4c5f4	-0.08826819
113	0x3dfa6329	0.122259445
114	0xbe1ba2f6	-0.15198883
115	0xbd549526	-0.05190005
116	0xbe567c41	-0.20945837
117	0x3bcbeea1	0.006223515
118	0xbe31eabb	-0.17374699
119	0x3d994729	0.07484276
120	0xbd0a337c	-0.033740506
121	0xbe1b9b86	-0.15196046
122	0x3e04ba50	0.12961698
123	0xbda30703	-0.07960322
124	0xbe040d61	-0.12895729
125	0x3d6c9593	0.057759833
126	0xbded0419	-0.11573047
127	0xbc1a26b7	-0.009408644
128	0xbd8b3c66	-0.067986295
129	0xbbf05377	-0.0073341685
130	0xbc189e18	-0.009315036
131	0x3e06dd26	0.13170299
132	0xbc651736	-0.013982585
133	0x3e2f7e47	0.17138015
134	0xbcf8383a	-0.030300248
135	0x3e1e21ba	0.15442553
136	0x3d895b37	0.06706851
137	0x3e23cc5b	0.15995924
138	0xbbe4959d	-0.006975843
139	0x3d3ea0c8	0.04654005
140	0x3e34de80	0.17663002
141	0x3d147691	0.036245886
142	0xbe2727ea	-0.1632382
143	0xbdd3fb9a	-0.103507236
144	0x3e183c53	0.14866762
145	0x3e044d3a	0.12920085
146	0x3c89784b	0.016780993
147	0x3e216dc7	0.15764533
148	0x3de3c196	0.11120908
149	0xbce254e2	-0.027628366
150	0x3d812d1f	0.06307434
151	0xbddf5ce9	-0.10906393
152	0x3d112036	0.03543111
153	0x3e33f8ec	0.17575425
154	0x3d5f0adb	0.054453712
155	0x3e0e59c7	0.13901435
156	0xbe1252ea	-0.14289442
157	0x3d7af816	0.06127175
158	0x3e2409a5	0.16019304
159	0x3d741c62	0.05959738
160	0xbe168948	-0.14700806
161	0x3e1eb5e4	0.15499073
162	0x3e10f053	0.14154176
163	0xbe3e4c10	-0.18583703
164	0x3c5278e0	0.012846202
165	0x3dd9df7f	0.106383316
166	0x3a0f2192	0.00054600195
167	0x3e0f4af3	0.13993435
168	0xbdec3773	-0.115340136
169	0x3aa80540	0.0012818947
170	0x3e2f8792	0.1714156
171	0xbe25504e	-0.16143915
172	0xbd23ae7d	-0.039961327
173	0xbddd7cad	-0.10814796
174	0x3cf06665	0.0293457
175	0xbdd0114c	-0.10159549
176	0x3e18a86b	0.14907996
177	0xbe15f9e4	-0.14646107
178	0xbdc550c5	-0.09634546
179	0xbdcd2508	-0.10016829
180	0x3d46ace4	0.048504725
181	0x3b80acbf	0.003926843
182	0xbdd7b365	-0.10532264
183	0x3d5ca0a8	0.05386415
184	0xbdd67164	-0.10470846
185	0x3ca262b4	0.019822456
186	0x3d6fc84d	0.05854063
187	0xbd18ef90	-0.03733784
188	0xbd99ac5b	-0.07503577
189	0xbd9c6850	-0.076370835
190	0x3cde0538	0.027102098
191	0xb96c4782	-0.00022533353
192	0x3d51ee09	0.0512524
193	0xbe09ffec	-0.13476533
194	0x3d20c75c	0.039252624
195	0xbe3c3632	-0.18380049
196	0x3d4e0c90	0.05030495
197	0x3d54db6d	0.051967073
198	0xbd849dee	-0.06475435
199	0x3e03594e	0.12827036
200	0x3dbe0dc1	0.09279967
201	0xbda1525c	-0.07877037
202	0xbca906eb	-0.020633182
203	0xbe03f027	-0.1288458
204	0x3abb9a8f	0.001431303
205	0xbe31fa89	-0.17380728
206	0xbd19ad61	-0.037518863
207	0x3d72ec75	0.059307534
208	0x3e06b94f	0.13156627
209	0x3d8aefe0	0.06784034
210	0x3dfeecae	0.12447487
211	0xbd4536f9	-0.04814813
212	0xbe451dd8	-0.19249666
213	0x3e5c9018	0.21539342
214	0x3e2dacec	0.16960496
215	0xbdd198fe	-0.10234259
216	0xbe4f3ba7	-0.202376
217	0xbd0c6d33	-0.034283828
218	0xbd333666	-0.04375305
219	0xbb8f490c	-0.0043727215
220	0xbdc66e3c	-0.09688994
221	0xbe250ad7	-0.16117416
222	0x3deedf02	0.11663629
223	0xbe0efdfc	-0.13964075
224	0xbe0b67e5	-0.13613851
225	0xbdca4871	-0.09877098
226	0xbc9e853c	-0.01935064
227	0xbdf87d41	-0.12133265
228	0x3da4c7dd	0.080459334
229	0x3dc88552	0.09791054
230	0x3c92d569	0.017924028
231	0x3debc4f0	0.11512172
232	0x3c540dc8	0.012942739
233	0xbd87a2f9	-0.066228814
234	0x3e145d2c	0.14488667
235	0x3c964fee	0.01834866
236	0xbe4d4f2a	-0.2004973
237	0xbe50a8b9	-0.20376863
238	0xbd2561a7	-0.04037633
239	0xbdae631c	-0.08514997
240	0x3d8d0773	0.068861865
241	0x3e33d554	0.17561847
242	0xbc686c02	-0.014185907
243	0xbdeecb39	-0.116598554
244	0xbe30fd77	-0.17284189
245	0x3d76b4ee	0.06023114
246	0xbe0a4673	-0.13503437
247	0x3de6c15e	0.112673506
248	0x3db827d6	0.08991973
249	0xbc9390df	-0.018013416
250	0x3dc60b6e	0.09670149
251	0x3e11e9b5	0.14249308
252	0xbcc256c9	-0.023723023
253	0xbe297186	-0.16547212
254	0xbdbc47e1	-0.09193397
255	0x3e06cf47	0.13165008

bias f4 [32]
0	0x3e371138	0.17877662
1	0xbdfa473d	-0.12220619
2	0xbd554ef1	-0.052077238
3	0x3e260dba	0.16216174
4	0xbd4f810d	-0.05066018
5	0xbd2ac7f6	-0.041694604
6	0xbe1bd79d	-0.15218969
7	0xbdfde77e	-0.12397669
8	0x3dd17d94	0.1022903
9	0x3de7c783	0.11317351
10	0xbd27ca67	-0.04096451
11	0xba438d2b	-0.00074596953
12	0x3d04e179	0.03244159
13	0xbe13ccf6	-0.14433655
14	0xbe03c402	-0.1286774
15	0xbcef099b	-0.029179385
16	0x3cca8bb1	0.024724813
17	0x3e1f28b1	0.15542866
18	0x3e19289e	0.149569
19	0xbda931e2	-0.082614675
20	0xbd827e00	-0.06371689
21	0x3e1f1cf8	0.15538394
22	0xbe050d2b	-0.12993304
23	0xbda2480d	-0.07923899
24	0x3c37ba9e	0.011213927
25	0x3dcb2a94	0.099202305
26	0xbdb67f30	-0.08910978
27	0xbe1c82de	-0.15284297
28	0xbdce5d24	-0.10076359
29	0xbcb07d79	-0.021544205
30	0xbe022142	-0.12708
31	0x3be6ecef	0.0070472877

weight f4 [32, 2]
0	0x3d8d18d1	0.06889499
1	0xbf06026d	-0.5234745
2	0xbf060280	-0.52347565
3	0x3e4ba501	0.19887163
4	0xbf1afc9f	-0.6054172
5	0x3ea54bd2	0.3228441
6	0x3d844111	0.06457723
7	0xbed29636	-0.41130227
8	0xbf2bd2a6	-0.671183
9	0x3e836de1	0.25669768
10	0xbd4c8132	-0.049927898
11	0x3ec0b286	0.37636203
12	0x3e748d28	0.23881972
13	0x3e021d34	0.12706453
14	0x3ea84a12	0.3286901
15	0xbe7cf6fb	-0.2470359
16	0x3f01a665	0.5064452
17	0xbc98ccfb	-0.01865243
18	0x3eae2184	0.34009945
19	0xbdca559a	-0.098796085
20	0xbe059144	-0.13043696
21	0xbcfb42a6	-0.030671429
22	0x3ee5ce53	0.44883975
23	0x3edf8b7d	0.4366111
24	0x3eff5772	0.49871403
25	0xbdbab1b7	-0.09115928
26	0xbe433880	-0.19064522
27	0xbf18dc7d	-0.5971144
28	0x3e6f82fb	0.23389809
29	0xbe874d3e	-0.2642612
30	0xbe31a3b5	-0.17347606
31	0xbe30bab2	-0.17258719
32	0xbf265077	-0.6496653
33	0xbeaa6d6c	-0.33286607
34	0x3f1581d4	0.58401227
35	0xbedce2cd	-0.43141785
36	0x3ed52aa0	0.41634083
37	0x3e2349b1	0.1594608
38	0x3e9062b0	0.28200293
39	0x3d270309	0.04077438
40	0x3e8de42b	0.2771314
41	0xbf118c40	-0.5685463
42	0xbf2840d3	-0.65723914
43	0x3f277caf	0.6542463
44	0xbdd541ea	-0.10412963
45	0x3f1bfca7	0.6093239
46	0x3d67a56d	0.056554247
47	0x3e68520f	0.22687553
48	0x3c041f15	0.008064051
49	0xbee61fdb	-0.4494618
50	0xbea275c8	-0.31730485
51	0x3e5c866e	0.21535656
52	0xbe881c1a	-0.2658394
53	0x3e855815	0.26043764
54	0xbe1448e1	-0.14480926
55	0x3e9bbc8a	0.3041728
56	0x3e526060	0.20544577
57	0x3ef639f3	0.48091087
58	0xbe7bd101	-0.24591447
59	0xbf29ae7a	-0.66281855
60	0x3ac6414c	0.0015125661
61	0xbee22f1c	-0.44176567
62	0xbf2a88c5	-0.66614944
63	0x3c9b6d9d	0.018973166

weight f4 [32, 2]
0	0xbe091c1e	-0.13389632
1	0xbe48d9c7	-0.19614325
2	0x3ec81f24	0.39086258
3	0x3d6eaf67	0.058272745
4	0xbf068116	-0.5254072
5	0xbd14e19c	-0.03634797
6	0xbe00184d	-0.1250927
7	0x3d087c58	0.03332171
8	0xbd8e6ffe	-0.069549546
9	0xbe922a92	-0.28548104
10	0xbe1c8994	-0.15286857
11	0x3e05f668	0.13082278
12	0xbe01a1f2	-0.12659433
13	0x3eb8d1b5	0.36097494
14	0x3e7c40bd	0.2463407
15	0x3f1f5d65	0.62251884
16	0xbf3144fc	-0.69245887
17	0x3e49c10b	0.19702546
18	0xbcc3aea2	-0.023886982
19	0x3eee48de	0.46539968
20	0x3f1c3f9c	0.6103456
21	0xbdef9093	-0.11697497
22	0x3f082f10	0.5319681
23	0xbe51d8e9	-0.20492901
24	0xbd75bd4d	-0.059994984
25	0xbf17286f	-0.5904607
26	0xbf330cf0	-0.69941616
27	0xbedbf42b	-0.42959723
28	0xbf122c0a	-0.5709845
29	0x3d084db3	0.033277225
30	0xbf1b7698	-0.60727835
31	0x3e3e65a0	0.18593454
32	0xbed82efd	-0.4222335
33	0xbf293887	-0.6610188
34	0xbe87ed01	-0.26548007
35	0x3f1c6212	0.61087143
36	0x3dc3edcf	0.09566843
37	0x3f2b5edc	0.6694162
38	0xbe269ff3	-0.16271953
39	0x3f232ddb	0.63741845
40	0xbeb3765c	-0.3505124
41	0x3ee53ec6	0.44774455
42	0xbe9d3071	-0.3070102
43	0xbea8a1c3	-0.32935914
44	0xbe18e010	-0.14929223
45	0xbe32e524	-0.17470223
46	0xbd54b85f	-0.051933642
47	0xbedfdf3c	-0.43725002
48	0x3e0c6e37	0.13713919
49	0xbd157864	-0.036491767
50	0x3b3857ea	0.0028128573
51	0x3e86805a	0.262698
52	0x3ed588cd	0.41705933
53	0xbdc2a19f	-0.09503483
54	0x3d3a5138	0.045487612
55	0x3ea2852f	0.31742236
56	0xbe12712d	-0.14300986
57	0x3f20f23a	0.6286961
58	0x3ec62553	0.3870035
59	0xbf0bf813	-0.54675406
60	0x3d2f6037	0.042816367
61	0x3f3128c1	0.6920281
62	0xbf1de6a8	-0.6168008
63	0x3e3d6eea	0.18499342

bias f4 [32]
0	0xbf045c2c	-0.51703143
1	0x3be8c33a	0.007103351
2	0xbe754290	-0.23951173
3	0xbde57e25	-0.11205701
4	0xbe517db8	-0.20458114
5	0x3ece7b49	0.40328434
6	0xbcf491ee	-0.029854741
7	0x3e54037e	0.20704457
8	0xbddddc76	-0.10833065
9	0x3e9e3712	0.3090139
10	0x3f1a6ff4	0.60327077
11	0xbdb2baa7	-0.08727007
12	0xbdf050e2	-0.11734177
13	0x3e4b07a2	0.1982713
14	0x3e28f540	0.16499805
15	0xbca6856f	-0.020327298
16	0xbf19333a	-0.5984379
17	0xbf209c0e	-0.6273812
18	0x3e99fac0	0.3007412
19	0xbf04cc1a	-0.51873934
20	0xbee4430a	-0.44582397
21	0x3dbc8ccb	0.09206542
22	0x3e8cc02a	0.2749036
23	0x3f2e2664	0.6802733
24	0x3f31acf8	0.69404554
25	0xbe7958ab	-0.2435023
26	0xbe8e4fbd	-0.2779521
27	0xbe4ef727	-0.20211469
28	0x3ef84a88	0.48494363
29	0xbea3fbed	-0.32028142
30	0xbd7f25d8	-0.06229195
31	0x3f2c7f08	0.67381334

weight f4 [32, 32]
0	0xbd0f1e54	-0.034941033
1	0x3e0ba204	0.13636023
2	0x3b72f65e	0.0037073116
3	0xbcbb2c53	-0.022848284
4	0xbcfbf4a3	-0.0307563
5	0xbd60b278	-0.0548577
6	0xbc454461	-0.012040229
7	0xbb813870	-0.0039434955
8	0xbcb20578	-0.021731123
9	0x3e01d1ac	0.1267764
10	0xbe034ebe	-0.12823007
11	0x3c7c376b	0.015394072
12	0x3d8a9696	0.06767003
13	0x3e18e618	0.14931524
14	0x3e369d9d	0.17833562
15	0xbdc0fe29	-0.09423477
16	0x3d53eda1	0.051740292
17	0x3d4e5fb4	0.05038424
18	0xbdcf376e	-0.10117994
19	0x3d91538e	0.07096015
20	0x3bf01132	0.0073262686
21	0xbd0c6025	-0.034271378
22	0x3e16a767	0.14712296
23	0x3dd5481d	0.10414145
24	0xbdae8189	-0.085208006
25	0xbdcd79d9	-0.10033006
26	0x3d2293f5	0.039691884
27	0xbd59e6c5	-0.053198595
28	0xbdba226a	-0.09088595
29	0x3e2265f6	0.15859208
30	0x3d02324a	0.03178624
31	0x3a584590	0.0008250112
32	0xbd6107e5	-0.05493917
33	0xbdd0293e	-0.10164116
34	0xbe43bf96	-0.19116053
35	0xbd37e287	-0.044893768
36	0x3d0e96a0	0.034811616
37	0x3dffef3b	0.124968015
38	0xbc0ab646	-0.008466309
39	0x3c7a6498	0.0152827725
40	0x3db2ae27	0.08724623
41	0xbe28d05e	-0.16485736
42	0xbc3ced79	-0.011531227
43	0x3e24b0b7	0.16083036
44	0x3d40a37d	0.047030915
45	0xbdf55eef	-0.11980998
46	0xbcb6598e	-0.0222595
47	0x3dbd9225	0.092563905
48	0x3e0ef7c2	0.139617
49	0x3e1b7c10	0.15184045
50	0xbdc5db3a	-0.09660955
51	0xbddbce98	-0.10732764
52	0x3dbc866f	0.09205329
53	0x3d8184bf	0.063241474
54	0xbd5f2585	-0.05447914
55	0xbdf8b3e3	-0.12143686
56	0x3e0942a6	0.1340433
57	0x3e3a3f2f	0.18188165
58	0x3df6e025	0.12054471
59	0xbd9262bb	-0.071477376
60	0x3d9594ef	0.073037975
61	0x3d6b35a4	0.057424203
62	0x3d4c14a8	0.049824387
63	0x3e1826f4	0.1485861
64	0xbaf2b35e	-0.001851659
65	0xbda66215	-0.081241764
66	0xbdf88871	-0.12135399
67	0x3cfca49c	0.03084021
68	0xbd91fe0a	-0.07128532
69	0x3c729f31	0.014808462
70	0x3dee5987	0.1163817
71	0xbd99e6e7	-0.07514744
72	0x3e244fad	0.16046019
73	0xbc06de82	-0.008231761
74	0xbdf786ff	-0.12086295
75	0x3d04f748	0.03246239
76	0xbdc21e75	-0.094784655
77	0x3c7494ff	0.014928102
78	0x3e1da993	0.15396719
79	0x3ddd5058	0.1080634
80	0xbe1ec79f	-0.15505837
81	0xbd23c0ad	-0.03997867
82	0xbd503bd5	-0.05083831
83	0x3d34c708	0.044135123
84	0x3de978d2	0.11399998
85	0xbc058991	-0.008150474
86	0x3d0ab316	0.033862196
87	0xbddf0778	-0.108900964
88	0xbdea23c1	-0.11432601
89	0xbe185d31	-0.148793
90	0x3dbd1403	0.092323326
91	0xbdf34695	-0.11878697
92	0xbcafa156	-0.021439236
93	0x3de21552	0.11039223
94	0x3d61f738	0.055167407
95	0xbe29d200	-0.16584015
96	0x3c0ef97c	0.008726474
97	0x3c88b798	0.016689107
98	0x3d9bd85b	0.07609626
99	0xbd131649	-0.035909925
100	0x3e24ca50	0.16092801
101	0xbe044c49	-0.12919725
102	0xba45cfc1	-0.00075459114
103	0x3d7274ac	0.0591933
104	0x3e176928	0.14786208
105	0x3d4c0a39	0.049814437
106	0xbc1cb05c	-0.009563532
107	0xbc98b73c	-0.01864206
108	0x3e23b37b	0.15986435
109	0x3d342300	0.04397869
110	0xbd5a9205	-0.05336191
111	0xbc438a57	-0.011934838
112	0x3d621401	0.05519486
113	0xbd95dfbe	-0.07318066
114	0x3dedaabd	0.11604831
115	0xbdba1d76	-0.090876505
116	0x3d46b199	0.048509214
117	0xbe040f0c	-0.12896365
118	0x3c53326d	0.01289044
119	0x3dc3b903	0.095567726
120	0xbe193ea7	-0.14965306
121	0xbda84ee7	-0.082181744
122	0xbdd82746	-0.10554366
123	0x3ddc75a8	0.10764629
124	0x3db72ea1	0.08944441
125	0xbd49d4e1	-0.049275283
126	0x3e28b217	0.16474186
127	0x3d14e6ce	0.036352925
128	0x3e0bea77	0.1366366
129	0x3e32c90a	0.17459503
130	0xbce732df	-0.0282225
131	0xbdeafb7f	-0.1147375
132	0xbdb715ce	-0.08939706
133	0x3e02c266	0.1276947
134	0xbd83685d	-0.0641639
135	0xbd6ee3de	-0.05832278
136	0xbdfb2bc8	-0.1226421
137	0x3ba41d68	0.0050083883
138	0x3e06bcab	0.13157909
139	0xbdb171d3	-0.08664288
140	0xbe228310	-0.15870309
141	0xbe023462	-0.12715295
142	0x3e21f966	0.15817794
143	0x3dc5719f	0.09640812
144	0xbd8862a8	-0.06659442
145	0xbcfa6aa0	-0.03056842
146	0xbd8017bb	-0.06254526
147	0xbdab9a00	-0.083789825
148	0xbe2df9c1	-0.16989805
149	0x3d5e47af	0.05426758
150	0x3cc7e84c	0.02440276
151	0xbe0d5518	-0.13801992
152	0xbdb67b0b	-0.08910187
153	0x3d84c083	0.06482031
154	0xbe192e96	-0.14959177
155	0x3d18ed8a	0.03733591
156	0xbdd52512	-0.10407461
157	0x3d4ddc2e	0.050258808
158	0xbe016bc9	-0.12638773
159	0x3e274843	0.1633616
160	0x3c4b55c6	0.012410587
161	0xbd493b0c	-0.049128577
162	0xbdb70c9c	-0.08937952
163	0xbe1dfbdd	-0.1542811
164	0x3d81180f	0.06303417
165	0x3e072267	0.13196717
166	0x3e0ad400	0.13557434
167	0xbe021299	-0.12702407
168	0x3e0c8aa2	0.13724759
169	0xbca284f9	-0.019838797
170	0xbdcb9ab7	-0.09941619
171	0x3e2f4236	0.17115101
172	0xbe2f06eb	-0.17092483
173	0xbe2848e9	-0.16434063
174	0xbdb24416	-0.087043926
175	0xbcb02f8a	-0.021507043
176	0xbd45751e	-0.048207395
177	0x3ddd1287	0.107945494
178	0x3e23bc15	0.15989716
179	0xbe11a13e	-0.14221665
180	0x3e0e5815	0.13900788
181	0xbd9f6fcc	-0.077849954
182	0xbd5befe2	-0.053695567
183	0x3e293d27	0.16527234
184	0xbda4e8e1	-0.080522306
185	0xbdac2948	-0.08406311
186	0x3e141006	0.14459237
187	0xbb71a79c	-0.0036873585
188	0xbdf01c0f	-0.11724102
189	0xbd1caa57	-0.038248386
190	0xbdb8f77a	-0.090315774
191	0xbe1b7bee	-0.15183994
192	0x3e0b0698	0.13576734
193	0xbdbb416b	-0.09143337
194	0x3e183739	0.14864816
195	0xbd88a6be	-0.066724285
196	0xbe2de1e7	-0.16980706
197	0xbbc2ac71	-0.005940967
198	0x3e1a6a5c	0.15079635
199	0x3d42e47b	0.047581177
200	0x3dec8985	0.11549667
201	0xbdf7a20e	-0.12091456
202	0xbdad5678	-0.08463758
203	0x3e1b025b	0.15137617
204	0x3c9f02e2	0.019410554
205	0xbe18c04e	-0.14917108
206	0xbd9a0cb9	-0.07521958
207	0x3e0286f0	0.12746787
208	0x3e243cf2	0.16038874
209	0xbb3ad2d7	-0.0028507018
210	0xbe289d36	-0.16466221
211	0x3e1f4c6b	0.15556495
212	0xbc4cae58	-0.012492739
213	0xbda9889b	-0.082780086
214	0xbe0bb7a9	-0.1364428
215	0x3e1912bf	0.14948557
216	0x3dd3b0a3	0.10336425
217	0xbe02650b	-0.12733857
218	0x3deab1a8	0.114596665
219	0xbe21472e	-0.15749809
220	0xbd82ecd6	-0.06392829
221	0xbe04611c	-0.1292767
222	0x3dc77816	0.097397014
223	0xbe2dae8b	-0.16961114
224	0x3dc78ebe	0.09744023
225	0x3df103bb	0.1176829
226	0x3d9c8097	0.07641714
227	0x3e1306e0	0.14358091
228	0x3e35360f	0.17696403
229	0x3d8417d8	0.0644986
230	0x3de30ada	0.11086054
231	0xbd9160ec	-0.070985645
232	0x3d1c9e7f	0.03823709
233	0x3bf6c965	0.0075313323
234	0xbbde9141	-0.006792218
235	0xbd72d39e	-0.059283845
236	0xbc2db0d9	-0.010601246
237	0x3c53543c	0.012898501
238	0xbd3abef2	-0.045592256
239	0x3e346ce3	0.17619662
240	0x3d4ec1be	0.050477736
241	0xbc16c620	-0.00920251
242	0xbc993c93	-0.018705642
243	0x3c86fd6e	0.016478267
244	0x3d12c068	0.035828024
245	0xbdcd643e	-0.10028885
246	0x3d8a6cc0	0.06759024
247	0xbc48e21d	-0.012260941
248	0x3e452469	0.1925217
249	0x3e067e2d	0.1313407
250	0x3db0b725	0.08628682
251	0x3d46234d	0.04837351
252	0xbd41a899	-0.047279928
253	0x3e18821f	0.14893387
254	0xbe31cbe8	-0.1736294
255	0x3bb759ae	0.0055954074

weight f4 [32, 32]
0	0xbdfad219	-0.12247104
1	0xbdc6d58a	-0.09708698
2	0xbd493814	-0.049125746
3	0x3dfcd0d1	0.12344516
4	0xbe158eb3	-0.14605217
5	0xbd152678	-0.03641364
6	0x3d52abf9	0.051433537
7	0xbd19ae3a	-0.03751967
8	0x3d525ed3	0.051359963
9	0x3cb16867	0.021656228
10	0xbd827082	-0.063691154
11	0x3daa4616	0.08314149
12	0x3db1598a	0.08659656
13	0xbdbde810	-0.09272778
14	0xbc5c2845	-0.013437335
15	0xbc83cff9	-0.01609038
16	0x3e06bd22	0.13158086
17	0xbcc1689f	-0.023609458
18	0xbb65af46	-0.0035047098
19	0xbdd8423a	-0.10559507
20	0x3d51383e	0.051079027
21	0x3daff4cd	0.08591614
22	0x3c8c2793	0.017108714
23	0xbdade600	-0.08491135
24	0xbb9c4ecd	-0.004770136
25	0x3cbd6b5d	0.023122484
26	0xbd964a3e	-0.07338379
27	0xbda5aab2	-0.08089198
28	0x3d353005	0.044235248
29	0x3cdfe4bd	0.02733075
30	0x3da985b1	0.08277453
31	0xbd721148	-0.059098512
32	0x3e8682ec	0.2627176
33	0xbcafc065	-0.021454046
34	0x3dae1e00	0.08501816
35	0xbe23198f	-0.15927719
36	0x3e0c4fb0	0.13702273
37	0xbb460642	-0.0030216132
38	0xbe01e9c6	-0.12686834
39	0x3e06c4fd	0.13161083
40	0x3e49675c	0.19668335
41	0xbdd88054	-0.10571352
42	0xbd9beeb6	-0.0761389
43	0xbe0494cb	-0.12947385
44	0x3d9e193d	0.077196576
45	0x3e063740	0.13107014
46	0xbe27f556	-0.16402182
47	0x3d6cd498	0.057819933
48	0xbdd69a15	-0.104786076
49	0x3d0f8cec	0.035046503
50	0xbe3f4bbd	-0.18681236
51	0xbe0ca8ab	-0.13736217
52	0xbce72b9e	-0.02821904
53	0xbc580f69	-0.013187268
54	0x3d8511e6	0.064975545
55	0x3de3e0f5	0.111268915
56	0xbdaedd05	-0.0853825
57	0x3be272f0	0.0069106743
58	0x3e29486f	0.16531537
59	0xbe10ca7a	-0.14139739
60	0x3d98fdc9	0.07470281
61	0x3dce3b32	0.10069884
62	0xbe202a64	-0.1564117
63	0x3d022381	0.03177214
64	0xbd90454b	-0.070444666
65	0xbe1e2c45	-0.15446575
66	0xbe724bc1	-0.2366171
67	0xbe3822ca	-0.17982021
68	0x3e74a828	0.23892272
69	0xbe4d92c3	-0.20075516
70	0x3e303ecc	0.17211455
71	0xbe0acdbb	-0.13555042
72	0x3ccc7da6	0.024962258
73	0xba09ac68	-0.0005251826
74	0x3d9b3580	0.07578564
75	0xbe0118bd	-0.12607093
76	0xbd785412	-0.06062705
77	0x3e096bf6	0.1342009
78	0xbd4026ee	-0.046912126
79	0x3de90d8f	0.11379539
80	0x3e2886ce	0.16457674
81	0x3d89dfde	0.067321524
82	0xbdfd33ad	-0.12363372
83	0xbd29a3b7	-0.041415896
84	0xbe0d4f83	-0.13799863
85	0xbe116f72	-0.1420267
86	0xbd3a5515	-0.045491297
87	0x3d318f5e	0.043349616
88	0x3e10de6b	0.14147346
89	0x3d29b56c	0.041432783
90	0xbd6bc9a0	-0.05756533
91	0xbe020c97	-0.12700115
92	0x3e23ab35	0.15983279
93	0x3e06ee22	0.13176778
94	0x3bbdb727	0.0057896557
95	0xbe185bae	-0.14878723
96	0x3e6caf13	0.2311366
97	0xbc877711	-0.016536267
98	0x3dc14bd5	0.09438292
99	0xbe38cae0	-0.1804614
100	0xbdc8c89c	-0.09803888
101	0xbe09d729	-0.13460983
102	0xbd40893d	-0.04700588
103	0x3dbb766d	0.09153447
104	0x3e3abee9	0.18236889
105	0xbe2c389a	-0.16818467
106	0xbe1e70c2	-0.15472701
107	0xbdd8b02e	-0.105804786
108	0x3e160920	0.14651918
109	0x3e18619f	0.1488099
110	0xbe4e12c0	-0.2012434
111	0xbe1eacb5	-0.1549557
112	0xbc0cb310	-0.008587614
113	0xbb9faa23	-0.004872577
114	0xbcdb8f61	-0.026801767
115	0xbd905ae7	-0.07048588
116	0x3defe79d	0.117140986
117	0x3e86fef0	0.26366377
118	0xbdefffed	-0.11718736
119	0xbe4a2c8f	-0.1974356
120	0x3dcea410	0.10089886
121	0x3ddc86fe	0.10767935
122	0x3cc3bd3b	0.023893943
123	0xbde7450f	-0.11292469
124	0xbe120c31	-0.14262463
125	0xbd84571f	-0.064619295
126	0x3e2dd8b9	0.16977204
127	0xbe34f2fd	-0.17670818
128	0x3e5e69f8	0.21720111
129	0x3d858d91	0.06521142
130	0xbe4be702	-0.19912341
131	0xbe124264	-0.14283139
132	0x3e4f48da	0.20242634
133	0x3dc89dc2	0.09795715
134	0x3dde5952	0.1085688
135	0x3e1568b7	0.14590727
136	0xbdb57691	-0.08860505
137	0xbc0c1aac	-0.008551281
138	0x3e07408c	0.13208216
139	0x3dbf89d7	0.09352463
140	0x3defdee7	0.11712437
141	0x3db13259	0.08652181
142	0xbe2c1877	-0.16806208
143	0xbe2d6273	-0.16932087
144	0x3df17a04	0.11790851
145	0xbcd25b47	-0.02567829
146	0xbdaa906f	-0.0832833
147	0x3d15039f	0.036380406
148	0xbca9de45	-0.02073587
149	0xbd894a3c	-0.06703612
150	0x3e003455	0.12519963
151	0xbd18e6c9	-0.03732947
152	0xbc28f737	-0.010312847
153	0x3c8b48f0	0.017002553
154	0x3d2caeef	0.042159017
155	0xbd8975cb	-0.0671192
156	0xbe1650b0	-0.14679217
157	0x3d84a74e	0.06477223
158	0x3e1974c7	0.14985953
159	0x3dad9acd	0.084767915
160	0x3d211b9a	0.039332964
161	0xbdde5df6	-0.108577654
162	0x3d6ddcbb	0.058071833
163	0x3dfe30c3	0.12411644
164	0xbe1fa6a3	-0.1559091
165	0x3e0b0f82	0.13580135
166	0x3c726830	0.014795348
167	0xbbfcd1d8	-0.007715445
168	0x3c6fe077	0.014640919
169	0x3dbfa83c	0.0935826
170	0xbd38b515	-0.04509457
171	0xbb4caeb0	-0.0031232052
172	0xba784fbb	-0.000947233
173	0xbe153deb	-0.14574401
174	0x3d12fc70	0.035885274
175	0x3e146648	0.14492142
176	0x3e3297ac	0.1744067
177	0xbe37889a	-0.17923203
178	0xbdc86bc8	-0.09786183
179	0x3da0e9fc	0.07857129
180	0xbc501fbd	-0.0127028795
181	0xbd8cdd44	-0.068781406
182	0x3da27d18	0.07934016
183	0xbde6feed	-0.11279092
184	0xbceb466a	-0.0287201
185	0xbd9acdad	-0.07558761
186	0x3bd86a4c	0.0066044684
187	0xbdf4d248	-0.119541705
188	0x3d91f37a	0.071265176
189	0xbd53fc78	-0.051754445
190	0x3d76217f	0.060090538
191	0x3dff041a	0.12451954
192	0x3c8f8642	0.017520074
193	0xbdb8aec2	-0.090177074
194	0xbe7726e7	-0.24135934
195	0x3d5637da	0.052299358
196	0x3d02295f	0.031777736
197	0xbe0c8037	-0.13720785
198	0x3db7c34d	0.089727975
199	0xbd812460	-0.06305766
200	0x3e720368	0.23634112
201	0x3e1af252	0.151315
202	0x3df2157c	0.11820504
203	0xbdc86359	-0.09784574
204	0xbe4bc5a3	-0.19899611
205	0xbdef5402	-0.11685945
206	0x3dfa4881	0.1222086
207	0xbe66f5a0	-0.22554636
208	0x3b237ba2	0.0024945517
209	0x3e5a6aba	0.21329775
210	0x3e110152	0.1416066
211	0x3d60c139	0.05487177
212	0xbe0b3c2d	-0.13597174
213	0x3c0e5626	0.008687532
214	0xbcb3bb4e	-0.0219399
215	0x3dc37b43	0.09544995
216	0xbe2e0214	-0.1699298
217	0x3e14c882	0.14529613
218	0xbd21e6e5	-0.03952684
219	0xbe24aed6	-0.1608232
220	0xbbc8288f	-0.0061083506
221	0xbddbc02b	-0.107300125
222	0x3e37779e	0.17916724
223	0x3cef6277	0.029221756
224	0x3c866145	0.016403804
225	0x3bc8949c	0.0061212312
226	0xbd855fa1	-0.065123804
227	0xbdd54986	-0.10414414
228	0x3c8b61ce	0.01701441
229	0xbc102ed8	-0.008800231
230	0x3e261f9c	0.16222996
231	0x3d50d535	0.05098458
232	0x3beb730a	0.0071853446
233	0xbd1f9392	-0.038959093
234	0x3e02a6ef	0.12758993
235	0xbd373e1b	-0.044736963
236	0xbb9d3167	-0.004797149
237	0x3e1d5c69	0.15367283
238	0x3d853503	0.06504252
239	0x3d36e447	0.044651296
240	0x3dd8c33a	0.105841115
241	0xbd05a0ad	-0.032623935
242	0xbdd867bf	-0.10566663
243	0xbd916a45	-0.071003474
244	0xbd936349	-0.071966715
245	0xbe6ad272	-0.22931841
246	0xbdc63b08	-0.09679228
247	0x3deb41f3	0.11487188
248	0xbd195aea	-0.037440218
249	0xbe262210	-0.16223931
250	0xbd816d6e	-0.063197
251	0x3e298f34	0.16558534
252	0xbe377195	-0.17914422
253	0xbddacb97	-0.10683363
254	0x3ceb05b5	0.028689245
255	0x3e1f7c7f	0.15574835

bias f4 [32]
0	0x3d02d1c5	0.031938333
1	0x3e25efb3	0.16204719
2	0xbd6bb7e7	-0.05754843
3	0xbc6058e4	-0.013693068
4	0xbd4914d8	-0.049092144
5	0xbd8387ce	-0.06422387
6	0xbe21af01	-0.15789415
7	0xbdba8f8a	-0.09109409
8	0x3d81262d	0.063061096
9	0x3db37012	0.0876161
10	0xbddb80ed	-0.1071795
11	0xbe0a0417	-0.13478123
12	0xbdc9e657	-0.09858387
13	0xbd70606c	-0.058685705
14	0x3e189d6f	0.14903806
15	0xbcd2e099	-0.025741862
16	0x3c73ca4a	0.014879772
17	0x3cd22cd3	0.02565614
18	0xbda7171f	-0.08158707
19	0x3d99b5c6	0.07505374
20	0xbdb9b6af	-0.09068047
21	0xbd58bd46	-0.05291488
22	0x3d9f798f	0.07786857
23	0x3d729dfd	0.0592327
24	0x3d840be0	0.064475775
25	0x3db4a87b	0.088211976
26	0x3cb371f3	0.021904921
27	0x3dc816d2	0.09769978
28	0x3de6ef48	0.11276108
29	0xbc06a38d	-0.0082177045
30	0xbc8f221e	-0.017472323
31	0x3db43676	0.0879945
